models/MLP_GRU/result.pt (torch, 78407 bytes, 9 tensors)

gamma_x_l.weight f4 [1, 256]
000000 59 ae 1a bd 5a d1 9e bd 9d 16 c7 bd 4e 40 6c be
       -0.037763927 -0.077547744 -0.0972111 -0.23071405
000010 fd bb ef bd 30 51 9e 3b 86 12 06 be e0 ba cb 3c
       -0.11705778 0.0048314556 -0.13093004 0.024869382
000020 c0 39 ad bd 00 5e 81 be d0 f4 fe 3b 70 37 6b be
       -0.084582806 -0.2526703 0.007780649 -0.22970366
000030 d6 59 47 be bb 7b d4 bd c5 f5 88 bd b0 bc 24 be
       -0.19467863 -0.10375162 -0.06687502 -0.16087604
000040 1a 39 4f bd c9 2c 56 be 16 09 33 bd 90 66 cb 3c
       -0.050591566 -0.20915522 -0.043709837 0.024829179
000050 9c 10 2d 3d e9 e4 46 bd 9a 85 70 be 1e a5 60 3d
       0.042252168 -0.04855815 -0.23488465 0.054844968
000060 9b cb f3 bd 05 44 3a be df 12 46 3d b8 d5 3f be
       -0.11904069 -0.1819001 0.04835784 -0.18733871
000070 8b 30 55 bd 05 5e 1e bd 32 d9 50 bd 3a 32 47 be
       -0.052048247 -0.038663883 -0.050988384 -0.19452754
000080 2f 53 9c 3c 35 29 89 bd 0d c7 39 be 81 e3 f4 bd
       0.019082634 -0.06697313 -0.18142338 -0.119574554
000090 44 c5 8b 3c d8 b1 84 be 27 2f 85 bd 48 35 ee 3c
       0.017061837 -0.25916934 -0.06503134 0.02907814
0000a0 a1 bf 25 be 55 10 54 bd 6b 2a 21 bd 7a e6 8b be
       -0.16186382 -0.051773388 -0.039347094 -0.27324277
0000b0 db 8e 89 be b3 bd 6a be 84 ba 90 bc f1 f5 0f bd
       -0.26866803 -0.22923927 -0.017667063 -0.035146657
0000c0 61 4f 37 bd 35 10 32 bd 1c be e0 3c 22 b6 56 be
       -0.044753436 -0.043472487 0.027434401 -0.20967916
0000d0 4c 5f 9c 3c 5b 3b 38 be 5f 32 5a 3c 40 75 51 bc
       0.01908841 -0.17991392 0.0133176735 -0.012784302
0000e0 58 e8 3c bd 75 65 b7 bd ee 05 d6 3c a4 e3 35 be
       -0.046120018 -0.08954898 0.026125874 -0.1776262
0000f0 5a 05 d2 3b ae aa 53 bd 1a 30 7e 3d cf 8e 3d be
       0.0064093294 -0.051676445 0.062057592 -0.18511508
000100 9e ae 4c bb b8 81 a5 bc 69 e2 80 be 3d a3 31 bd
       -0.003123201 -0.020203456 -0.25172737 -0.043368567
000110 2e cd 30 be ab e4 ff bd cb 71 26 be 08 b9 83 3c
       -0.1726577 -0.12494787 -0.16254346 0.01607944
000120 5d 3b d9 bd 56 55 ce bd 16 6e 39 be 5e 52 7a bd
       -0.10607026 -0.1007487 -0.181084 -0.061113708
000130 3f 77 61 bd d3 1a 41 be 0a 99 46 3c ea a3 d3 bd
       -0.055045363 -0.18857889 0.012121448 -0.103339985
000140 08 2b 06 be 73 ad 7e bb f7 2f 2e be 06 65 7a bd
       -0.13102353 -0.0038860708 -0.17010485 -0.0611315
000150 fd fb 83 be 3d bb 34 bd 90 b5 c7 3b 70 c4 6c be
       -0.2577819 -0.044123877 0.006094642 -0.2312181
000160 f1 9e c8 bd b1 4a 0c be 1e 7f 63 be 5c 64 06 be
       -0.09795941 -0.13700368 -0.2221646 -0.13124222
000170 6d c4 11 be 64 b1 81 bd 8e f7 58 be 80 7d 61 be
       -0.14235087 -0.06332663 -0.21188185 -0.2202053
000180 ca 39 8d bd 14 63 52 3d d5 4d 5d be 15 92 98 bd
       -0.06895788 0.05136402 -0.21611722 -0.07449738
000190 fc 81 ba bd 39 6d 95 bd 09 0f 35 bd 06 22 00 bd
       -0.09106824 -0.07296223 -0.04420379 -0.031282447
0001a0 d3 a3 35 be 53 00 6f be 35 e0 3e be bc f6 d4 bc
       -0.17738275 -0.23339967 -0.18640216 -0.025996558
0001b0 9c 80 87 3c 84 4d 76 be f3 01 59 be 54 56 60 bd
       0.016540818 -0.24053007 -0.2119215 -0.05476983
0001c0 7d a0 86 be df 10 b5 bd e8 4e 67 bd d7 d0 33 bd
       -0.26294318 -0.088411085 -0.056471735 -0.043900337
0001d0 23 66 f9 bd 69 64 01 be ec 6f 3a be aa cb 80 be
       -0.12177684 -0.1263596 -0.18206757 -0.25155383
0001e0 c2 8d 09 3d cb e0 62 3d e6 5b 7f bd fe 64 b9 bd
       0.033582456 0.05539016 -0.0623435 -0.09052466
0001f0 a6 13 db bc 8d 41 54 bd 91 51 74 bd 05 16 f0 bd
       -0.026742768 -0.051820327 -0.0596481 -0.1172295
000200 70 6b 3d 3c 56 73 92 bc d1 47 cc bd ec c1 c4 bb
       0.01156126 -0.017877262 -0.099746354 -0.0060045626
000210 fe 5a 5e be 4b 88 5f be 31 67 b5 ba 1a ea 41 be
       -0.21714398 -0.21829335 -0.0013839958 -0.18936959
000220 97 9d 81 be 93 28 50 be 0d be 32 bd 61 1a be bd
       -0.25315544 -0.20327978 -0.043638278 -0.09282375
000230 c3 e3 26 be da 91 ea bd 04 63 ea bc 88 0d b5 bd
       -0.16297822 -0.114536 -0.028611667 -0.088404715
000240 0d 72 38 3d b7 35 df bd ab f3 a6 3c 2a ee 37 bd
       0.045030642 -0.10898917 0.020379862 -0.044904865
000250 a1 e4 32 be 3c 50 11 bd 9e b8 3d be 94 b4 88 bd
       -0.17470028 -0.035476908 -0.18527457 -0.066750675
000260 ae 53 d1 bc 79 41 86 bd 26 dd 37 be d8 75 cf bc
       -0.025552597 -0.06555457 -0.17955455 -0.025324747
000270 d6 f8 c7 bd 8b ae 9e 3c 05 a4 21 be a2 ec 20 be
       -0.097642586 0.019370338 -0.15785225 -0.15715268
000280 a9 cd b2 bd f4 0e 7f be 16 d5 44 3d fb 24 1d be
       -0.08730633 -0.24908048 0.048054777 -0.15346138
000290 19 1e 01 bd 48 b5 8d bc 92 da a9 3c 05 f7 2f bd
       -0.031522844 -0.017298356 0.020734105 -0.042960186
0002a0 f0 29 91 bd e0 84 36 3d 47 9f 73 be b4 c3 13 be
       -0.07088077 0.044560313 -0.23791228 -0.14430124
0002b0 21 d6 25 bc da 23 35 bd c6 7d 7e bd b9 ac d5 bd
       -0.010121853 -0.044223644 -0.062131666 -0.10433335
0002c0 ee e7 07 be 64 3c 1a bd d8 4b 6c bd 13 a5 ad bd
       -0.13272068 -0.03765525 -0.057689518 -0.08478751
0002d0 65 a9 52 be 77 98 be ba 9f a1 41 be ad 7f 13 be
       -0.20572431 -0.0014541288 -0.1890931 -0.14404173
0002e0 27 25 52 be 54 43 05 3d be 62 06 bd 9c 02 35 bc
       -0.20521985 0.032534912 -0.03280901 -0.011047985
0002f0 a0 cf 26 be e2 d4 d1 bd fe 2e be bc 5e d0 57 bd
       -0.1629014 -0.10245682 -0.023215767 -0.05268895
000300 0a 01 3f be ce 24 21 3d 85 36 62 be 08 cd 02 bd
       -0.1865274 0.03934174 -0.2209111 -0.031933814
000310 53 e5 e8 bd 82 65 65 3d e5 8f d6 bd 60 cf 31 be
       -0.11371865 0.05600501 -0.104766645 -0.17364264
000320 32 8d 12 be f4 24 2c bd 25 e9 48 bd b4 e4 47 bd
       -0.14311674 -0.04202743 -0.04905047 -0.048802093
000330 56 5e ec bd fe 1d 1d bb 84 b3 32 bc 33 04 91 bd
       -0.11541431 -0.0023974176 -0.010907058 -0.07080879
000340 fe 6f 07 bd 80 e1 dc bd 36 4e 75 bd 5f e3 6a be
       -0.03306579 -0.10785198 -0.05988904 -0.22938298
000350 c0 b5 45 3d c4 96 e4 bd 45 b2 f5 bd 91 f0 ab 3a
       0.048269033 -0.11161569 -0.11996893 0.0013117959
000360 55 13 03 bd 52 6c cb bd 0e 85 fc bc c8 0c 0b be
       -0.03200086 -0.0993277 -0.030825164 -0.13579094
000370 0e dc 6c bd ff f2 9f bd 77 59 e5 3c 15 c1 2a be
       -0.057827048 -0.0781002 0.027996762 -0.16675217
000380 19 8f 2f be 48 ed c0 3c 76 fe af 3c 34 e2 82 be
       -0.17144431 0.023550645 0.021483641 -0.25563204
000390 6d 09 b1 bd d2 24 c4 bd 8f 26 2d be e2 5a f3 bd
       -0.08644376 -0.095773354 -0.1690924 -0.11882569
0003a0 6a bf d2 bd ce 0d 05 bd 58 08 d5 bd cb f2 b6 bd
       -0.102904156 -0.03248387 -0.10401982 -0.08933028
0003b0 e7 71 fc bd 4f 3c 2e 3d f1 f8 75 be c0 c1 ce bd
       -0.12326413 0.042537984 -0.24020745 -0.10095549
0003c0 67 58 2a bd 38 a5 34 be 29 6a ee bd d7 9e e7 bd
       -0.041588213 -0.17641151 -0.11641342 -0.11309593
0003d0 2f 8f d3 bd fa e8 f8 bd a2 74 33 3b 25 f9 17 bd
       -0.103300445 -0.12153812 0.002738275 -0.037102837
0003e0 df bc d7 bd 81 3c fd bd b0 24 c6 3c 36 95 18 bd
       -0.10534071 -0.12365056 0.024187416 -0.037251674
0003f0 82 53 85 bc 26 f5 4b bd 96 4b 49 be bc 66 46 be
       -0.016275171 -0.04979434 -0.1965774 -0.19375128

gru_cell.weight_ih f4 [192, 2]
000000 a5 bc 77 be b2 d6 23 3f 9c 9e 97 be 5c e6 85 3d
       -0.24193056 0.63999474 -0.29613197 0.06538078
000010 3f f3 cc be 96 20 c2 bd a8 5d 96 be a7 2a b0 be
       -0.40029332 -0.094788715 -0.2936833 -0.3440754
000020 c9 95 42 3c f7 8d cd 3d ba 9f cd 3e 82 8b 9d 3e
       0.011876532 0.10036843 0.40160924 0.307705
000030 a8 bc 16 3c fb ab 88 3e 1c f3 e2 be 8f 16 91 be
       0.009200253 0.2669371 -0.44326103 -0.28337523
000040 87 30 d4 be cb ff 80 be 53 6e 3d 3d ae 14 5f 3d
       -0.41443273 -0.25195155 0.04624779 0.05446308
000050 7f 8f bf be b7 11 b7 bd a1 17 34 3e 6a b2 1e 3f
       -0.37414166 -0.08938926 0.17587139 0.6199099
000060 38 d8 d8 bd aa 52 e3 bd e1 63 47 be a4 49 24 3e
       -0.105881155 -0.11099751 -0.19471695 0.16043717
000070 cf 12 a7 be df 63 09 3d dd b1 1d bf a2 e2 ce be
       -0.32631537 0.03354251 -0.6159952 -0.40407282
000080 5e 0d 86 3e f9 71 4f 3e 62 8d bc be f4 90 51 be
       0.26182073 0.20258321 -0.36826617 -0.20465451
000090 f6 01 62 be ab 92 9e bc 0c 71 4d bc 11 3a 10 bf
       -0.2207106 -0.019357046 -0.0125391595 -0.563386
0000a0 fd 0d 05 3c 17 4e 36 3e 7a 1c 66 3e 61 e6 19 3e
       0.008121011 0.17803226 0.224718 0.15029289
0000b0 01 ea 16 3f 4f 29 0e 3c 44 29 4f bf a7 5a 93 be
       0.5895081 0.008676841 -0.8092234 -0.287801
0000c0 bc 1d 34 be 41 1b d5 3e 92 da 12 be b4 bb 92 3e
       -0.17589468 0.41622356 -0.1434119 0.2865883
0000d0 ce ad 19 3d a6 53 89 3e 68 88 9c be 8e 7f 69 be
       0.03751927 0.2682163 -0.3057282 -0.22802565
0000e0 62 4e 84 be 78 d1 72 3c 8d 78 ba 3d df e8 2c 3f
       -0.2584105 0.014820449 0.091050245 0.67542833
0000f0 83 fe 79 3e ba c7 47 be 7d 39 00 be ff 3c 71 3c
       0.24413495 -0.19509783 -0.1252193 0.014724015
000100 1b 0b 8f 3e bb 50 c8 3c 47 87 8a 3d 52 ee 02 bf
       0.2793816 0.024452558 0.06764083 -0.511449
000110 64 18 42 3f 2e c8 52 3e be 28 17 3f 3c 04 82 bd
       0.7581847 0.20584175 0.5904654 -0.06348464
000120 9c 90 00 bf bb 82 2e bf 9f 3f 00 3e c6 9f 76 be
       -0.50220656 -0.6816823 0.1252427 -0.24084386
000130 ab 94 c9 3b 72 e2 04 be 43 52 89 be 56 f5 13 bd
       0.006151756 -0.12977007 -0.26820573 -0.036122642
000140 71 28 68 be f4 e9 9b bf 5a 09 69 be d0 cc 9e 3d
       -0.22671677 -1.2180772 -0.22757474 0.07753909
000150 77 75 c1 3c f6 74 31 3d 7a 92 bd bd c3 60 d5 3e
       0.023615582 0.043324433 -0.09256454 0.41675386
000160 3b b2 2c be 16 e4 ac 3e 07 7f f5 be 61 e6 d8 bd
       -0.16864865 0.33767766 -0.47948477 -0.10590816
000170 0c f2 64 3e a8 f1 a1 3c 50 e0 4e be a4 ce 90 3e
       0.22357959 0.019768551 -0.20202756 0.28282654
000180 01 74 bb be d3 91 26 bd 12 0f 9a bd d2 6f c0 bc
       -0.3661194 -0.040666413 -0.07522406 -0.02349082
000190 aa b4 39 3e a3 26 7b 3e 9d a4 8f bb 99 bf f6 3d
       0.18135324 0.24526457 -0.004383637 0.12048263
0001a0 82 87 18 bf f1 f0 87 be 99 bf 9a 3d f9 8a 44 3e
       -0.5958177 -0.2655101 0.075560756 0.19193639
0001b0 dd df c2 bd 03 e2 28 3f bc 98 eb be 75 27 3c bd
       -0.09515355 0.65969867 -0.46014965 -0.045936067
0001c0 70 a4 04 bf 41 d7 14 be da 1c 69 3e 6b 80 91 3e
       -0.5181341 -0.14535238 0.22764912 0.28418288
0001d0 a3 09 d6 be 8f 16 89 be 42 c3 fa bc 7a e8 1a 3e
       -0.41804227 -0.26775023 -0.030610684 0.15127745
0001e0 22 4f ae 3e bb 8b aa 3e 1d d8 6d be ba 9d 87 be
       0.3404475 0.3330973 -0.23226972 -0.26487523
0001f0 cb 3d 52 be be 38 73 3e 2b fd 29 be d0 75 1f 3e
       -0.20531385 0.23752114 -0.16600482 0.15572286
000200 e3 84 b0 3d a2 20 06 be 0a a6 a1 3e c8 8f b9 bd
       0.08619096 -0.13098386 0.3157199 -0.09060627
000210 a4 ac 0a 3d bb 20 62 be b4 89 0e 3f d3 fc a1 bc
       0.03385605 -0.22082798 0.5567887 -0.019773876
000220 fd d9 9a be 31 69 03 bf c6 90 14 3f 55 0d 78 3e
       -0.30244437 -0.51332384 0.58033407 0.24223836
000230 fb d2 c4 3e 76 e0 1a bf e0 4e 5f bc 17 2a e8 be
       0.38442215 -0.6049875 -0.013629645 -0.45344612
000240 2e 9e aa 3d 68 02 fc bc 74 3d af 3e b2 2c 70 be
       0.08330952 -0.030762866 0.34226573 -0.2345455
000250 e8 20 14 3f cd 33 18 bd 0f 06 b4 3d bb 0b ac 3d
       0.5786271 -0.037158776 0.08790218 0.08400675
000260 80 19 97 3e d7 e9 a3 3d 2e 63 87 3e a1 f9 dd bd
       0.29511642 0.08003586 0.26442856 -0.108386286
000270 5f d9 f1 3e 43 d6 b5 3d ad 57 aa 3e f4 04 b6 be
       0.47236153 0.08878758 0.33270016 -0.35550654
000280 6a 10 dd 3d c5 cf 2a 3e 17 95 f7 bd c7 37 3d bc
       0.10794146 0.1668082 -0.120889835 -0.011548943
000290 4f ba 27 3f 4d f5 eb 3b e3 51 f2 3e 34 2f 3c be
       0.6551866 0.007200873 0.473281 -0.18377382
0002a0 42 72 2a 3f 72 67 cf 3d 1e cd 72 3f 0b bc b0 3e
       0.66580594 0.101271525 0.94844234 0.34518465
0002b0 b7 e8 b2 bd 7e 57 87 bd 72 92 85 bf d1 0c c0 3e
       -0.08735793 -0.06608485 -1.0435317 0.37509778
0002c0 e1 68 b6 3e 10 3b a7 3d b0 a5 c3 3e 94 15 9d be
       0.3562689 0.08165562 0.38212347 -0.30680525
0002d0 c0 8a 59 3e c9 0d a5 3e c7 bf 50 3e e1 27 99 be
       0.21244335 0.3223708 0.20385657 -0.29913238
0002e0 9d 36 4d 3e 7b 99 10 be 0a 85 ac 3c ba 8f 8a be
       0.20040365 -0.14121048 0.021059532 -0.2706278
0002f0 d7 7d 97 bd 48 9f 11 bf 41 b8 bd 3d 78 a3 b5 3e
       -0.07397049 -0.5688367 0.09263659 0.3547628
000300 f1 a9 1d be f9 43 64 3d 66 f6 ed 3e 43 7b 6e be
       -0.15396859 0.055728886 0.4647705 -0.23289208
000310 b8 25 7e b9 d7 a6 22 be b7 20 5e 3e ab 91 9d bd
       -0.00024237379 -0.15883957 0.21692167 -0.076937996
000320 c8 a9 21 be ba 81 1a c0 68 b2 48 bd 73 06 ee 3c
       -0.15787423 -2.414168 -0.048998266 0.02905581
000330 cd 2e c1 3c 20 4f 25 be dc 99 ac 3b 40 1f 24 bd
       0.023581887 -0.16143465 0.005267365 -0.040068865
000340 2a 0d 06 bf e5 36 41 c0 a0 50 3c 3e 57 c1 bd 3c
       -0.52363837 -3.0189755 0.18390131 0.02316348
000350 8e eb 1d 3e c5 4a ab ba 8a 5c 03 3f 2e 13 bb 3e
       0.15421888 -0.0013068548 0.5131308 0.3653807
000360 32 79 46 3f 14 e1 04 3f b7 ce a9 3e fe c7 49 bd
       0.7752868 0.5190594 0.33165523 -0.049262993
000370 51 78 9c 3d ad 0d 95 bd e3 6e 2c 3c 26 51 b5 3d
       0.07640136 -0.07277999 0.010524484 0.088533685
000380 21 be 85 3e 38 4a a0 3e 77 4d 75 3e 78 b0 58 bf
       0.2612162 0.31306624 0.23955332 -0.8464427
000390 df 55 41 3f 43 0b 6a 3e 95 a2 c3 be eb d0 6b bf
       0.75521654 0.22855859 -0.38209978 -0.9211566
0003a0 43 53 77 be 8b 60 bf be c5 b3 b6 3d 63 86 ad 3c
       -0.24152856 -0.37378344 0.08921007 0.021182245
0003b0 74 77 b2 bd fa f9 d9 bf 77 ed 59 3d 9f 05 08 3e
       -0.0871419 -1.7029412 0.05320498 0.13283394
0003c0 92 70 e2 3c 16 e2 c3 be 21 1a 51 3d d7 84 8b 3d
       0.027641568 -0.38258427 0.05105031 0.068124466
0003d0 34 cc de 3d c8 ac 8a be 8d 5c d2 3e a9 52 0b be
       0.108787924 -0.27084947 0.41086236 -0.13605751
0003e0 b8 13 cd be 93 e4 64 bf 6a 19 88 3e 6d 89 7c bd
       -0.40054107 -0.89411277 0.2658189 -0.061654497
0003f0 e4 bb 5b 3f af 32 0c 3e 26 5c bc 3d f4 47 73 3e
       0.85833573 0.1369121 0.091972634 0.23757917

gru_cell.weight_hh f4 [192, 64]
000000 a9 54 15 bf 33 a8 14 3f 1c 25 16 be b8 22 2e 3f
       -0.58332306 0.5806915 -0.14662594 0.68021727
000010 7b ce 5e 3d d2 97 0c 3f 55 62 77 bd b0 60 00 bd
       0.054396134 0.5491916 -0.06039651 -0.03134221
000020 ff 12 1c 3e 48 02 ed be 17 eb 82 be 2d 10 99 be
       0.15241621 -0.46290803 -0.25569984 -0.29895154
000030 22 ca 82 3e 7d c1 f1 3e 72 ff a5 be ac 42 3f 3f
       0.2554484 0.47217932 -0.32421452 0.7471111
000040 1a 7b 71 be 03 77 a3 3e d1 a2 be bf b8 f7 e8 be
       -0.23582116 0.31926736 -1.4893438 -0.45501494
000050 f1 5c 98 3e 5f 43 e1 be d7 7f bd 3d aa ef 28 bf
       0.2975841 -0.43996713 0.09252899 -0.659907
000060 5c b4 3d bf 7a f5 1e bf a7 37 91 be 33 e0 cc be
       -0.7410333 -0.6209332 -0.28362772 -0.400148
000070 86 f5 82 be 95 ce 6c 3e fd 38 bc bd d9 20 03 bd
       -0.25577945 0.2312568 -0.09190557 -0.032013748
000080 2d 23 21 bf 87 35 b1 be 04 0d 8c 3d 37 95 46 3f
       -0.629443 -0.3461115 0.0683842 0.77571434
000090 c4 cf 82 be 08 bc 05 bf 36 11 ba be 6f fc cf be
       -0.25549138 -0.5224004 -0.36341256 -0.4062228
0000a0 95 fb 27 3f e2 a0 49 be e4 e5 8f be 56 b5 2d bf
       0.6561826 -0.19690278 -0.2810508 -0.6785482
0000b0 fd a4 1c 3f b1 d3 51 bf c6 c7 0e 3e 37 e6 8e be
       0.6118925 -0.8196364 0.13943395 -0.27910015
0000c0 d4 ab a0 3e d3 63 d0 3e ae 20 0f be 65 4f 43 3d
       0.31381094 0.4070116 -0.1397731 0.04768314
0000d0 84 13 b3 be 8d 2f 14 be fb fc a7 bd be b4 88 3f
       -0.34975827 -0.14471264 -0.08202549 1.0680158
0000e0 d3 67 e6 bd f4 af 80 bd 3d 79 de 3e f7 ac 96 be
       -0.11250272 -0.062835604 0.43451872 -0.29428837
0000f0 1f c8 67 3d 13 29 e5 3e 1b e5 96 3d b5 13 a5 3e
       0.056587335 0.447579 0.07367917 0.32241598
000100 af 8a 27 3e 46 97 dd bc a9 93 9c 3e 66 e4 ae 3d
       0.16361497 -0.027049672 0.30581406 0.08539657
000110 43 52 49 3e 72 84 02 3f 98 b3 f2 3d e8 56 4f 3e
       0.19660287 0.50983346 0.11850661 0.20247996
000120 bc d6 f7 be e2 07 d6 be 12 8f 38 3f 9d 25 08 3e
       -0.48406017 -0.4180289 0.7209331 0.13295598
000130 c9 bb 99 bd 20 1b 84 be ad 93 6c 3e e0 b9 1a 3f
       -0.0750652 -0.25801945 0.23103209 0.6043987
000140 c4 b8 6c 3d ad 7f d3 bd 28 4f 96 bd 47 04 30 3e
       0.057793394 -0.103270866 -0.073393166 0.17189132
000150 bf e2 12 3d e7 2a b5 3d 8a b2 96 bc 8e 75 89 be
       0.035860773 0.088460736 -0.018395681 -0.268475
000160 f6 da b2 3d f5 27 6a be b7 b7 8d be df f1 82 be
       0.0873317 -0.22866805 -0.27679226 -0.25575158
000170 a3 67 f0 3e 26 3f 7d be f1 d8 bf 3d c3 ab 38 3e
       0.4695407 -0.2473112 0.0936755 0.18034272
000180 ca 2c af 3e d5 01 05 3e 1e 0f 14 3e a4 ba fb be
       0.3421386 0.1298898 0.14458892 -0.49165833
000190 91 00 6c 3e 48 a4 23 3e d3 be 32 be bd d7 39 be
       0.23047091 0.15980637 -0.17455606 -0.18148704
0001a0 27 36 9f be 90 fa b3 3d a1 f9 05 3e 40 a7 14 3e
       -0.31096002 0.087880254 0.13083507 0.14516926
0001b0 7d ea 13 bf 12 c0 6a 3e 2d da 2f be 80 a8 7b 3e
       -0.57779676 0.22924832 -0.17173071 0.24575996
0001c0 6d d8 60 be e5 01 6f be 88 b5 4e be bc 19 d7 3b
       -0.2195756 -0.23340566 -0.20186436 0.006564347
0001d0 13 1c 0d bf e3 41 57 3e b4 a2 e3 3d b0 89 2a be
       -0.5512096 0.21021228 0.111150175 -0.16654086
0001e0 d8 ab 27 3f 03 3e 54 bd 30 b0 64 3e 30 32 0b 3c
       0.6549659 -0.05181695 0.22332835 0.008495852
0001f0 9c 98 0a 3d 54 a1 38 be 22 87 7d bc a8 7d b4 be
       0.033836946 -0.18030292 -0.015474113 -0.35252118
000200 0f a9 41 3e 2e 57 e7 3d 46 49 8c 3e 00 7b ac bd
       0.18912147 0.11295925 0.27399653 -0.08421898
000210 23 55 39 be 5c e7 19 bd cb 85 cd 3d 44 26 d0 3d
       -0.18098883 -0.037574157 0.100352846 0.101635486
000220 86 d6 e2 be 6d 76 bf bd 3a 44 af 3e f2 a6 61 bd
       -0.44304293 -0.0934876 0.3423174 -0.055090852
000230 9c 52 9a bd eb db 87 be f6 f5 88 bd 27 a0 2d 3f
       -0.07535288 -0.26534972 -0.06687538 0.678225
000240 97 d3 db bc a0 79 a9 bc 20 0a 81 3d ad dc e1 3e
       -0.026834292 -0.020687878 0.06300759 0.44113675
000250 9e 4f 04 3c 2c 71 8e 3c 0c 07 2e 3d d7 40 03 bf
       0.008075623 0.017387949 0.04248719 -0.5127081
000260 13 96 8a 3d 6b 89 0e bd ba 84 80 bc 76 c7 b8 bd
       0.06766906 -0.03479902 -0.015688289 -0.09022419
000270 25 98 b0 3e d9 6d 1b 3d d8 54 34 be 16 f9 d3 bd
       0.34491077 0.037946556 -0.1761049 -0.10350244
000280 83 e2 0f 3d 2a be 9c 3d a2 cb d0 3d c9 66 41 be
       0.035128128 0.076534584 0.1019509 -0.18886866
000290 ae 20 be 3e 98 23 60 3e 5d ce 5b be c6 37 36 be
       0.37134308 0.21888578 -0.2146544 -0.17794713
0002a0 7b 0b 42 be 58 1c 16 3d dc 62 ef bc f9 61 8e bd
       -0.18949692 0.036648124 -0.029221945 -0.069522806
0002b0 7b 58 88 bd 62 74 18 be 47 af 1a bd 3c d9 22 be
       -0.06657501 -0.14888147 -0.037764814 -0.15903181
0002c0 21 59 d6 bd 6a 38 2e be 71 8e 16 3d 9c 55 99 bd
       -0.10466219 -0.17013708 0.036756936 -0.07487032
0002d0 cf 2b 18 be 1f 8d e3 bc 93 0a d9 3d 41 08 cd bd
       -0.14860462 -0.027777253 0.1059772 -0.1001134
0002e0 84 f6 86 3e 1a 14 05 be 8d 87 4d 3e c1 46 94 bd
       0.26359951 -0.1299595 0.2007124 -0.07240058
0002f0 3b f2 75 bd ed ba 3b be fb 99 66 3e f4 00 30 be
       -0.060045462 -0.18333025 0.22519676 -0.17187864
000300 c9 57 ae 3e 38 f8 f8 bc f4 b3 c5 3d d9 dd 38 be
       0.3405135 -0.030391797 0.09653464 -0.18053378
000310 d2 47 e8 3e 3b d7 9b 3d ba ae 21 be 7d c5 ce 3e
       0.45367295 0.07609411 -0.15789309 0.40385047
000320 08 5f 08 bd 75 35 d3 be 85 a7 87 3e dd ad 0a bc
       -0.033293754 -0.41251722 0.26494995 -0.008464304
000330 57 06 24 3e 9b 23 c2 bd 40 63 a0 3e 8c 32 52 3e
       0.16018043 -0.094794475 0.31325722 0.20527095
000340 58 5a 32 3e ac 97 e5 3d fd e2 8c 3e 1f b6 91 3c
       0.17417276 0.1121057 0.27516928 0.017787037
000350 20 08 8b 3e b5 85 e6 3e 13 c0 55 3e 40 50 b6 be
       0.27154636 0.45023885 0.20874052 -0.356081
000360 5d a8 f0 be da 39 8c be 43 b8 c0 be 65 4e 84 3e
       -0.4700345 -0.27387887 -0.3764058 0.2584106
000370 28 82 71 3c 19 57 2d bf 3b 59 85 3e 30 8f a4 3d
       0.014740504 -0.67711025 0.2604464 0.08035123
000380 96 69 b3 3d 57 cf 14 3e 74 fd ef be be 94 66 be
       0.08760373 0.14532219 -0.46873057 -0.22517678
000390 b1 60 15 bf 95 16 98 3c 82 6e b7 be 21 18 3c 3d
       -0.58350664 0.018565455 -0.35826498 0.04592145
0003a0 d8 7d 23 bf 64 42 76 3e 65 b7 56 3e a7 fb a8 bd
       -0.638639 0.24048764 0.20968397 -0.08251124
0003b0 7d a1 a7 be 72 08 29 be 64 1e 99 be ac 0e ad bd
       -0.32740393 -0.16507128 -0.29906 -0.08450064
0003c0 76 82 a2 be 5c 0b b5 be e9 7f ad 3e 9a c1 f0 3e
       -0.3174016 -0.3536023 0.3388665 0.47022706
0003d0 21 0e a7 bd 52 7f cd 3e 99 0d ff 3e 79 44 c7 3d
       -0.08156992 0.401362 0.49815062 0.09729857
0003e0 b1 18 87 bd 2d 7e d5 bd 10 34 04 bd bc f4 28 3e
       -0.065965064 -0.10424457 -0.032276213 0.16499609
0003f0 f2 bc 27 bf bc 32 5d be 66 10 fc bc f3 69 1b bf
       -0.6552268 -0.21601385 -0.030769538 -0.6070854

gru_cell.bias_ih f4 [192]
000000 ac 8b c6 3d b1 0c 46 be 85 c7 08 be a7 08 ca be
       0.09694609 -0.19340779 -0.1335736 -0.39459726
000010 6c ae 04 3f cf 0e 12 3e bc 0b f2 3d 6d ee 79 3e
       0.51828647 0.14263462 0.118186444 0.24407358
000020 22 2d 26 be 05 2f 9e 3d 57 51 b0 bd bb da 93 3e
       -0.16228154 0.07723812 -0.08609264 0.28877816
000030 a5 b5 b3 3c 81 3a 94 be 0e 9f 13 3e 73 f6 04 be
       0.0219372 -0.28950885 0.14416143 -0.12984638
000040 0e 27 9e 3d 25 1a 2e 3d 14 f0 a4 3c 85 e0 9f be
       0.07722293 0.042505402 0.02013401 -0.31225982
000050 ba 91 e8 bc cc 90 85 3d 73 c0 33 3c 1a b4 a7 be
       -0.0283898 0.065217584 0.010971176 -0.32754594
000060 5b f5 13 3e 4e 23 4c bd c9 fd 55 3d f7 5e f3 bd
       0.14449064 -0.049838357 0.05224398 -0.118833475
000070 c4 69 2a be db 07 97 3e 9e d8 ae 3e c9 17 14 3d
       -0.16641909 0.2949818 0.3414964 0.036155496
000080 e4 7d 94 bd d6 d7 b9 3d 7d b1 6f 3e cb 87 2e be
       -0.07250574 0.090743706 0.2340755 -0.17043988
000090 4e 79 cb be ff ab 22 3c 54 5a 0b bd d1 fe a8 bb
       -0.39740986 0.009928702 -0.03402169 -0.0051573296
0000a0 6c c1 9e be cc 4e e1 bd f2 91 bc bd c4 41 31 be
       -0.31006944 -0.110013574 -0.09207524 -0.17310244
0000b0 3e 9f 82 3e 0d 0a 88 3b 3e 49 86 3e 0c 6e 25 3d
       0.25512117 0.004151589 0.26227754 0.040388152
0000c0 1a 33 2c 3d 29 29 b0 be 59 1c f7 ba 23 e8 00 3f
       0.04204092 -0.34406403 -0.0018853053 0.5035421
0000d0 2d 41 31 bc 13 aa 26 3e db 75 90 3d 27 0b c4 3d
       -0.010818762 0.16275816 0.07053729 0.0957244
0000e0 73 bc 69 be 86 e6 3c bd 01 43 6e be ab 6d 60 3d
       -0.22825794 -0.04611828 -0.23267747 0.054792088
0000f0 a3 f2 33 3f 7a 6b db bc ea 11 e5 3d 25 57 02 bd
       0.7029211 -0.026784647 0.111850575 -0.03182139
000100 67 21 47 3e 5b 9e 8a 3e 1a d4 7f 3e a1 a9 15 be
       0.19446336 0.2707394 0.24983254 -0.1461549
000110 ab 1e 84 bf 7e de 8f 3e 47 11 a3 bd e5 87 4b bf
       -1.0321859 0.28099436 -0.0796228 -0.79504234
000120 ce 13 1a 3e 2e ad 63 3e 93 4e b7 3e 21 dd 68 3e
       0.15046617 0.22234032 0.35802135 0.22740604
000130 8d cc 0c bc c1 05 3d 3d 85 cd 9e 3e 88 d1 81 3e
       -0.008593691 0.046148065 0.31016174 0.25355172
000140 e6 fc d9 3e b1 9c 9c 3e 60 ee f4 3e 62 a7 18 3f
       0.4257576 0.30588296 0.47838116 0.59630406
000150 85 8c 08 3f 45 da 0d 3f 49 10 0b 3e 18 6d 45 3e
       0.53339416 0.5541118 0.13580431 0.19279897
000160 4d 99 ef 3e 18 f5 50 3e d6 0f 85 3e 20 b2 ff 3d
       0.46796647 0.20405996 0.25988644 0.124851465
000170 71 51 55 3e db 85 c0 be c0 bb 77 bf 37 b5 fe 3e
       0.20831849 -0.37602124 -0.9677086 0.4974763
000180 cd 3f 52 be 2b c1 c0 bd 17 23 a2 bc 14 11 94 3e
       -0.2053215 -0.09411844 -0.019792123 0.2891928
000190 c7 88 10 3e 3a fb 4d be 4e 3e 3f 3d a3 0b 39 3e
       0.14114676 -0.20115367 0.046690278 0.18070845
0001a0 ad f8 b3 3e ca 0f cb 3e df f7 dc 3e 73 5c f0 3e
       0.35150662 0.39660484 0.4315786 0.46945533
0001b0 17 97 14 3f 5b bf d5 3e 14 b6 fe bd 59 b1 9b 3e
       0.58043045 0.41747555 -0.124370724 0.30408743
0001c0 ac 06 70 3e b4 71 9e 3e 81 29 ff 3e 7f 05 62 bf
       0.23440045 0.30946124 0.49836352 -0.88289636
0001d0 92 d0 03 bc 14 e6 c5 3e f2 ac bc be 72 db 18 3e
       -0.0080453325 0.38652098 -0.36850697 0.14927462
0001e0 6b 4c 24 3d c1 fd 6a 3e 0a e6 10 3e 31 95 58 3e
       0.04011194 0.22948362 0.14150253 0.21150662
0001f0 db 81 a5 bf d4 c2 1e 3e 5a a6 ac 3e 47 56 77 3d
       -1.2930254 0.15504009 0.33720666 0.060385015
000200 27 86 41 be 20 72 15 bd 90 c5 4a 3d 3f dd ab bc
       -0.18898831 -0.03648579 0.049504817 -0.020979522
000210 93 e7 75 be 20 42 0b bf 1f ca 1d 3e d3 4e 6b bd
       -0.2401412 -0.54397774 0.15409134 -0.05744822
000220 4b e8 df bd 29 b5 2b 3c 70 3f 1c bd 2c 47 3f be
       -0.10932978 0.010480204 -0.038146436 -0.18679494
000230 b0 b7 4e be 6e 5c e7 bb 33 00 73 3d bc 7c 60 3e
       -0.20187259 -0.007060579 0.059326362 0.21922582
000240 b7 e4 d3 3c 80 50 55 bd 83 a5 4c 3c b3 b1 d2 3d
       0.025865896 -0.052078724 0.012490633 0.102878
000250 71 af c8 bd 14 43 12 3e 42 a6 04 bf 5f d5 60 be
       -0.09799088 0.14283401 -0.5181619 -0.21956395
000260 65 60 5e be d7 3e c7 3d f6 b8 a6 3d cf 46 5e be
       -0.21716459 0.097287826 0.08140747 -0.21706699
000270 4c 2f bb 3d 9a de 01 3f 04 02 bb bd 65 35 2a 3d
       0.091398805 0.5073029 -0.09131244 0.041554827
000280 90 ce 41 3c e2 1f 0c be c2 e7 81 3e 04 5a ad bd
       0.0118290335 -0.13684037 0.2537213 -0.08464435
000290 0e 9e 9b 3e 6d b7 6c 3c b8 19 19 3d 4e a2 e2 bd
       0.30394024 0.014448029 0.037378043 -0.110661134
0002a0 9b b1 8c be 10 1a 02 3e a4 6f a1 bc fb 35 d1 3c
       -0.27479252 0.12705255 -0.019706555 0.025538435
0002b0 a5 3b 8b 3e 86 9e ad bd f1 f4 d2 3e b9 1c 00 3e
       0.27193943 -0.084775016 0.412025 0.12510957
0002c0 63 f7 61 bd 02 98 ac 3d cf 63 d1 bd 7f de 85 be
       -0.055167567 0.08427431 -0.10224115 -0.26146314
0002d0 55 b8 0e be 61 07 2d ba 26 21 a0 bd 2a 6a 1d bc
       -0.13937505 -0.0006600526 -0.078188226 -0.009607831
0002e0 e3 3f da 3d 3c ad de 3d e6 09 0f 3e d8 0d 14 3d
       0.10656717 0.108728856 0.1396862 0.036146015
0002f0 d4 81 54 3f 37 85 0e 3e 4d e8 8d be 17 8d 87 3d
       0.830106 0.13918005 -0.27716294 0.066187076

gru_cell.bias_hh f4 [192]
000000 95 eb 8a 3e c0 f3 1e be 75 0d 9a bd c1 81 9b be
       0.2713286 -0.15522671 -0.07522098 -0.30372432
000010 d1 1d e0 3e 4e c3 99 3d 24 84 41 3d 1a 07 38 3e
       0.43772748 0.075079545 0.04724516 0.17971459
000020 66 73 7c 3c 1d 9e 4c 3d 9b 2e 99 bc d1 ea ef 3d
       0.0154083725 0.049955476 -0.018698981 0.117147096
000030 7a e7 03 3e 22 2f a4 be 00 01 8d 3d 90 aa 90 be
       0.1288127 -0.3206721 0.06884956 -0.2825513
000040 c3 55 ac bc 7b fe 0a be 6f 6a 1c bd 17 45 61 be
       -0.021036988 -0.13573639 -0.03818744 -0.21999012
000050 2f e3 f1 3d 1f 37 45 3e aa 71 ff bc 74 87 2b be
       0.1181091 0.19259308 -0.031182129 -0.1675089
000060 28 63 37 3e 28 c7 1d bd 48 32 e9 3d fb ba a1 be
       0.17908919 -0.03852001 0.113865435 -0.31587967
000070 e9 5a 0a be ec 67 a3 3e 07 85 bf 3e 23 27 83 3d
       -0.13511242 0.31915224 0.3740618 0.06403949
000080 0f b2 7d 3d 4b 3f d1 3d ab 8b ce 3e 9e ef 02 be
       0.061937388 0.1021715 0.40340933 -0.12786719
000090 f9 42 e4 be 06 47 f0 bd b6 17 72 bd 4f f6 53 bd
       -0.44582346 -0.11732297 -0.059104644 -0.05174857
0000a0 40 33 43 be 25 a2 c1 3d dc f4 97 bd 58 29 3e be
       -0.19062519 0.09454755 -0.0741975 -0.18570459
0000b0 d6 63 19 3e 2b 4c ac bc 79 e6 8f 3e 6c df 36 3e
       0.1497949 -0.021032413 0.28105524 0.17858666
0000c0 23 38 f3 bd 74 05 9f be 9c c6 6c 3e 18 1d 2e 3f
       -0.118759416 -0.31058848 0.23122638 0.68013144
0000d0 ec 9f 9d bd 1e fd 33 3e e1 e0 18 3e e6 ef 53 3c
       -0.07696518 0.17577025 0.14929534 0.012935614
0000e0 33 99 81 be a5 ea 2f bd ef 95 c7 bd 94 02 1b 3d
       -0.25312194 -0.042948384 -0.097453944 0.037844256
0000f0 dc ca 3f 3f 15 76 86 3c 7b 48 05 3e 7d 19 fa bc
       0.74918914 0.016413728 0.1301593 -0.030529732
000100 a2 49 33 3e ec c0 7a 3e 54 a2 70 3e b6 7f b5 bd
       0.17508557 0.24487656 0.23499423 -0.088622496
000110 bd 16 89 bf e3 69 55 3e 14 f0 ef bd f7 19 30 bf
       -1.0710064 0.20841174 -0.11715713 -0.6878962
000120 44 e2 b5 3e 6a 69 d8 3e 3a 2d aa 3e 1f 8d 45 3e
       0.3552419 0.42267925 0.3323763 0.19292115
000130 c8 92 43 be 5e 87 ab 3d 52 81 c1 3e 55 ba 9d 3e
       -0.19098961 0.083754286 0.37793976 0.30806223
000140 3f c4 96 3e 7a 47 b0 3e 8d 1d 21 3f 0d 02 01 3f
       0.294466 0.34429532 0.62935716 0.50393754
000150 76 05 c2 3e c2 46 2b 3f a0 44 1c bd 36 66 f2 3a
       0.3789479 0.6690484 -0.038151383 0.0018493596
000160 4b 78 b7 3e 9b 62 ec 3d 84 aa 9b 3d ac c7 1f 3e
       0.35833964 0.11542245 0.07600883 0.15603513
000170 e6 45 45 3e 18 86 dd be 0e 45 59 bf a3 c0 cb 3e
       0.19264945 -0.43266368 -0.84870994 0.39795408
000180 b2 46 cb be d0 8e 43 bc 08 13 a7 3d 8b e4 8c 3e
       -0.39702374 -0.011935905 0.08157927 0.27518114
000190 fc ca 7c 3e a9 d7 e5 bb 8f 40 29 be 73 86 36 3e
       0.24686807 -0.007014234 -0.16528533 0.17824726
0001a0 66 23 c2 3e 62 67 be 3e 74 b2 eb 3e b1 dc 20 3f
       0.37917632 0.3718825 0.46034586 0.6283675
0001b0 52 99 e2 3e 46 6c 9b 3e 02 01 22 be 45 d8 aa 3e
       0.442576 0.30356044 -0.15820697 0.33368126
0001c0 89 93 41 3e db 19 6a 3e 16 83 09 3f 6c 55 50 bf
       0.18903936 0.22861426 0.53715646 -0.81380343
0001d0 eb f1 19 3e fa 6c d5 3e b9 a0 ad be 25 23 9e 3e
       0.1503369 0.41684705 -0.33911684 0.30886188
0001e0 05 77 80 3d f0 ee b5 3e 9b 9d 85 3e 28 e1 d3 3e
       0.06272701 0.35533857 0.26096806 0.41382718
0001f0 91 87 99 bf 3e 21 d2 3c c4 48 ce 3e 6d b5 17 3e
       -1.1994497 0.025650617 0.4028989 0.14815302
000200 00 53 2e be 2a 83 9f 3e 6b a2 ed 3d a0 75 8e 3e
       -0.1702385 0.31154758 0.116032444 0.27824116
000210 1f 1f 97 be 46 2e c0 bd cd 9b 3a 3e f6 09 f3 be
       -0.2951593 -0.09383826 0.18223496 -0.47468537
000220 c1 8a 68 be 12 ba 9b bc df 8f 91 3e 83 c5 9a be
       -0.2270918 -0.019009624 0.28430077 -0.30228814
000230 be 7b 3a bf 79 6d bc 3e 21 cd 74 be 01 14 a9 3e
       -0.72845066 0.3680227 -0.23906375 0.33023074
000240 71 34 59 bd 52 6a a5 bd fa 94 bb bd e8 f4 40 bc
       -0.053028528 -0.080769196 -0.091592744 -0.01177714
000250 bf 1e b9 bd 8a 3e e3 3b 7b b7 08 be d3 3c 3d 3c
       -0.090390675 0.0069349455 -0.13351242 0.011550146
000260 29 e1 86 be 29 6a c2 bc 3c af c3 3d 18 3a 91 be
       -0.2634366 -0.023732262 0.09554908 -0.28364635
000270 3b cb a4 be fa c4 c4 3e e0 fb 5a be 6d 2e 29 3e
       -0.32186303 0.3843153 -0.21385145 0.16521616
000280 f5 0e 08 bd be be 1b be 41 0a e3 3e 48 66 48 bc
       -0.03321739 -0.15209481 0.4434376 -0.012231417
000290 12 a4 12 3e df 66 cc bd 50 6e 61 3e e6 a3 9f b8
       0.143204 -0.099805586 0.22014737 -7.612239e-05
0002a0 71 8c 9a be a5 4f ee bd 8d db d8 bc df a7 98 bc
       -0.30185273 -0.11636285 -0.026471877 -0.018634735
0002b0 0e 0c 87 3e 8e 5a 7b bc cd 77 77 3e 1c 85 c0 3d
       0.26376384 -0.015341414 0.24166794 0.094003886
0002c0 5f 37 4e 3e a2 b1 c3 3c 48 9f d8 bd 8d 82 82 be
       0.2013831 0.023888413 -0.105772555 -0.25490227
0002d0 51 4c 26 be 72 58 6b bd 62 f8 f2 be 67 36 46 3d
       -0.1624005 -0.057457395 -0.47455126 0.048391726
0002e0 99 b6 0f 3d 46 a0 47 3e 7e fe 81 3d 60 a6 e4 bd
       0.035086248 0.19494733 0.06347369 -0.11164546
0002f0 ab 7d 37 3f dd 67 ae 3e d0 2d 62 be d1 10 8c 3e
       0.7167613 0.34063616 -0.22087789 0.2735658

mlp_model.0.weight f4 [256, 3]
000000 21 d5 00 3e 4d de 0f 3f 18 81 4f 3e ad 9e 88 3e
       0.12581302 0.5619858 0.20264089 0.2668356
000010 78 c0 65 3e 2a 69 70 be 61 d4 98 3d 63 27 97 3d
       0.22436702 -0.23477617 0.07462383 0.07380559
000020 bd 48 12 3f d1 7e 02 3f 38 67 a0 be 37 ac 52 3a
       0.5714224 0.50974756 -0.3132875 0.0008036526
000030 93 38 d6 3e 04 6d 6c 3e 66 a8 5a bd fa d5 9d be
       0.41840038 0.23088461 -0.053383254 -0.30827314
000040 49 a4 71 be 01 71 a1 be 1d 5c af 3e b9 d3 ec 3e
       -0.23597826 -0.31531528 0.34249964 0.46255282
000050 14 93 d5 be 51 83 c3 be e4 61 10 3d 5a 92 cb be
       -0.41713774 -0.38186124 0.035249606 -0.39760095
000060 63 04 98 be 6e 14 2f 3c 87 0d fb 3e 78 ed 58 3e
       -0.29690847 0.010686023 0.49033758 0.21184337
000070 25 14 4a 3e b3 e1 0b 3e c3 47 90 be 91 43 92 3d
       0.19734247 0.13660316 -0.2817975 0.071417935
000080 5b 69 86 bc d0 0b a5 3e 34 5f c9 be cb 47 7d 3e
       -0.01640766 0.32235575 -0.39330447 0.24734418
000090 ac e7 c7 3e 53 6f 14 3f 29 c0 e0 3e 6f fd 96 3e
       0.3904394 0.5798237 0.43896607 0.2949023
0000a0 97 70 6b be 49 c2 fb 3e 87 88 8a 3e 27 31 aa 3e
       -0.22992168 0.49171665 0.27057287 0.33240625
0000b0 d4 69 bb be bd 30 47 bd 9c 78 0a be 58 68 f0 3e
       -0.36604178 -0.048630465 -0.13522571 0.46954608
0000c0 d9 eb 53 bd c7 57 74 3e 26 9e 4b be 43 29 e3 3c
       -0.051738594 0.2386161 -0.19884548 0.027729636
0000d0 b5 77 b3 3e 49 37 0b 3d a2 7c 98 3e 80 15 6e be
       0.35052267 0.03398827 0.29782587 -0.23250389
0000e0 e2 d7 1b bd 27 a9 3f 3e 5f 88 a3 be 51 33 0e bf
       -0.03804768 0.1871687 -0.3193998 -0.5554705
0000f0 02 20 8d be 0f 43 5c 3d 07 92 11 bf af ce bc bd
       -0.27563483 0.05377489 -0.56863445 -0.09219109
000100 82 8f 65 3e 70 f1 0e bf 2a 2f d9 be bf 38 cb 3e
       0.22418025 -0.55837154 -0.42418796 0.3969173
000110 ea b8 fb 3e 75 63 03 bf 68 6f 5d be 58 15 7c be
       0.49164516 -0.51323634 -0.2162453 -0.24617517
000120 b3 2c 31 3e 47 97 b8 3e 03 c9 5f 3e bd 0c dd be
       0.17302208 0.36052915 0.21854024 -0.4317378
000130 44 8d e5 3e 7d d8 00 3f df f3 91 3d 7f bf 52 be
       0.4483434 0.50330335 0.07126593 -0.20580862
000140 8c 53 e8 be 51 1a af 3e 03 1f 99 be eb 5b c3 3e
       -0.4537624 0.34199765 -0.29906473 0.38156065
000150 e0 42 ce 3e 57 f3 8d be 2b d0 eb be 59 b5 71 3e
       0.40285397 -0.27724716 -0.46057257 0.23604335
000160 3b 63 77 3d 2a dd 0f bf f6 26 01 3f 95 72 9f 3e
       0.060397368 -0.56196845 0.50450075 0.31142107
000170 05 fe 24 be 67 5c b6 3e 5c 5a ef bc f3 52 4d be
       -0.16112526 0.35617372 -0.029217891 -0.20051174
000180 a2 f2 9b be 09 ff c1 3e e9 ee 49 be fc 38 0c 3f
       -0.30458552 0.3788989 -0.19720043 0.5477445
000190 9b fa c6 3e 52 34 46 3e a4 ea e3 3e 2c e3 32 be
       0.38863072 0.19355896 0.44514954 -0.17469472
0001a0 a3 c5 2c 3f 72 4f ff 3e 0d 49 a5 3e 9e 95 91 3e
       0.6748907 0.498653 0.32282296 0.2843446
0001b0 78 51 b6 3e 48 cb 90 3e 89 13 97 be 7e 4a fd 3d
       0.3560903 0.2828009 -0.29507092 0.12367724
0001c0 8b 7d 6d bd 9a bf 12 3e 76 42 fa 3e 35 d2 05 3f
       -0.057981055 0.14330903 0.4887883 0.52273875
0001d0 bd c9 9d 3e d8 16 d0 bd b9 e3 aa be 00 6a 1b bd
       0.30817977 -0.10160607 -0.33376864 -0.037942886
0001e0 81 43 85 3d 60 33 44 3e 46 a9 b2 3e 00 40 88 3d
       0.06507016 0.19160223 0.3489477 0.06652832
0001f0 07 a0 3c 3e 85 f8 49 3e 82 42 ae 3d 85 ba 78 be
       0.1842042 0.19723709 0.08508779 -0.24289902
000200 3c 91 ae 3e 7f b1 84 be df 45 a2 3e e7 3a f6 3e
       0.3409518 -0.2591667 0.31693932 0.48091814
000210 ed 2f b5 bd c6 c6 02 3f 34 d2 8b 3e 33 5c d0 be
       -0.08847032 0.51084554 0.2730881 -0.40695342
000220 d3 39 11 bf d0 48 71 3e 5d ff b3 3d 2b c8 0f 3f
       -0.5672886 0.23562932 0.08788941 0.5616481
000230 ec a1 0f bf c4 b3 40 3e 5b c8 e8 3e 2f e7 21 be
       -0.5610645 0.18818575 0.4546536 -0.15810846
000240 2e b8 6c 3e 73 a2 00 3d d6 73 05 3e ad 9d a8 bd
       0.23117134 0.031404924 0.13032469 -0.08233199
000250 62 34 da bd 15 d7 90 be 69 31 73 be 51 3b 13 bf
       -0.106545225 -0.28289095 -0.23749317 -0.57512385
000260 1c da 12 be d6 79 0b 3f 67 d8 01 bf cc b7 a7 3d
       -0.14341015 0.5448278 -0.5072083 0.08189353
000270 26 b3 ae be 04 17 40 3e 16 1a bc be 2d 5e f7 be
       -0.34121054 0.1875878 -0.36738652 -0.48314038
000280 e2 05 53 3e 38 80 d2 3e c9 0d d8 be 11 8a 64 3e
       0.20607713 0.41113448 -0.42198017 0.22318293
000290 4c ef 66 3e 00 5a 62 3e 52 56 ff be b8 be 7f be
       0.22552222 0.22104645 -0.49870545 -0.24975097
0002a0 09 09 13 bf ef 27 92 be 3d 9e ba be e7 b8 03 3f
       -0.5743566 -0.28546092 -0.3644885 0.51454014
0002b0 d4 68 68 3e 38 e9 9f be 79 d9 2f 3e 74 ba 3a 3e
       0.22696239 -0.3123262 0.17172803 0.18235189
0002c0 a6 3d e4 be 42 49 0f 3e 24 f7 c8 bc 90 2a a0 3d
       -0.44578284 0.1399279 -0.024531908 0.07820618
0002d0 75 32 70 3e 53 49 41 3e c4 b5 79 3d 3c b7 fa be
       0.23456748 0.18875627 0.06096436 -0.48967922
0002e0 a8 3f d0 bc df 25 0b bf 0c 6b 80 bc d1 d4 ae be
       -0.025420979 -0.5435466 -0.015676044 -0.3414674
0002f0 e4 e7 b7 be 82 e8 24 be 45 63 c2 3e 97 2f 3d be
       -0.35919106 -0.1610432 0.37966362 -0.18475185
000300 d8 78 c4 3d f3 46 56 bc e7 ab d7 be bd ee f5 be
       0.095933616 -0.013078439 -0.4212334 -0.48033705
000310 2d 12 3a be 39 79 5f be 7d 60 a1 be 8e e2 13 3e
       -0.18170996 -0.21823587 -0.31518927 0.14441893
000320 db be d2 3e 61 6d a7 be ac 6b bd be 4a 20 cd 3e
       0.41161236 -0.32700637 -0.3699621 0.40063697
000330 fe 71 18 be 86 60 96 3e e2 ba 9f 3d 18 3f cb 3e
       -0.14887235 0.29370517 0.07799317 0.39696574
000340 9a 02 b6 be 02 ce cd 3e 54 69 b0 bc 7f 3b 10 bf
       -0.3554886 0.40196234 -0.0215346 -0.56340784
000350 57 3c 9e 3e d4 77 1e be fc 01 24 bd c8 8c 68 3e
       0.3090541 -0.15475398 -0.040040955 0.22709954
000360 cf bc 13 3f 7d 08 a8 bb 50 0c 87 3e fc d3 fd be
       0.57709974 -0.005127965 0.2637658 -0.49575794
000370 d2 cc 70 be 48 97 87 3e df 53 c3 3e 65 df a9 be
       -0.23515633 0.26482606 0.38149926 -0.3317825
000380 35 be 81 3e 4a 1e 45 be 7f 0f 93 be 51 04 f8 be
       0.2534043 -0.19249836 -0.2872276 -0.48440793
000390 1b a8 c3 3e 0f 58 50 be 67 aa 01 bf 88 77 12 bf
       0.38214192 -0.20346092 -0.5065064 -0.5721364
0003a0 a5 c8 ad bd 42 69 c1 3d 61 0a 01 bf b8 10 06 3f
       -0.084855355 0.094439045 -0.5040646 0.5236926
0003b0 5e d0 f7 bd 26 8b 34 be d2 81 d1 3d d7 cb 10 3f
       -0.1210029 -0.17631206 0.102298394 0.56561035
0003c0 f1 e9 d2 3d f6 f9 ab be 9f 1c 1a be 07 56 01 bd
       0.10298527 -0.33589143 -0.1504998 -0.031576183
0003d0 22 72 4a bc 33 9b bb bd 79 09 4b bc 48 31 c6 3e
       -0.012356313 -0.09160461 -0.012392395 0.38709474
0003e0 8b f9 e5 3e a5 9d d4 3e 78 81 a6 3d fc 83 c9 be
       0.4491695 0.41526523 0.08130163 -0.3935851
0003f0 f4 53 16 3e 16 f3 0e 3e 52 ef 03 3f d6 21 02 be
       0.14680463 0.13959917 0.5153705 -0.1270822

mlp_model.0.bias f4 [256]
000000 4d 1c 2c be 3e 37 2b 3d 81 9b 81 bd f6 0c 25 3f
       -0.16807671 0.04180073 -0.06328488 0.644729
000010 b2 26 b7 3e 94 dc 74 be c4 5a 3e 3e 27 ed d4 3d
       0.3577171 -0.23912269 0.18589312 0.10396796
000020 21 41 20 be 63 09 c0 3e 15 89 2c 3d 7d e1 17 3f
       -0.15649845 0.37507161 0.04212292 0.5932844
000030 26 0c 20 3f b1 88 ca be 75 48 a3 3e c2 f4 56 be
       0.6251854 -0.39557412 0.31891218 -0.20991805
000040 77 24 be 3d d1 52 25 3f 6b d1 30 be b6 45 f5 3d
       0.09284299 0.6457949 -0.17267387 0.11976187
000050 90 5e 05 be c8 4f f4 be 09 3d d1 3e 57 43 d3 be
       -0.13024354 -0.47717118 0.4086688 -0.41262314
000060 db e4 c2 bc 30 0c 21 3f 04 d6 98 be 52 64 5b bd
       -0.023790767 0.6290922 -0.2985078 -0.05356247
000070 f7 81 6d 3d 38 10 b6 be 69 5c 63 be 9e 5a 14 3f
       0.057985272 -0.3555925 -0.2220322 0.5795077
000080 e7 8f 00 3e 35 ee fb bc ba 3f 84 be ee bb 91 3e
       0.12554894 -0.030753234 -0.2582987 0.2846369
000090 de d9 d3 be 2d f1 13 3f 79 05 4e be e5 2c b8 be
       -0.41377157 0.5778988 -0.20119275 -0.35971752
0000a0 ba bb bd bd a8 e5 cd be 22 ba 5e be 39 62 15 3f
       -0.092643216 -0.40214276 -0.21750692 0.58353
0000b0 f7 47 22 3f ef 42 da 3e 75 e2 77 be 50 c6 f9 be
       0.6339106 0.4262919 -0.2420748 -0.48784113
0000c0 87 4d 08 bf ba 71 04 3f 15 a4 d4 bd a5 b8 08 3f
       -0.532433 0.5173603 -0.10382859 0.53406745
0000d0 b2 6a 9e be ef c8 3d 3d 88 02 df be b3 e9 84 bd
       -0.30940777 0.046334203 -0.4355662 -0.06489887
0000e0 1f 77 20 3e 43 cd e5 be ba a3 13 bf 17 f4 1b 3f
       0.15670441 -0.44883165 -0.576717 0.60919327
0000f0 70 79 c6 be 62 c4 aa bc b4 26 01 bf ad 70 25 3f
       -0.38764524 -0.020845596 -0.5044968 0.64625055
000100 92 95 60 3e 64 27 e8 be 10 ca 94 3e 1b ba 03 bf
       0.21932057 -0.45342553 0.2906041 -0.5145585
000110 56 9f 8f 3e 67 46 6e be ee 4b dd 3e d8 de 0d bf
       0.2805125 -0.23269044 0.43221992 -0.5541816
000120 90 58 cd be 34 ed 1c bd 33 d9 67 3d 99 98 47 3e
       -0.4010663 -0.038312152 0.05660362 0.19491805
000130 ec 60 ed be a3 22 b7 3e ad 83 03 bf c8 21 a3 bd
       -0.46363008 0.35768613 -0.51372796 -0.07965428
000140 07 fd ed 3e ab 5a e0 3d bf 07 06 3d b2 ed 72 3e
       0.46482107 0.109547935 0.03272223 0.23723486
000150 dd 35 ca 3e a0 1b c9 3e 90 c1 05 bd f9 f3 81 3e
       0.3949422 0.3927889 -0.0326553 0.2538145
000160 ef 9a fb 3d 90 8a 58 3e 7d bf 02 3f 3c 59 53 bd
       0.122854106 0.21146607 0.5107344 -0.051598772
000170 19 c4 6c 3d 5e cd 07 bf aa c1 94 3e 93 a3 c0 3e
       0.0578042 -0.5304774 0.29054004 0.37624797
000180 6e 20 36 3e b0 5c 1e be 32 ae 23 3f ca 06 99 be
       0.17785808 -0.15465045 0.63937676 -0.29887992
000190 ba ba 91 3e 24 74 cb be 02 c2 ff 3e 79 b3 bc 3c
       0.28462774 -0.39737046 0.49952704 0.023034798
0001a0 20 25 e9 3e 4d 69 1e 3f 9e 41 a5 bd c3 f6 e0 3d
       0.45536137 0.61879426 -0.08069156 0.10984566
0001b0 1d 65 0f ba c4 3d 27 3f cb 76 17 3f d6 5b 86 3e
       -0.0005470084 0.6532862 0.5916564 0.2624194
0001c0 da 6d e7 3e 1c 93 05 bf e4 98 e3 3d 05 2b 04 bf
       0.45200998 -0.52177596 0.11113146 -0.5162814
0001d0 bd 42 02 3e ea 35 13 3e 2c 78 05 3f 7f de 37 3e
       0.12720771 0.14376035 0.5213649 0.1795597
0001e0 4a b0 85 3e 50 07 92 3c 5a 27 ef bd 53 11 ef be
       0.2611106 0.017825752 -0.116774276 -0.46692905
0001f0 aa 5c 8c bd 4c a8 d1 3e c7 d7 03 bf fb 7f 5a 3d
       -0.06853612 0.40948713 -0.51501125 0.053344708
000200 95 1c 0b bc a4 2e 5e be fa c5 03 bf 8a 55 de be
       -0.008490701 -0.2169748 -0.51473963 -0.43424636
000210 30 8e 31 3e 25 64 0c 3f ff 83 ad 3d ec 7f 62 bd
       0.17339396 0.5484031 0.08472442 -0.055297777
000220 d5 4b 93 3e 18 a8 f0 3e 29 4d 2c be 6a 24 00 3f
       0.28768793 0.47003245 -0.1682631 0.50055563
000230 06 3b ce 3e 39 f4 94 3d e0 0f d3 be f1 68 0f 3f
       0.40279406 0.07273144 -0.4122305 0.560195
000240 2d c9 9d be fb cb 3b be 00 72 8d 3d fc e6 e9 be
       -0.30817547 -0.18339531 0.069065094 -0.4568404
000250 0c cd d4 3d f5 2d d1 bd 33 27 27 3e b2 f3 ef be
       0.10390672 -0.10213844 0.16323547 -0.46865612
000260 03 b4 0e bf 5c 48 f6 be c8 0f 15 be 9e 79 9f be
       -0.55743426 -0.4810208 -0.14556801 -0.31147474
000270 02 b1 52 3c 14 07 75 be 51 1f bd 3e 8c 32 aa bd
       0.012859585 -0.23928481 0.36937955 -0.08310422
000280 47 25 81 3e a4 e5 dd 3e 42 2d 95 3e ce 8a 06 3f
       0.25223753 0.43339264 0.2913609 0.5255555
000290 f8 69 8e bd 26 bf 5a 3e d3 ec f1 bc d1 e6 95 be
       -0.06953806 0.2136198 -0.029531872 -0.2927766
0002a0 0e 79 ff be 7e d4 da be 29 ae ca 3d 7d 22 10 3f
       -0.49897045 -0.42740244 0.098965 0.56302625
0002b0 bd 76 89 be 0c 5b 8e 3e 90 de e7 be 3b 4d b6 3d
       -0.26848403 0.27803838 -0.4528699 0.08901449
0002c0 05 26 ae 3e 6e 1d a2 be 00 0e 88 be 71 8e e0 be
       0.34013382 -0.31663078 -0.2657318 -0.43858674
0002d0 4f 5a a3 3e c9 5e 2e 3e 04 dc d2 3e 09 b0 8d 3c
       0.31904837 0.17028345 0.41183484 0.017295854
0002e0 11 c5 84 3e a3 af e4 be 5e 00 d1 be b1 7b 0a bf
       0.259316 -0.4466525 -0.40820593 -0.5409499
0002f0 6f 96 ee bd 68 01 ce 3e ff 9d 08 bf d9 e2 76 3e
       -0.11649787 0.40235448 -0.5336608 0.24109973
000300 89 bc cf 3e 7d 15 39 be 5c 9a 01 3f df 3e ff be
       0.40573528 -0.18074603 0.5062616 -0.49852654
000310 64 a0 dd 3e 99 81 07 bf 9c d2 b7 3e 20 0c 5c 3e
       0.4328643 -0.52932125 0.3590287 0.21489
000320 18 32 21 3f 4c ed ff 3e 43 d0 c4 be fe d9 9b be
       0.6296706 0.4998573 -0.3844014 -0.30439752
000330 ff 81 08 be 6c b7 fa 3d fb 79 7f be bd 35 8b bd
       -0.1333084 0.12242016 -0.24948876 -0.06797359
000340 ff 56 13 bf 43 d2 bb 3e 3b 31 00 bf ea dc f3 3e
       -0.5755462 0.36683854 -0.5007512 0.47629482
000350 b7 ba f7 be 25 a9 09 bd f5 c2 24 3e 2b c9 66 be
       -0.4838464 -0.033608574 0.16089995 -0.22537677
000360 41 cf 0b bf b0 56 b1 be ec 8d 01 bc 2a 71 15 3f
       -0.5461312 -0.3463645 -0.007907372 0.583758
000370 cb 1c c6 bd 01 e3 fe 3e 9c 00 ba be bd 6f 41 3e
       -0.096734606 0.49782565 -0.3632859 0.18890281
000380 31 d7 3a 3d a5 20 f7 be 32 13 5d be 77 c8 26 3f
       0.04561538 -0.48267093 -0.21589354 0.65149635
000390 00 b6 c4 3e 9a 29 11 3e 02 df ea 3a 1b 62 ca 3e
       0.38420105 0.14176026 0.0017919245 0.39527974
0003a0 01 5b eb 3d ee 14 cc 3e 6d db be bc 72 f1 e2 be
       0.11491967 0.39859718 -0.02329799 -0.44324833
0003b0 2b 8e 28 3e e2 f2 0b bf bb e7 b8 3e 00 be ca 3e
       0.16460483 -0.54667485 0.36114296 0.39598083
0003c0 a0 a3 40 be 9c 40 04 3f 2c 9c e8 be 6b 3c a1 be
       -0.18812418 0.51661086 -0.4543165 -0.31491408
0003d0 f9 17 6c be 81 f5 c7 be ad 41 42 bd 9a d9 6d 3e
       -0.2305602 -0.39054492 -0.047425915 0.2322754
0003e0 0b ee f7 3e d9 6a 01 3f 74 ca 4b 3d b7 9a 7b be
       0.484238 0.5055366 0.04975362 -0.24570738
0003f0 b6 a4 ab 3d f0 25 0f bf ee 59 99 bd ce 21 32 3e
       0.083810255 -0.55917263 -0.07487856 0.17395708
