models/MLP_GRU/result_20240905.pt (torch, 78407 bytes, 9 tensors)

gamma_x_l.weight f4 [1, 256]
00000000: efc2 64bd ab94 98bd 04c9 95bd 687e d9bc
00000010: 53a5 5e3b 4097 a83a 0fcf d4bc 4a1e 103d
00000020: 9cee d8bd 7652 29bc e48e 08be 7eec aabb
00000030: e2e0 37bd f8db d7bd f4ef 8cbc 590d 2dbd
00000040: 36a9 8ebd 94c8 6cbc 98b2 d3bd 0d33 5ebc
00000050: 180e bcbd 2627 c5bd 0fd1 81bd 2ddf 663d
00000060: facc aabd b414 383b 5d62 31bd 9d89 ed3c
00000070: 0d50 b0bd df4d 22bd 3a95 523d d8f9 22be
00000080: 82ae 44bd e79d 473d d1fb 93bd 1041 f6bb
00000090: c376 51bd 9b4b 15bd 73b4 0839 2a59 7fbd
000000a0: 3695 bdbd dc27 f1bc 26a0 d13c b8d8 b23c
000000b0: a810 e5bb eeda 94bd 1a93 9ebc e145 d9bc
000000c0: 2c14 14bd 5b0a b0bd dc39 6c3d ac63 cfbd
000000d0: 1800 6dbd 871a 14bd fc2c 91bc 4688 073d
000000e0: 52ca 9e3c ded0 6cbd f6cc 0f3c b2ea 7fbd
000000f0: e297 983d b70e 93bd 315a f2bd c904 a0bd
00000100: 0ce5 debd f19c 443b 9770 f2bd 4125 813d
00000110: f9b4 f3bc d122 e4bd b6a1 c4bd 26d2 c4bd
00000120: 5520 59bd c01c 073b 53a3 86bd 6687 5fbc
00000130: ee71 f6bb d233 b8bc 60d8 013b 0a9d 9cbd
00000140: 88e7 33bd 83e2 293c 0235 26bd 2660 b1bd
00000150: c7c4 0fbd c13a bfbd af23 9ebd f1d4 8cbd
00000160: 8738 c1bd 3bac b7bd 0ee7 abbd d39d 903c
00000170: eb9e 133d 0bfa c2bd 9c51 e2bd ae6c 35be
00000180: 0aea 41bc 2d93 f23c 3c60 563c eaec bbbc
00000190: 48f6 0f3c 5c40 3f3d a4f6 fd3c bf45 73bc
000001a0: 64ab 1ebe 9710 a43b e5ad 80bd caef ebbd
000001b0: a040 babd 30bd d13c ecfe 40bd 4f64 15bd
000001c0: 53c2 99bd c19b 8bbd 91ff ad3b a70e 58bc
000001d0: 47b1 873c d37b 3dbd 1d63 7fbb 6f2d 39bd
000001e0: ae11 62bd ddd2 78bd 81f7 aebd 1c27 eebc
000001f0: 601f 343d 1dd2 24be 843c 36bd d0d6 9b3c
00000200: 8fe1 28bc 8aab 2b3d 7380 7ebc 82d6 c6bc
00000210: 4abe 75bd 907e a83c 5d8c 113d 0f33 803c
00000220: 2eae 9b3c 675a a4bd cc58 073d ad12 72bd
00000230: 67ae 973b e541 35bd ac39 2f3d afaf 9cbc
00000240: 0c21 91bc 9f75 47be 8043 ef3a 4012 92bb
00000250: 94e6 c9bb 2f77 50bd 7772 a3bd 2b2f 95bd
00000260: e727 d3bd e31a 543d 6c30 0f3d 987b 053d
00000270: a0b7 78bc 6b65 abbc 7606 433d ef3b cebb
00000280: cb53 823c e0e8 413c 9adf 30bd b0ad c23b
00000290: 0a84 a4bc fe74 f4bd 6093 783b 7085 64bd
000002a0: 8e53 abbd 1df1 0bbe a5aa 513d d834 c8bd
000002b0: f80e 3fbd 8333 363d be7c 1abd 88f5 c3bc
000002c0: 3949 0d3d b65a 623d 20ca 5e3d aa90 29bd
000002d0: cd3a 76bd 441b 023d d188 41bd b671 89bc
000002e0: 5c99 453c 7da6 9abd 808a 5c3d e4d2 023d
000002f0: fca5 223d e2a5 cdbd 89f7 0dba 4aad ab3c
00000300: 534a 803b 05d3 5bbd f646 1f3d 10aa 3bbb
00000310: 2762 5abd 1bfc e5b9 7fd6 93bc 89c8 fabd
00000320: 3bf6 e1bd 825d 2f3d c708 10bb d172 01bd
00000330: 9ed0 d2b9 1c18 c0bd 1544 01be 1870 2ebe
00000340: a6e4 1ebd afbe 4fbc f961 b3bd 988d 0f3d
00000350: e2a6 31bd 2008 70bd 11f7 89bd e2bb 22bd
00000360: b0ff 81b9 48f5 8abc d2d4 2abd 75e9 06bb
00000370: f8b2 59bd 7c2a c3bc e3e1 a0bc a02e 69bc
00000380: 936d a3bc 16c3 45bd 56f6 29bc 0d42 4abd
00000390: 0abc ce3c e26c 2fbc 9e27 9d3a 2694 adbd
000003a0: 30fa f5bd f46a 88bc 8685 a0bd 3ff5 3cbd
000003b0: d08c 6ebd b3d5 2dbd 10b2 023c c88e 10be
000003c0: 2420 39bd e6b3 493b 3b92 be3d 29ff 2fbc
000003d0: 6913 85bd 02b2 15be c473 23bd 74b4 d1bd
000003e0: 2e3b 97bd d3d4 86bd 07ab cfbb c424 1ebd
000003f0: 89c5 61bd 0992 42bd a2d3 0c3d abdb 1e3d
-0.055849966 -0.07450231 -0.07313731 -0.026549533 0.0033973053 0.0012862459 -0.02597764 0.035185136
-0.10592386 -0.010334602 -0.13335758 -0.0052161803 -0.0448922 -0.105400026 -0.017204262 -0.042249057
-0.06965868 -0.014452118 -0.103367984 -0.013561976 -0.09182376 -0.096266076 -0.06338703 0.05636518
-0.083398774 0.0028088512 -0.043306697 0.028996283 -0.086090185 -0.039625045 0.051411845 -0.1591562
-0.048017986 0.04873457 -0.072257645 -0.0075150803 -0.05113865 -0.036449056 0.00013037193 -0.062340893
-0.09256975 -0.029437952 0.02558906 0.021831855 -0.006990511 -0.0726832 -0.019357253 -0.026522579
-0.03615205 -0.08595725 0.057672366 -0.10126433 -0.057861418 -0.03615811 -0.017721646 0.033088945
0.019383583 -0.05781638 0.008776894 -0.062479682 0.07450844 -0.07180541 -0.11833609 -0.07813413
-0.10883531 0.003000077 -0.11837881 0.06305934 -0.02974938 -0.11139453 -0.096011564 -0.09610395
-0.05300935 0.0020616502 -0.065741204 -0.013643121 -0.0075209057 -0.022485647 0.0019812807 -0.0764714
-0.043921977 0.010368946 -0.040577896 -0.08660917 -0.03509977 -0.09337378 -0.0772165 -0.06876553
-0.0943461 -0.08968397 -0.083936796 0.017653381 0.036040228 -0.09520348 -0.11050722 -0.1771724
-0.011835584 0.029611195 0.0130844675 -0.022940118 0.008786745 0.046692237 0.031001396 -0.014848172
-0.15495068 0.0050068605 -0.06283168 -0.115203455 -0.090943575 0.025602907 -0.047118112 -0.036472615
-0.075077675 -0.06816817 0.005310007 -0.013187087 0.016564025 -0.046260666 -0.0038968988 -0.045209344
-0.055192642 -0.06074797 -0.085433014 -0.029071383 0.043975234 -0.16095777 -0.044491306 0.019023329
-0.010307684 0.04191164 -0.015533554 -0.024272207 -0.059995927 0.020568162 0.03553425 0.015649347
0.019003954 -0.080250554 0.033043668 -0.059099842 0.0046289447 -0.044252295 0.04277961 -0.019126741
-0.017715953 -0.19478463 0.001825437 -0.004457742 -0.0061615203 -0.050894912 -0.07980817 -0.07284387
-0.10310345 0.051783454 0.034958288 0.03258857 -0.015180498 -0.020922383 0.047613584 -0.0062937657
0.015909096 0.011835307 -0.043181993 0.0059411153 -0.020082492 -0.11936377 0.003792964 -0.05579132
-0.08365546 -0.13666196 0.05118813 -0.09775704 -0.046645135 0.04448272 -0.03771662 -0.02392079
0.03449366 0.05526229 0.05439198 -0.041397728 -0.06011467 0.031764284 -0.04724962 -0.016777854
0.0120604895 -0.07551286 0.05384302 0.031939402 0.039709076 -0.10041405 -0.0005415609 0.020956654
0.00391511 -0.05366804 0.038886033 -0.00286353 -0.05331626 -0.00043866117 -0.018046616 -0.1224528
-0.11033293 0.042813785 -0.0021977888 -0.031603638 -0.00040209753 -0.093795985 -0.12623627 -0.17034948
-0.038792275 -0.01267974 -0.08758921 0.035047144 -0.043372042 -0.0586015 -0.06736577 -0.03972996
-0.000247953 -0.016962662 -0.041706868 -0.0020585929 -0.053149194 -0.023823969 -0.019638961 -0.014232308
-0.01994971 -0.04828175 -0.0103736725 -0.049379397 0.025236148 -0.010707112 0.0011989956 -0.08475523
-0.1201061 -0.016652562 -0.078379676 -0.046132322 -0.058239758 -0.042440128 0.007977024 -0.14116967
-0.045196667 0.0030777394 0.09305235 -0.010741987 -0.06497843 -0.14618686 -0.039905325 -0.10239497
-0.073843345 -0.06583562 -0.0063375267 -0.03860928 -0.055120025 -0.04750255 0.034381516 0.03878371

gru_cell.weight_ih f4 [192, 2]
00000000: e97c 8ebe d708 0b3e 5b98 943d f9d2 e7bd
00000010: 3339 e53e 023d 4abe 86e1 b3be a5ba 7e3e
00000020: d729 10bf 8793 663d 2dcb 683e c52c 8abc
00000030: 63ec 7c3d e585 70bf c7c8 88be 126d 0bbd
00000040: 5385 33bf d3cf 03be 4c68 72bf 3699 a0be
00000050: ab3f a43e ebdb d03e 1be4 d73e 10a4 923f
00000060: 8554 213f 8c52 eb3d 4f69 553f 04db 9c3e
00000070: 0cb2 d6be 357b 92bd a8fd efbd 3a03 0e3e
00000080: ec9e d2bd 4aa9 a3be c906 983f 5178 dd3e
00000090: 9670 f4bc fde7 b5be 4f43 c83e 5424 863d
000000a0: 5097 12bc 7261 183e d7b5 68bf a748 c1be
000000b0: 576d f3be 26c3 dabd 23c3 64be 66cf 84be
000000c0: 0500 2abf a8e1 27be 98b5 6c3e d4fe 0d3f
000000d0: 5180 09bf b2db b3bd 09d7 efbd eb47 723f
000000e0: 0d64 4abf efe0 8abf f953 8d3d 72cf 933e
000000f0: a175 7e3f 4f56 393f e484 5d3f 207e 1d3f
00000100: b363 93be f286 e43d 5e64 97bf 7bf1 b7be
00000110: da22 60be c305 56be aeda a2be 139c 103d
00000120: 43f3 d73d 2ac4 e93d 1e67 c03e 1bfe 4dbf
00000130: baa7 a73e 8c13 293f 59d2 34bf 4853 233e
00000140: 9bbe 9b3d e694 1d3f 6edf 19bf c156 fdbe
00000150: a627 a5be 134f 3f3e 477c c7be cba1 f63d
00000160: dedc 43bf 2f87 043e dc3a f73d 7737 c7bc
00000170: 8627 37bf 8d2f b0bd 4c3d 523d fac9 093e
00000180: 6c3c 83be 1204 663e 76f1 723f 0088 e83e
00000190: d725 4fbf d2a6 e93b 212e ba3e 7c1f f23e
000001a0: b345 aabe 1aba 11bd 1719 06bf eb70 2cbf
000001b0: b730 afbb fc0a 3b3e 9da4 24bf e69b 093c
000001c0: 0cf6 a8bf 09bf b9be 86c3 2bbe a844 e9bd
000001d0: 3062 bf3e 43c7 a73f db70 8abe 783b 8dbd
000001e0: d130 e4bd a00a 6ebe 0df7 eebe eafb 303f
000001f0: 56c9 ad3d a145 36be 1b26 5e3f 0aba 193e
00000200: 58e1 d53e 99e1 4dbe 5748 3fbc 59af 613f
00000210: 695b 5b3f 8c75 cd3e 2a8b fc3e c7ea 453e
00000220: cbcb 533e c279 0ebf a0b0 5a3e 60f6 45bc
00000230: 8b47 a93f ff17 093f 210e 2c3f 2c47 143c
00000240: 1aeb 023f 8604 9a3e e83b 0b3e 66ac a4be
00000250: d7cb 803d daa8 02be 3845 8a3e 2d32 7f3e
00000260: ff71 b63e e73f 143e 6d05 593e d964 443d
00000270: 1071 883d d153 8c3d c19e aabd 16a7 babf
00000280: 0a20 493f 3205 d83e 6979 4f3f 7124 e93d
00000290: b2a2 aa3d 6b60 c9be ff89 883d 5f6c c3be
000002a0: 0a8e 94be e42d 06be 4aa4 a4be bb06 73be
000002b0: 275c 153d 29d5 973d 3a8a 8a3e 32a3 a13e
000002c0: d51a 283e fa65 2b3d f06d 343f 1515 333e
000002d0: b530 0dbd 3091 ecbe 6a85 863e 8492 893e
000002e0: 1f22 81be 651c 8cc0 4cd5 893f e4fb 413e
000002f0: cda3 a13e 6ed9 b53e 7de9 1bc0 9ba5 c5be
00000300: e7aa b13d b137 853d 327b 993d 44b6 143e
00000310: 0604 7f3e 1069 b93d 1893 353f d74d 6c3e
00000320: cd12 56be 1a60 ccbe 30b8 bebe ceaa 55c0
00000330: b489 ea3d b88f b1bc 79d1 b33f c0c3 923e
00000340: dbc7 903e 7bf2 1c3f 7f37 01bd b7f6 7e3d
00000350: d372 b33e d549 29bd 31e5 713e f6b2 123e
00000360: e4d2 383d 2e47 78bd 700e 9f3d bcda 043e
00000370: dc25 f13d e8d3 a33d 97ee f73e 74fd 8ebd
00000380: a440 d0be 1202 41c0 ae60 bb3e 767a 173b
00000390: 38cb 9cbc cbf0 0abf 1b18 8d3e b8c4 93bd
000003a0: eaa3 423d 1ca1 dfbe 930a 1f3d 2e07 d8bf
000003b0: f311 a53f 7c10 a93e 8b63 af3e 059a 14bd
000003c0: 088d febf 806b a93e 0cc4 b23d 58d0 b83b
000003d0: ad49 a03e 4b4e 6c3d b4ad 803c 1e3b 193c
000003e0: 1da8 94bd fba9 7cbe 7d26 3fbf efbe 19c0
000003f0: 00f5 a93d e9e8 b83d db3b 343f 0c29 ddbc
-0.27829674 0.13577591 0.07255622 -0.11319537 0.44770202 -0.19749835 -0.35132998 0.24875887
-0.5631384 0.056293037 0.22733755 -0.01686705 0.061748873 -0.93954307 -0.2671568 -0.034039564
-0.7012531 -0.12872247 -0.94690394 -0.3136689 0.32079825 0.40792784 0.42166218 1.1456318
0.6301959 0.11490354 0.83363813 0.30635846 -0.41932714 -0.07152406 -0.11718303 0.13868418
-0.10284218 -0.31965095 1.1877071 0.43255857 -0.029838841 -0.35528556 0.39113852 0.06549898
-0.0089472085 0.14880922 -0.90902466 -0.37750742 -0.47544357 -0.10681753 -0.22340064 -0.25939482
-0.6640628 -0.16394675 0.23116148 0.5546696 -0.5371142 -0.08782138 -0.117109366 0.9464099
-0.79058915 -1.0849894 0.06900782 0.28869206 0.9939824 0.7239732 0.865309 0.61520576
-0.28787002 0.11158551 -1.1827505 -0.35926422 -0.21888295 -0.20900635 -0.31807464 0.035305094
0.10544445 0.114143685 0.37578672 -0.8046586 0.32745153 0.6604545 -0.70633465 0.15949738
0.076047145 0.61555326 -0.6010655 -0.4948025 -0.32256812 0.18682508 -0.38962004 0.12042578
-0.7650889 0.12942193 0.120717734 -0.02431844 -0.7154468 -0.086028196 0.05132799 0.13455954
-0.25632036 0.2246249 0.9489969 0.4541626 -0.80917114 0.0071304822 0.3636332 0.47289646
-0.332563 -0.03557787 -0.52382034 -0.673598 -0.0053463834 0.18265909 -0.6431368 0.0083989855
-1.3200088 -0.3627856 -0.16773805 -0.11390048 0.373796 1.3107685 -0.27039227 -0.068961084
-0.111421235 -0.2324624 -0.4667286 0.6913439 0.084856674 -0.17799999 0.86776894 0.15012375
0.41773486 -0.2010559 -0.011674962 0.88158184 0.85686356 0.40128744 0.49324924 0.19327842
0.2068321 -0.5565454 0.2135644 -0.012082666 1.3224958 0.5355224 0.6720906 0.009050172
0.51139987 0.30081576 0.13597071 -0.3216278 0.06288879 -0.12759724 0.27005935 0.24921484
0.35633847 0.14477502 0.21193476 0.04794774 0.0666219 0.06851924 -0.08331061 -1.458224
0.7856451 0.42191464 0.8104463 0.11383904 0.08331813 -0.39331374 0.06666946 -0.38168618
-0.29014617 -0.13103443 -0.32156593 -0.23733036 0.036464836 0.07413704 0.27058583 0.3156982
0.16416486 0.0418453 0.7048025 0.17488511 -0.03447028 -0.4620452 0.26273662 0.26869595
-0.25221345 -4.378466 1.0768218 0.18943745 0.31570283 0.35517448 -2.436126 -0.3860291
0.08675175 0.06504763 0.07494201 0.14522654 0.24903879 0.09053242 0.7092757 0.23076569
-0.2090561 -0.3991707 -0.372499 -3.33855 0.11452046 -0.021674976 1.4048301 0.2866497
0.28277478 0.61307496 -0.031547066 0.062247004 0.3504854 -0.041330177 0.23622586 0.1432608
0.045122996 -0.060614757 0.077664256 0.12974066 0.11774799 0.07999402 0.48424217 -0.06981936
-0.40674317 -3.0157514 0.36597198 0.0023113764 -0.019139871 -0.5427367 0.27557454 -0.072152555
0.047519602 -0.43677604 0.038828444 -1.6877191 1.2896103 0.3302039 0.34255633 -0.036279697
-1.9886789 0.33089828 0.08728799 0.005640071 0.3130621 0.057691853 0.015707828 0.009352474
-0.072586276 -0.24674217 -0.74668103 -2.4022787 0.08298683 0.09028799 0.7040383 -0.026997112

gru_cell.weight_hh f4 [192, 64]
00000000: 9e92 983e bd6f 503e 8937 5ebf b6c5 8fbe
00000010: 85fb 0fbf a5da 573d fd5d 923e 711a 303f
00000020: c8e3 d5bf a2e8 9bbf cf81 ba3c 2af3 76bd
00000030: d166 4ebf 83e3 933e 239d 5cbd 2b28 24be
00000040: a63e 61be 1ecc 803e 6519 34be 433e f13e
00000050: c851 6a3e 0c49 273b 3fb6 383e 005c 89be
00000060: 24bb 993f 4b81 57bf 3e1d 04bf fdc1 e03c
00000070: 64d0 b83f 88ed 803d 5dc6 453e 1a3d 9f3b
00000080: 204d 9bbd 60ea 903f 1d79 9ebe 893d 683f
00000090: 3c22 663d cfe8 21be 6135 e73e f542 d0bd
000000a0: bebe 4a3d f0a2 72bf 3da7 28be b170 4f3e
000000b0: 6955 7e3f 290f 95bd 4505 28bd a78a 2c3f
000000c0: b7ad 37bd 33a9 92be d43f 8f3f ca3c 843e
000000d0: 27be 03bf 0eaf 51bf bccf 0e3f 787c 4d3d
000000e0: 3440 053f 235a 4f3e 7414 bfbe 9f9a 453d
000000f0: f087 88bf 9181 30bf 89f2 ddbd 0202 39bf
00000100: 6706 bebe fbfc a3bf f9c1 263f 1a95 4fbe
00000110: 4920 e23d b722 8bbe 4c3c 19bf 1c3c 9e3e
00000120: e2e2 99be 5b6e cc3e cd42 a3be dc9c 653e
00000130: 88cd 0dbf 7d6c 76bc 9a7b ccbc e29e a63e
00000140: a406 043f 212a 873e b053 ebbe eaaf cfbd
00000150: ee16 663f 06d5 143f 2ff2 a13e fac4 e43e
00000160: 2259 1f3e 26b0 1ebf d310 db3d 5c52 f53e
00000170: 1a64 a5bd 29ad cdbe ccc1 693d 1c61 d23c
00000180: fec9 833f 3a6e 923d 11a3 293f 33fb bc3d
00000190: 5c4c ad3e 0d30 4f3d 2326 173e 937c 03bf
000001a0: 051d adbf 4120 983e 52c8 dabc 9203 4cbf
000001b0: 1dac 0fbf 7ac2 c03e 7aa4 1dbe 88ce 16be
000001c0: c3b5 8cbe b056 55be 187e 4fbd a16a 5ebe
000001d0: 656a 843e 84d0 c23e aa40 3f3f 115c 733f
000001e0: 02a2 28bf bd09 65bf 0f55 e53e 9664 ab3e
000001f0: 259f a63e 54a6 4a3e ad05 72be 2a41 d03e
00000200: fe59 a73e fa10 03bf 75c1 743f 0f68 b53e
00000210: cdce 853f 1850 72be 6fb9 94be 95c0 ed3d
00000220: 40d6 033f 9564 c8be 50da abbe fb96 013f
00000230: 4d82 fcbd 33a2 393e b3bb 8e3e 7f36 b2be
00000240: 4095 d63e 3733 88bf 498e 183f 4eee b33f
00000250: 0134 0dbf c6fe 303e d446 153c 6499 44be
00000260: 1f7d d4be 5a13 e73d 65bf 743f af83 c1bd
00000270: b353 66be ef53 b0be 4305 87bd 8005 9cbe
00000280: f387 1f3e 602d c4be 058d 903d 3cd8 103f
00000290: a7f3 3cbe 163a afbd 4062 8f3e bd1c 4abe
000002a0: 5e60 00bf dbd2 fa3d 1ba0 2abf 8e73 b93d
000002b0: 198b 3dbd 4164 d03e 89f3 6fbe 8894 b93e
000002c0: 7fb1 3dbf a666 88bd b121 00bf 2a0c d4bd
000002d0: e23a c13e b7eb fa3e a2dd a9bd cd0e 593e
000002e0: dd32 0abf f92d 19be 79ae 4b3f 8658 ea3c
000002f0: 74cf 8b3f 0a07 993f 78d4 edbd 628c 773f
00000300: 0eea 883e 359e 28bd 0492 543f b657 febe
00000310: 4f0f 01bf 6ad2 1cbf ff49 9dbe 5d53 833f
00000320: 5c43 5cbf 163f 30bd f787 dabd ce52 713e
00000330: 153d 033f fd64 31bf 690a b23e 2f0e b2bd
00000340: c5f0 9dbb 2f18 d9be 3c6f 8e3d 304d 6ebe
00000350: 6cc8 603d 49e4 8d3e 60c8 86be 9808 a1bd
00000360: 643a 2b3f 29ed ba3d 6eae 02be 21a2 683d
00000370: 5447 2dbf fd02 8b3f 49c6 47bf 89f5 a1bd
00000380: 26f7 233e 525b 983f 97eb c8be 46d6 213e
00000390: 7f72 403f e677 1bbf 6f6d 88be 6a51 bdbe
000003a0: f287 97bd c65d fcbe ba7f 9bbe 4958 863d
000003b0: beda b2bd 6ed5 2c3e 3fb1 52be 3dbb 923e
000003c0: 02e0 a0bf 4ef6 b4be 8120 e73e 1e2d 04be
000003d0: 89de 0dbe 6463 e8be 135a 0b3f da79 1f3e
000003e0: 2383 033f 235c 52bd 3832 373e 4101 923e
000003f0: fbca 343d 79c1 623e a1c3 0e3f da46 343f
0.2979936 0.20355125 -0.8680349 -0.2808053 -0.56243163 0.05269875 0.28587332 0.68790346
-1.6710138 -1.2180369 0.022766976 -0.060290493 -0.80625635 0.28884515 -0.053860795 -0.16030948
-0.21996555 0.2515573 -0.17587812 0.47117814 0.2288276 0.0025525717 0.18038271 -0.26828003
1.2010236 -0.8418166 -0.5160712 0.02743625 1.4438596 0.062953055 0.19313951 0.004859579
-0.0758307 1.1321526 -0.30951777 0.90718895 0.056184992 -0.15811466 0.45157912 -0.10169021
0.049498312 -0.9477987 -0.16470046 0.20257832 0.99349076 -0.07278282 -0.04102065 0.67399067
-0.0448434 -0.28644714 1.1191354 0.25827628 -0.51462024 -0.8190774 0.5578573 0.05016753
0.5205109 0.20249228 -0.37320292 0.04824316 -1.0666485 -0.689477 -0.108372755 -0.7226869
-0.3711426 -1.2811579 0.6513973 -0.20271721 0.11041314 -0.27174923 -0.5985763 0.30905235
-0.3005591 0.39927945 -0.31886902 0.22423118 -0.5539174 -0.015040514 -0.024961282 0.32543093
0.5157263 0.2639933 -0.45962286 -0.10140975 0.8987874 0.5813755 0.31630084 0.4468153
0.15561345 -0.6198753 0.10696568 0.47914398 -0.080757335 -0.40171173 0.057069585 0.025681071
1.0296018 0.0714993 0.66264445 0.092276 0.3384732 0.050582934 0.14760642 -0.5136196
-1.3524481 0.29712108 -0.026706848 -0.7969295 -0.56122 0.37648374 -0.15394774 -0.14727223
-0.27482423 -0.2083385 -0.05065736 -0.21720363 0.25862423 0.3804971 0.74708045 0.9506236
-0.65872204 -0.89467984 0.44791457 0.33475178 0.32543293 0.19790012 -0.23634978 0.40674716
0.32685846 -0.5119778 0.9560769 0.35430953 1.0453736 -0.23663366 -0.29047725 0.11608998
0.51498795 -0.39139238 -0.33564997 0.50621 -0.123295404 0.1812828 0.27877578 -0.34807202
0.41910744 -1.064063 0.5959211 1.40571 -0.55157477 0.17284688 0.009111125 -0.19199139
-0.4150171 0.11282988 0.95604545 -0.09448945 -0.22492866 -0.34439036 -0.065928005 -0.30472946
0.15579204 -0.38315868 0.07058147 0.5657995 -0.18452321 -0.08556001 0.28004646 -0.19737525
-0.50147045 0.12247249 -0.6665055 0.090552434 -0.046275232 0.40701488 -0.23432745 0.36246133
-0.7409896 -0.06660204 -0.5005141 -0.103538826 0.37740237 0.4900796 -0.08294226 0.21197052
-0.5398386 -0.14958943 0.795631 0.028606664 1.0922685 1.1955273 -0.11612791 0.9669858
0.2674107 -0.041166503 0.830353 -0.49676293 -0.50413984 -0.61258566 -0.30720517 1.0259815
-0.8604028 -0.043028913 -0.106704645 0.23566744 0.5126508 -0.6929472 0.34773567 -0.086941116
-0.0048199617 -0.42401263 0.0695481 -0.23271632 0.054878637 0.2771323 -0.2632475 -0.07862967
0.6688597 0.09127266 -0.12761852 0.056795243 -0.67686963 1.0860287 -0.78036934 -0.0790816
0.16012248 1.1902869 -0.3924224 0.15804395 0.7517471 -0.60729825 -0.2664599 -0.36976177
-0.073989764 -0.49290293 -0.30370885 0.06559808 -0.08733128 0.16878292 -0.20575427 0.28658476
-1.2568362 -0.35344166 0.45141986 -0.12907836 -0.13854422 -0.4538833 0.5443432 0.15573826
0.51371974 -0.0513574 0.1789025 0.28516582 0.04413889 0.22144116 0.55767256 0.7042061

gru_cell.bias_ih f4 [192]
00000000: 57cb 4e3d 38df d83d a830 96bd e20f 71bc
00000010: 3550 c5be fe9c 9b3d 4662 8c3e 5a0d 413e
00000020: de3a 49be be77 0bbb 44f1 dc3e 7cc3 3d3e
00000030: a41f f23d 3f9a e13e e00f 08be 2724 d6be
00000040: b60a bfbd bf65 2a3e 30e8 6abe 2f61 dbbc
00000050: aed4 85be 3405 3a3d 9ffa 84bd 0591 92bd
00000060: 0a4c a4be 52ae f3bd e323 33be 7005 873c
00000070: 46c5 3c3e 3e5e 923d 20c4 593f fabc 563f
00000080: c43e d23d 2f35 96be 7348 22be 4810 70be
00000090: e96a 833d e871 b4be 2a59 473c 83b9 c9bd
000000a0: d2cc 4a3f 1242 1dbe bd96 35be e5a8 ea3c
000000b0: 38de c03c f541 45be 51f8 3cbe 383f 253e
000000c0: ec5b 15be c0c8 0a3f fcd3 5bbe 35b4 573f
000000d0: 3ea1 bcbe 52b4 14bf d755 1fbe cfb3 d6bd
000000e0: a019 a6be 733b 9abc e3ab 793f 2806 f63d
000000f0: 37e5 1abf fd79 02be a7da d03d 3fc1 b93e
00000100: af79 103e d908 b6bb 760c ec3e c822 873b
00000110: e2ae e73e 4079 b23e ffac 1c3f 3620 133f
00000120: d9b5 b3bc 67ae 8a3e cc71 2cbe 9464 223f
00000130: 5dfc b43e 29c2 3c3e 27e0 b43e 881f 3e3e
00000140: 1eb0 e43e 9c2c 303f 8701 b93e ae6e 043f
00000150: 3ca9 283e 5719 063f a6e5 aa3e bd17 963e
00000160: 9b7b 8a3d 7f88 a93e 9fb2 b7bd 0dc6 f13d
00000170: 0d55 e73e dabf 2a3f 7a61 10be c705 02bf
00000180: 5812 073e 3d70 4d3e e547 fc3e 291d 003f
00000190: 5c8e a5be 8693 ebbc 509d 993e 5a42 2d3f
000001a0: 0a26 a3bd 9f81 883e ac4d be3d 1a76 b03e
000001b0: 6eb2 e73e 0371 753e ceff e43e 8f36 a03e
000001c0: 8d42 c03e 9ef4 853e da53 863d 3ac9 613d
000001d0: be9b 3f3e 5bcf 6f3c 23c3 243e b345 233f
000001e0: 965b 343f 2ca1 1d3c 8154 123f da40 c33e
000001f0: f973 053e 47c9 753e 2ab8 7c3e 62ab ed3e
00000200: b617 0a3e 9acd 153f 252e a4be c0b3 0d3d
00000210: 44f4 8ebe 8fc3 5b3e c0c5 613e 4607 313e
00000220: 4104 27be 5bfa 32be af8d 0a3f bacd 1f3e
00000230: 2966 79be ec92 2e3f 03c4 c6bd aefa b33e
00000240: b4dd 17be 4730 7cbd 215f 963d 6578 ca3d
00000250: d1c8 08be b650 cfbe 3033 873e 6c26 4abd
00000260: efb9 513e 0f07 163f b736 95be ccf6 b13e
00000270: e944 bd3e 44c9 1bbb bc6e d93e e4de 45bf
00000280: 436a 9fbd 6f20 c93d f626 98bd 6c3f 0dbf
00000290: b7a7 ebbe c690 763d cd26 9dbe 8e4c a83e
000002a0: 8165 463f 368d a2be 7720 ed3e 6f63 1a3f
000002b0: 99fb 333e 737b a4be 6951 b93d e1dd 623e
000002c0: a326 993e 2f95 853e 77d6 a53e 904e 40bf
000002d0: 8c9c e7be e06d a2be 074e b9be d501 91be
000002e0: a43e e73e e510 863d 8a72 0cbf 0fa4 a9be
000002f0: e949 8fbe 02cb c6be b5c6 9cbd 4567 babe
0.05048689 0.105894506 -0.07333499 -0.014713259 -0.38537756 0.07598303 0.27418727 0.1885275
-0.19651362 -0.0021281089 0.4315282 0.18531603 0.11822441 0.44062993 -0.13287306 -0.41824457
-0.09328215 0.16640376 -0.22940135 -0.02677974 -0.26138824 0.04541512 -0.06493115 -0.071565665
-0.32089263 -0.11898483 -0.17494158 0.016482085 0.18434629 0.071468815 0.8506489 0.83882105
0.10265878 -0.2933745 -0.1584795 -0.23443711 0.06416876 -0.35243154 0.012167254 -0.09849837
0.7921878 -0.15357235 -0.17733283 0.028644988 0.023543462 -0.19263442 -0.184541 0.16137397
-0.14585847 0.5421257 -0.21467584 0.8425935 -0.36841768 -0.58087647 -0.15560089 -0.104835145
-0.32441425 -0.018827176 0.97527903 0.12012893 -0.60506004 -0.12741847 0.101979546 0.36280248
0.14108919 -0.005555254 0.46103257 0.0041240193 0.45250612 0.3485813 0.6120147 0.57471025
-0.021937298 0.27086183 -0.16840285 0.6343472 0.35348788 0.18433441 0.35327265 0.18566716
0.44665617 0.6881807 0.36133978 0.51731384 0.16470808 0.52382416 0.33378333 0.29314986
0.06761857 0.3311195 -0.08969616 0.11805353 0.45182076 0.6669899 -0.14099684 -0.50790066
0.13190591 0.20062347 0.492736 0.50044495 -0.32335174 -0.028756868 0.30002832 0.6767937
-0.0796624 0.26661393 0.092921585 0.34465104 0.4525332 0.23968892 0.44726413 0.31291625
0.37550774 0.2616319 0.06558962 0.055123545 0.18711755 0.01463684 0.16090064 0.6377823
0.7045225 0.009620946 0.5716019 0.38135415 0.13032521 0.24002562 0.24679628 0.46419817
0.13485608 0.5851685 -0.32066455 0.03459525 -0.27920735 0.21461318 0.22048092 0.17287931
-0.16310216 -0.17478316 0.5412244 0.15605822 -0.24355377 0.68192935 -0.09705355 0.3515219
-0.14830667 -0.06156948 0.07342363 0.09886245 -0.13357855 -0.40491265 0.2640624 -0.04935305
0.20481084 0.5860452 -0.29143307 0.34758604 0.36966637 -0.0023771087 0.42467296 -0.7729323
-0.0778394 0.09820639 -0.07429306 -0.551749 -0.46026394 0.06019666 -0.30693665 0.32870907
0.7749863 -0.3174836 0.4631383 0.60307974 0.17576446 -0.32125434 0.09048731 0.22154953
0.2991229 0.2609038 0.32390186 -0.75119877 -0.45236623 -0.31724453 -0.36192343 -0.2832171
0.45164979 0.06546191 -0.5486227 -0.3313298 -0.27986076 -0.38826758 -0.07655088 -0.36406913

gru_cell.bias_hh f4 [192]
00000000: af94 6fbd 7a6b a03d 6d81 743c 7c65 0cbe
00000010: c997 a8be d290 25bd 0fa9 703e f779 423e
00000020: a43f 46be 79f6 44bd add4 b03e 9666 123d
00000030: e319 2abd 8622 e53e 6fd4 21be 586b d7be
00000040: aac4 86be 88c1 7a3e cbef 3ebc c0c7 23bc
00000050: fdda 14be 7751 b03b 06ab c7bd 0cf5 a93c
00000060: 987a 86be 5774 ddbd 291b 3bbe 6738 863d
00000070: 5f2e 6e3d 778b 85bb 7ce7 593f 0161 423f
00000080: 8a83 023e 2f96 afbe 8852 8dbe ec79 1dbe
00000090: b7d8 a9bd b8da aabe f390 08be 7fd4 6cbe
000000a0: fc7f 2a3f 1fcc 97be 6138 6dbd 35c6 00be
000000b0: a423 b8bd 525c 22be 3bf3 cbbd 4b3b 853e
000000c0: 3bfd 4bbe 078a be3e 16d0 adbe 9760 463f
000000d0: c093 b1be 53d2 01bf 49b2 06be 4de3 773d
000000e0: 0c8f 54be 4471 173e 28c2 8f3f b028 8f3e
000000f0: 5ab7 4abf 5249 31be 97b8 8abd 8e58 923e
00000100: f734 0e3d d1fb 79bc 5e1a 163f 9fc1 003d
00000110: 510a c13e e724 043f 5410 e93e 35e7 2f3f
00000120: e826 643d 9813 7c3e b105 6ebe 43b3 303f
00000130: a6bd ac3e bea2 de3c 931c 043f a72b 8d3e
00000140: 0d4a fc3e b6d4 393f 0a42 a43e dd82 e33e
00000150: d7d2 063e 9d0f 2d3f 9d0b 4d3e 8595 063e
00000160: 2697 5b3e 900b b63e f9ee 903d 856e 97bd
00000170: 4aa4 223f c0ff ed3e fa8b 65bd 12de d3be
00000180: d959 8f3e 6019 5f3e f8ea bd3e a15d ee3e
00000190: 53c9 debe f1f5 97bd a1b0 a93e 325d 003f
000001a0: 5041 5e3d 16ec a23e 9ff2 213e e37f 6d3e
000001b0: e5fd 8d3e 4c3c 0d3e e915 e13e f7da 963e
000001c0: a8e5 003f 0f3a 693e 2c37 f83d 1f0b 4a3e
000001d0: 8f1d 813e 0dec 1e3e 9ed8 fd3d 3625 db3e
000001e0: 57a7 353f 0753 b4bd 9340 033f c90b cc3e
000001f0: f988 9bbc 2e65 9a3e ff7c a03e 07e0 023f
00000200: 76a7 02bf 9541 be3e fec6 9fbd e1cd 233e
00000210: 1103 ac3e bcc0 783d d542 ea3d 2701 07bf
00000220: 1f2f 86be badd 0e3f f94b 913e db90 d83c
00000230: eb5b e83d 668d de3e ca5b 283d 65b7 76bd
00000240: 8eef 1abe 8121 0dbc 6aa2 0dbe f489 53be
00000250: dec9 94be 547d cd3d 1b1e 833e cc8d 8f3d
00000260: 63f5 f53e d014 aa3e b5be d6bd 2fff a73e
00000270: 82fb 213f 2e6a c33e 46cc 9a3e bd0a 3abf
00000280: 2cca 8e3e 7e51 3fbe 9521 a9bc 8ac0 94be
00000290: ec78 b0be e70e 76be ee7f 87be f230 033e
000002a0: 6720 273f 44f3 183e c7d8 5bbb 8a89 d2be
000002b0: 615e c7bd b1bf 033e a5b6 9a3e 8661 a13e
000002c0: cdb8 f93e b754 083f 8138 f73d 4250 3abf
000002d0: 443e 6e3e 2d8d da3e 527c d2bd 8dc8 603d
000002e0: 7b9d 8cbe bae4 c6be f9d9 0bbf 6a5b dbbe
000002f0: f5ed 733d d679 d9be 6aac 13be b982 bb3e
-0.058491405 0.078329995 0.014923436 -0.13710588 -0.32928303 -0.040421315 0.2350199 0.18991838
-0.19360214 -0.048086617 0.3453726 0.035742365 -0.041528594 0.44752902 -0.15803693 -0.42074084
-0.26321918 0.24487889 -0.011653851 -0.009996355 -0.14536662 0.005380805 -0.09749417 0.02074673
-0.26265407 -0.10813206 -0.1827208 0.06553727 0.05814969 -0.0040754634 0.8511884 0.75929266
0.1274549 -0.34294268 -0.2760203 -0.15378541 -0.08293288 -0.33369994 -0.13336544 -0.23127936
0.6660154 -0.2964792 -0.057915095 -0.1257561 -0.08991173 -0.1585553 -0.09958502 0.260218
-0.19920819 0.37214682 -0.3394782 0.77491134 -0.34683037 -0.50711554 -0.13153948 0.060519505
-0.20757693 0.14789301 1.1231127 0.2796073 -0.7918602 -0.17313126 -0.06773489 0.28583187
0.03471848 -0.015257792 0.58633983 0.03143465 0.37703183 0.5161881 0.4552027 0.6871217
0.055701166 0.2461685 -0.23244359 0.6902353 0.3373844 0.02717721 0.516061 0.27572367
0.49275246 0.72590196 0.32081634 0.44435778 0.13166367 0.6760195 0.20023961 0.13142975
0.21444377 0.35555696 0.070768304 -0.07394127 0.63531935 0.46484184 -0.056041695 -0.41380364
0.27998236 0.21787024 0.3709333 0.46555808 -0.43512973 -0.074199565 0.3314257 0.50142205
0.054261506 0.31820744 0.15815209 0.23193316 0.2773277 0.13792533 0.4396203 0.29463932
0.5035043 0.22776054 0.12119898 0.19730805 0.25217864 0.15519734 0.12394832 0.42801827
0.70958465 -0.08804899 0.5127041 0.3985274 -0.018986212 0.3015532 0.31345364 0.5112309
-0.51036775 0.3715941 -0.078016266 0.15996505 0.3359609 0.06073068 0.114385284 -0.52736133
-0.26207826 0.5580708 0.28378275 0.02643626 0.11345657 0.43467253 0.041103162 -0.060233492
-0.15130445 -0.008613945 -0.13831487 -0.20658094 -0.29060262 0.1003367 0.25608906 0.070094675
0.48038778 0.33219004 -0.10485593 0.32811877 0.63274395 0.38166946 0.30233973 -0.72672635
0.2788862 -0.1868343 -0.020645896 -0.29053146 -0.34467256 -0.24029122 -0.2646479 0.1281164
0.6528382 0.14936548 -0.0033545957 -0.4112056 -0.09734798 0.12866093 0.30217472 0.31519717
0.48773804 0.53254265 0.12071324 -0.72778714 0.2326594 0.42685834 -0.102776185 0.05487876
-0.27463898 -0.3884638 -0.54629475 -0.4284318 0.059553105 -0.42475766 -0.1442124 0.3662317

mlp_model.0.weight f4 [256, 3]
00000000: e9fc ee3e 245f 993e 0604 65be aeeb 563d
00000010: 2efc b13e f81a 55be fbdc 1a3f 04b4 d3bd
00000020: 9775 7d3e e96c 723d 3fe0 003e 092a c5be
00000030: 17d2 e6bd cb0b 44be 04c9 8a3e 8009 26be
00000040: a856 153e 3d2a b4be 57c7 223f 4bad 083e
00000050: b182 f43e 7868 d1be e8ff f83d f0d8 a1be
00000060: 1776 e03e c8d1 f53d aa7d e33e 3ea0 3d3e
00000070: 782a e33e 2341 babe 5bd2 103f 790d 4a3e
00000080: 337a 9b3e e5d8 7dbe 183b 913e b8a1 ecbe
00000090: d2f7 0fbe 8fd1 88be d896 0ebf 9580 7bbe
000000a0: 70e7 b33e 2081 e93e 3600 c83e 25a7 04be
000000b0: ada5 c9be 7a85 a03e f248 e93e f3c8 d7be
000000c0: da3f 4fbe 6ebf 0ebf 9f35 943d 5de1 05bf
000000d0: 346e b2be fd54 d6be f3b2 033f 579b f93e
000000e0: d05b 6e3d 1f00 aebe f208 e93e 170e 06bf
000000f0: 5ef8 d73e a273 8d3e 5ee1 c53e df74 e0be
00000100: e4e6 5e3e d99f bd3d 903a f73e 11c9 37be
00000110: e72c c9be b769 a6be dd3d 553e 4130 a63e
00000120: 7ebf e13d f9a2 45be 3e6c 883e 44ce 04bd
00000130: 4323 b8be 1386 b13e b4d7 f23e b572 d23e
00000140: f01c a43e b498 efbe d566 bebe e8a7 fb3e
00000150: f0f0 973e 6899 303e e4a8 e63d 9394 e33e
00000160: 2199 0bbe af5e a8be 6210 953e 770b 0cbf
00000170: ba62 ebbe 9595 b83e a2a5 1e3e 71a7 e43d
00000180: 114f 8a3e fea7 debe 2e92 f1be 695b 09bf
00000190: 02b2 5a3d d9bc b83d 357e 643e 1179 c83e
000001a0: ecd2 4d3c ba54 9bbe 77b7 11bf 17f8 a4be
000001b0: e937 8f3e cd00 d2be 6e32 adbd 937a c83e
000001c0: cf81 0e3e 77fe 0a3f 219a 093f 0797 0a3f
000001d0: f241 f33e d142 d5bd fd63 7cbe fc5a c6be
000001e0: a611 3a3e 9a1b a43e 6cbe 6d3e b2ad e53e
000001f0: 52c9 753d ee26 e73e 0cbf 743e df71 0abf
00000200: c3f8 b8be 172c c2be a6e5 d3be ddea 70ba
00000210: 454c 42bd ff14 ee3e c8a6 debe 2c22 c63d
00000220: 3e6d 293e 46fd dfbe 18ca 7d3d a0ab 31be
00000230: 771f 2e3e 0e84 0fbe ad91 ebbe a5ac cc3d
00000240: 85fe 013f fe26 1c3e bdc3 0abf e656 d53e
00000250: e18e 003f c05b 09bf dba1 293d d3e9 2e3e
00000260: 3c19 8f3d 303f df3e 99a7 fd3e 769d 7abe
00000270: d88a 40be a671 663b e07f b5be e7c9 4b3e
00000280: e0b9 1f3f e0ed 73be c317 f43e 317e 0bbc
00000290: 46d5 febe 40c3 85be ee6b 633d ff0c e1be
000002a0: 6c2c 5cbe e48a f23d fd4e d63e b274 c7be
000002b0: 8f2d e4be f69d cabe 0416 073f ce7f d43e
000002c0: d384 e33e 6b2d 073f 03b1 8b3e e3df a1be
000002d0: 4f2e 3bbd fbe8 bdbd b4e9 b83e 666c b83e
000002e0: 9c2c aabe ae4d 823e eca0 0c3e ff1e 213f
000002f0: 44d6 b7be e8ec 09bf b0cc e4be b5ae a83e
00000300: 1633 bf3e ff8c 093f 2757 8d3e 4bd1 8abe
00000310: d9c7 0a3f 55e2 0fbf b6bb 133f 6e72 733d
00000320: f375 1a3e b6fd 0bbf a6ad 1b3e 97bd fa3e
00000330: 3abd 203f 212c a03e 7f21 cc3e 7009 da3e
00000340: 0185 57be 53dc f8be 3d67 dabd 6905 9d3e
00000350: cfa6 753e 83a2 943e af0a 033e 5a61 013f
00000360: 3d91 bdbe 22bf a1bd 1b62 203f d7b6 efbe
00000370: 983e e0be 1f2f acbe bb5b 38be d744 b2be
00000380: dc5f 113f 7448 0cbf 2746 08bf cbe3 e93e
00000390: 074a 6fbd 5a9a a63e ab0e 04bf ddce b23e
000003a0: 33ea e6be 6fae 6e3e 501e cebe c548 d1be
000003b0: d5a7 38be 035d 75bd 8b4d ba3d 8c64 313e
000003c0: 41ba 39be e74c 4d3e 8b0f ae3d 7c91 b5be
000003d0: 7499 d03e 025e 15be 4dde adbe 3015 013f
000003e0: d3d4 d43e 920f 2a3e 67db f3be f6ed 2a3e
000003f0: 7f1e 683e aee2 483d 1cce 6abd b421 933d
0.4667733 0.299554 -0.22364816 0.052470855 0.3476271 -0.20811069 0.6049344 -0.1033707
0.24751888 0.059185896 0.12585543 -0.38508633 -0.1127054 -0.19145124 0.27106488 -0.16214561
0.14583838 -0.35188475 0.6358542 0.13347356 0.4775596 -0.40900016 0.12158185 -0.31610823
0.43840095 0.12002903 0.44431812 0.18518159 0.4436834 -0.3637782 0.56570977 0.19731702
0.30366668 -0.2478977 0.28365397 -0.46217132 -0.1405938 -0.2672238 -0.5569892 -0.24560769
0.3513751 0.45606327 0.3906266 -0.12954386 -0.39384213 0.31351835 0.45563465 -0.421455
-0.20239201 -0.5576085 0.0723679 -0.52297 -0.34849703 -0.41861716 0.5144493 0.48751327
0.058193028 -0.33984467 0.45514637 -0.5236525 0.42181677 0.27627283 0.38648504 -0.43839166
0.21767765 0.09259004 0.48286867 -0.17947794 -0.3929207 -0.3250253 0.2082438 0.3245869
0.11022852 -0.1930045 0.26645082 -0.032423273 -0.35964403 0.34672603 0.47430193 0.4110314
0.32053328 -0.4679619 -0.3718783 0.4915154 0.29676008 0.1724602 0.11262682 0.4444929
-0.13632633 -0.32884738 0.29114062 -0.54704994 -0.4597376 0.36051622 0.15492871 0.111647494
0.27013448 -0.43487543 -0.4718184 -0.53655106 0.053392418 0.09020395 0.22313769 0.39154866
0.012562495 -0.3033808 -0.5692057 -0.32220528 0.27972344 -0.41016236 -0.08456884 0.39156017
0.13916706 0.5429453 0.5375081 0.541367 0.4751125 -0.10413135 -0.24647518 -0.3874129
0.18170795 0.32052308 0.23217171 0.44859082 0.060006447 0.45146888 0.23901004 -0.54080003
-0.3612729 -0.37924263 -0.41386145 -0.0009190271 -0.047436018 0.46500394 -0.4348662 0.096744865
0.16545579 -0.4374792 0.06196031 -0.17350626 0.1700419 -0.14015219 -0.4600958 0.09993867
0.5077899 0.1524925 -0.5420492 0.4166786 0.50218016 -0.53655624 0.041414123 0.17081384
0.06987235 0.43602896 0.4954193 -0.24474129 -0.18802965 0.0035162955 -0.35449123 0.19901238
0.62393 -0.23821211 0.4767438 -0.008513973 -0.4977209 -0.26125526 0.05552285 -0.43955228
-0.2150132 0.118428975 0.41857138 -0.3895622 -0.44566008 -0.3957364 0.5276797 0.41503757
0.44437274 0.5280368 0.27283487 -0.31616125 -0.04569846 -0.09272953 0.361158 0.360202
-0.3323716 0.2544989 0.13733262 0.6293792 -0.3590566 -0.53877115 -0.44687414 0.3294579
0.37343663 0.5373077 0.27605554 -0.27112803 0.54211193 -0.5620473 0.577083 0.0594353
0.15084057 -0.5468401 0.1520296 0.4897277 0.62788737 0.31283668 0.39869305 0.42585325
-0.2104683 -0.48605594 -0.106642224 0.3066819 0.23989414 0.29030237 0.12797044 0.5053917
-0.3702487 -0.07897784 0.626497 -0.46819183 -0.43797755 -0.336297 -0.18003742 -0.34818146
0.56786895 -0.54798055 -0.53232044 0.45681605 -0.058420207 0.32539636 -0.5158488 0.3492345
-0.45100555 0.23308729 -0.40257502 -0.4087583 -0.18032773 -0.059903156 0.090968214 0.17323512
-0.18137456 0.20048867 0.08499058 -0.35462558 0.40742075 -0.14586642 -0.33958665 0.50422955
0.41568622 0.16607502 -0.47628328 0.16692337 0.22667883 0.049044304 -0.057325467 0.07184163

mlp_model.0.bias f4 [256]
00000000: 12db 843e fe12 aabd af39 363e d7cd 08bf
00000010: 1d44 bebe 31a8 4cbe abef e13e 8a48 d8bd
00000020: 11a6 09bf c9c5 d03e 1f07 9dbe e538 e53e
00000030: 42be ea3e 3755 39be 6875 1c3e f279 9e3e
00000040: 2f4b 94be 1800 fe3e 178a 8f3d 02a7 be3e
00000050: fefd 6dbe fa9b e43e cb44 083f b1b0 2d3e
00000060: 65c0 753e 9df7 ebbd 3c3c c53e 4a4a 0cbf
00000070: 748d e6be 2873 a23c 51e0 86bd b6fc e4be
00000080: 3d77 97bd 5091 88be aca4 203c f348 1cbe
00000090: 444c fcbe c43e f0be cfb8 373e 746b c03e
000000a0: 5ec6 cebe 90e5 9b3e cc71 0bbf 161e 98be
000000b0: 67a9 adbe b5e6 9d3d 0ba1 853e 558f 2cbe
000000c0: 053f febe d75a 053d 31b0 973e 2aeb 3a3e
000000d0: 8ef1 54bd 0196 053f fc40 04bf dfee 11bf
000000e0: 6da1 3dbe 5ddd b73e fc3c 23be dd4a f8be
000000f0: 9b62 1d3f d55e 0e3f c0d1 b73e 75d6 17be
00000100: c351 00bf e53b e1be 982b a1be 7878 2b3f
00000110: 8fe2 2c3e 67a2 4e3e 9921 f6bd ec45 d6be
00000120: 81c5 44be fe78 1c3e 7b97 c43e d460 b5be
00000130: d347 9bbe d5a1 783e 431b a2be 4895 34be
00000140: e5eb 173f f6e6 cebe aa05 b93b 94b2 273e
00000150: 4530 e73d 1789 d0be b098 5bbe 3b94 a8bd
00000160: 636a d2be e271 c0be b402 023e f60f 083f
00000170: b714 17be c869 71be cdff cb3e eac9 e1bd
00000180: 8ae8 fb3e ee35 0cbf 97e5 893e 0ec2 ac3e
00000190: 81c7 f43d b11f 99be bd26 4d3e 4a17 fcbe
000001a0: 2836 b4be 0d78 0f3f b8e2 01bf 5761 abbe
000001b0: 4586 09bf 84b6 49be aba0 36bc 461a c93e
000001c0: 33e3 e53d 5ab2 863a 63f1 a5bd e0be cabe
000001d0: a44f 073e 537b 933e db77 0ebf d659 713d
000001e0: 8b36 683e fd60 87be 92cb 48be 88b9 51bc
000001f0: 8459 233e eb29 60be a5ce dc3c 0228 a6bd
00000200: 3f0d 9abe 55a3 913e e7c2 163d 8465 35be
00000210: cc8a 8dbe 7c42 4bbd 63c6 b93e 9f4f ad3e
00000220: 0af6 debc fdbd 1d3f 0679 d63e 1e49 8c3e
00000230: 723a 7abe 746c f13e 7799 25be e207 733e
00000240: 38c9 0c3f e9a8 ef3d 6063 ba3e 310d 68be
00000250: 29f8 a7be 10c0 40bd 2482 c4be 2b84 b1be
00000260: 7061 13bd 738a 9dbe fba4 16be fcfd 09bf
00000270: 8315 44be 9ee5 9cbe be5b 973d e766 68be
00000280: 14cd 8f3d 1fa8 04be 7bd5 d0bd d127 933d
00000290: 9acc b7be fa1c efbd 3783 01bf 7dcf e6be
000002a0: 87c1 15be 9075 9ebe fd9d 1b3e 5b95 e13e
000002b0: e631 153d 9b2d 80be 1610 a23e c542 5f3e
000002c0: 83d9 da3e 9fca 663e 53a1 723e 4e80 b23e
000002d0: feee 76bd 6141 eabe 3dd7 67be 41e6 153e
000002e0: 9d45 003f d8fe cd3b 7155 eabe 0248 1e3e
000002f0: 9637 b0be b49e acbc 6636 77be ce9f a13e
00000300: f351 113f c518 b13e b055 f73c f490 c03e
00000310: ac60 943e fb0d 87be 8595 9a3d d36d c33e
00000320: 8139 81be 253a 35be 01e7 043f dce2 89be
00000330: 222e e6be 1758 913e 1986 8dbd 195a ae3c
00000340: 6d66 0d3f e729 d23e cd81 053e bc8d c13e
00000350: 645e f63d 9e8f dbbe c143 f23c 1fb9 d6be
00000360: bd8b 9abe abfd 8e3e 413a 92be a31a d9be
00000370: ddef 17be cf8c 3dbe 1ae4 0e3f 7e21 613e
00000380: f95b 813e 1977 84bd 45ec 903e 98d2 083e
00000390: b725 b03e 42fd 103f 7a9a a93e 0778 88be
000003a0: 11b5 dfbe 086c de3e 3875 42be 2853 d3bd
000003b0: a4ed 9cbd 2b2c 9bbe c1fe a3be aac8 f9be
000003c0: ac60 ae3c 5e38 343e 1a21 0a3f ed9c f43c
000003d0: 0115 223e 70c1 50bd 6bcb b4be 6513 22bd
000003e0: c093 db3e 3907 63be 7582 0f3f 8a8c e3be
000003f0: 7e4c a33e 097f bb3e 039f 95be 5adf f73c
0.25948387 -0.08304404 0.17795442 -0.53439087 -0.3716134 -0.19986035 0.44128165 -0.10560711
-0.5376902 0.40775898 -0.30669495 0.4476997 0.4584828 -0.18098913 0.15279162 0.30952412
-0.2896361 0.49609447 0.070087604 0.37236792 -0.23241422 0.4465025 0.5322997 0.16961934
0.23999174 -0.11521838 0.38522518 -0.54800856 -0.45029795 0.019830301 -0.06585754 -0.44724053
-0.0739579 -0.26673365 0.009804886 -0.15262203 -0.49276936 -0.46922886 0.17941593 0.3758198
-0.40385717 0.3044858 -0.54470515 -0.29710454 -0.33918306 0.077100195 0.2609943 -0.16851552
-0.49657455 0.032557335 0.2962661 0.1825377 -0.051988177 0.5218201 -0.5166166 -0.57005113
-0.1851861 0.35911074 -0.15941232 -0.48494616 0.61478585 0.5561345 0.35902214 -0.14827903
-0.5012476 -0.43991008 -0.31478572 0.66980696 0.168833 0.20179139 -0.12018127 -0.4185022
-0.19215967 0.1528053 0.3839682 -0.35425436 -0.30328235 0.24280484 -0.31661424 -0.17635071
0.5934432 -0.40410584 0.005646427 0.16376716 0.112885036 -0.4072959 -0.21444964 -0.08231398
-0.41096792 -0.37586886 0.12696344 0.53149354 -0.14753996 -0.23575509 0.39843598 -0.1102484
0.4920085 -0.5476979 0.26932976 0.33741802 0.11952115 -0.2990699 0.20034309 -0.49236518
-0.35197568 0.5604256 -0.5073657 -0.33472702 -0.53720504 -0.1969853 -0.011146705 0.39277858
0.112249754 0.0010276542 -0.081026815 -0.3959875 0.13213974 0.28805026 -0.55651635 0.058923565
0.22677056 -0.26441184 -0.19608906 -0.012800582 0.15952116 -0.2189099 0.026954005 -0.081131
-0.3008823 0.28444925 0.036806967 -0.17714506 -0.27644956 -0.04962395 0.3628417 0.3384981
-0.02721693 0.61618024 0.4188921 0.27399534 -0.24436358 0.47153056 -0.16171823 0.23733476
0.54994535 0.11702139 0.36403942 -0.22661282 -0.3280652 -0.047058165 -0.3838054 -0.3467115
-0.035981596 -0.3076969 -0.14711373 -0.53903174 -0.19148831 -0.30643934 0.07390545 -0.22695504
0.070215374 -0.12954758 -0.10196968 0.07185329 -0.35898286 -0.11675449 -0.5059084 -0.45080176
-0.14624606 -0.30949068 0.15196986 0.44059262 0.03642454 -0.25034794 0.31652898 0.21802814
0.42744073 0.22538231 0.23694353 0.34863514 -0.060286514 -0.45753005 -0.226407 0.14638616
0.5010622 0.0062864833 -0.45768312 0.15457156 -0.3441741 -0.02107177 -0.24141845 0.31567234
0.5676567 0.3458921 0.030192226 0.3761059 0.28980005 -0.26377854 0.0754805 0.38169727
-0.25239184 -0.17697962 0.51914984 -0.26930892 -0.44957072 0.2838752 -0.06910343 0.021283196
0.55234414 0.41047594 0.13037796 0.37803447 0.12029722 -0.4288301 0.029573323 -0.4193811
-0.30184737 0.27927908 -0.2856007 -0.42403135 -0.14837594 -0.18510745 0.55816805 0.21985433
0.25265482 -0.064680286 0.2830526 0.13361585 0.34403774 0.5663644 0.3312567 -0.26654074
-0.4369283 0.43441796 -0.18990028 -0.10318595 -0.07662514 -0.30307135 -0.320303 -0.48785907
0.021286331 0.17599627 0.5395676 0.029859984 0.15828325 -0.050965726 -0.35311446 -0.039569277
0.42886162 -0.22170724 0.56058437 -0.4444316 0.31894296 0.36620358 -0.2922288 0.03025787

fc.weight f4 [70, 64]
00000000: ea6f b4bf 2b7a 93be 43b6 613f 8fea a1c0
00000010: d793 1cbf 8b86 4abf 8814 0cbf 0f67 9040
00000020: 13ab 88c0 0bd3 debf 79f7 903f cd72 073f
00000030: 66df fbbf 4e93 3a3f 3af4 9c3f 9a85 20bd
00000040: fc0d ae3e 808b 04bf fc35 b13f 1179 bf3e
00000050: 12e4 933f 6231 013f f52e db3f 6cf3 7a3f
00000060: 2abf 9840 bbd5 1dc0 d6f9 063e 1270 1d3f
00000070: 7022 1f3f bb7c 6140 333a 1c40 5ed0 16be
00000080: 3bb8 643f f91b 4240 113b 6cbe 5fc0 ce3f
00000090: ea19 963e ba71 d43e e2bc d63f 71c4 40bf
000000a0: d077 22be bb06 97c0 567a 6d3e 8ae6 4dbf
000000b0: cc76 3640 1b9d 5a3e 1626 96bf 14c0 0840
000000c0: bddf ae3f 1eff 33be e6e8 9b40 3fc8 7bbe
000000d0: 1eee 053e c2c5 e1be fb05 8240 c4e4 1b3f
000000e0: 5d9f 113e e130 fdbe a2d4 bc3e 848c 283f
000000f0: c8e5 933f b3d2 aebe 5608 993e b873 7ebf
00000100: 4845 63bf 7873 45be 777d 7f3d dece 37c0
00000110: b38e 22be 8ebe 43bf 4a14 bcbe 48ce 5940
00000120: 5b98 c1bf eaf0 d6bf e921 0840 5460 0a3f
00000130: a336 6abf d061 aa3f 646d 913f 6f58 60be
00000140: cedd b83e 31b2 0bbf b85c d53f fb85 69be
00000150: 4fc2 3a3f ae66 613f 35fd f23f 6918 e73f
00000160: 7c2c 4c40 fc63 3fc0 39aa da3e 4c12 b83e
00000170: 5256 4dbf 1dd5 543e 4600 9f40 395e 28be
00000180: d639 183f 200f e23e 9fd9 4ebf 85ba d03f
00000190: 6588 9cbf 7db1 133f 9e72 9e40 d4c4 14bf
000001a0: cf42 bfbd 3639 47c0 9ad3 8dbf 59cb 11bf
000001b0: 1816 8c40 e6c9 323f 1575 5dbf ba83 c83e
000001c0: 6ff9 a5bf 19ba 8bbe 6495 0d40 ed31 fabd
000001d0: 2a0d 67be bec9 03bf 3bf3 c2be 1f64 f53e
000001e0: 7cff 89be 00bd 61be 0320 993e 2788 233f
000001f0: e7a5 c43f 9549 96bf 9ffa 703e 4ea1 b6bf
00000200: 553c 80bf 0f3f 44bb 3431 2f3e a433 ee3f
00000210: c1d7 acbb 6402 35bf 1954 70be 207b e83f
00000220: c3c5 0ec0 5ffc 4abe 9f4a 0b40 bf63 943e
00000230: 0d84 da3f 1b17 c53f d936 c43f 6f59 a2bf
00000240: bcd9 593e 3736 c0be b859 9abe a380 8b3d
00000250: ff46 393f e93a 533f 381f b93f 4c17 be3f
00000260: c7b1 e43f b51e 54c0 b454 883e 34d4 7b3e
00000270: 9fae 1dbf f398 593f fd51 5440 2867 5fbd
00000280: 68f6 ec3e 7d4d 39bd 13ca e5be c04d dc3f
00000290: 2313 9abe 5db7 b73e 642d 6340 305a ddbe
000002a0: 275f 07bc 36cc ba3e d260 05c0 d1dc 0bbf
000002b0: 876e 2340 f822 933e cc23 80bf b456 30bd
000002c0: e965 13bd 1299 d9be 63d6 203e 179b 233d
000002d0: 0015 86bd 7f56 91bd 9ebb b6bf 4164 d93e
000002e0: 25ee 99be 3375 3abe f2c9 923e ba7b f73e
000002f0: 7949 4b3f 2453 61be 4fbf 113d e66f b7bf
00000300: 328b 84bf ee1c ab3d 1b36 e93e 4036 cb3f
00000310: 89e3 e63d 9953 1fbf 7817 16be 468d 7d40
00000320: 09ef 2dc0 01f6 c23e 65b6 0f40 45df 613d
00000330: 60cf 0540 4690 e63f cc85 b63f bf2d 603e
00000340: 8278 1c3d 5731 c2bc ba7e 60bf c807 1e3f
00000350: 45fc 433f e7dd bd3d 9c32 833f d116 bc3e
00000360: 0e02 debe 79ac 40c0 92f5 a43e 718e 153e
00000370: 185d b3bf c71a a53f 66c2 ecbe a261 283e
00000380: b758 cb3e 6489 943d 6842 7b3f b129 e13f
00000390: f3c0 45bf f902 85be c4f9 62bf ea9d 9ebe
000003a0: 5dae 803e 6b2e a43e 372c 51c0 d4d5 39bf
000003b0: 1760 0140 7ba0 45bf 9acf 5cbf 2315 98be
000003c0: 397c 8a3a 5d16 e6be bcaf 0ebe 5276 543e
000003d0: 2198 95bd c5f1 5fbe 2027 c7bf a7a7 863e
000003e0: 4b44 a33e c431 053d 5b09 a2bd 7713 023f
000003f0: e672 b23f 49cd d8be e7f6 c33d 2156 033e
-1.4096653 -0.28804144 0.88168734 -5.0598826 -0.61163086 -0.79111546 -0.5471883 4.5125804
-4.270883 -1.7408155 1.1325523 0.5290955 -1.9677551 0.7288102 1.2262032 -0.039189912
0.33995044 -0.5177536 1.38446 0.37397054 1.1553977 0.5046598 1.7123705 0.9802768
4.7733355 -2.46617 0.13181242 0.6149913 0.6216192 3.523238 2.4410522 -0.14727923
0.89343613 3.0329573 -0.23069407 1.6152457 0.29316646 0.41493016 1.6776392 -0.75299746
-0.15866017 -4.7195716 0.23191199 -0.804299 2.8510008 0.21348993 -1.1730373 2.1367235
1.366203 -0.17577788 4.87218 -0.24588107 0.13079116 -0.4409619 4.06323 0.60895944
0.14220949 -0.49451354 0.36880976 0.6583941 1.1554499 -0.34145126 0.29889172 -0.9939532
-0.8877759 -0.19282329 0.062375512 -2.8720012 -0.15874748 -0.7646264 -0.3673423 3.4032154
-1.512462 -1.6792271 2.1270697 0.54053235 -0.9148962 1.33111 1.1361508 -0.21908735
0.36106724 -0.54568774 1.666892 -0.22805016 0.7295274 0.880473 1.8983523 1.8054324
3.190215 -2.9904776 0.42707995 0.3595146 -0.8020984 0.20784421 4.9687834 -0.16442193
0.5946325 0.44152164 -0.80800813 1.6306921 -1.2229124 0.576927 4.9514914 -0.58112836
-0.093389146 -3.1128669 -1.1080201 -0.5695091 4.377697 0.6983932 -0.8650678 0.39163
-1.2966746 -0.2729042 2.212243 -0.12216554 -0.22563615 -0.5147971 -0.38076195 0.4792795
-0.26952732 -0.22044754 0.29907236 0.63879627 1.5363129 -1.1741205 0.23533104 -1.4267976
-1.0018412 -0.0029944812 0.17108613 1.860951 -0.0052747433 -0.7070677 -0.2346958 1.8162575
-2.2308204 -0.19822834 2.1764295 0.2898235 1.7071549 1.5397676 1.5329238 -1.2683543
0.21274465 -0.37541363 -0.30146575 0.06811645 0.72373956 0.82511765 1.4462652 1.485086
1.7866753 -3.3143742 0.26627123 0.24592668 -0.61594576 0.84999007 3.3175042 -0.054541737
0.46281743 -0.045239914 -0.44880733 1.7211227 -0.30092725 0.35882083 3.5496454 -0.4323287
-0.008262432 0.36483926 -2.0840344 -0.54633814 2.553621 0.28737617 -1.0010924 -0.043051437
-0.03598586 -0.42499596 0.15706782 0.039942827 -0.06546974 -0.07096576 -1.4276006 0.424593
-0.30064502 -0.1820877 0.28669697 0.48336583 0.79408985 -0.22004372 0.035582837 -1.4331024
-1.0354979 0.08355127 0.45549092 1.5875931 0.11273868 -0.62236935 -0.1465739 3.9617476
-2.7177145 0.3807831 2.2455075 0.055144567 2.0907822 1.8012779 1.4259582 0.21892451
0.038200863 -0.023705168 -0.8769337 0.61730623 0.7655681 0.0927084 1.024982 0.36736158
-0.43360943 -3.010527 0.32218605 0.14605118 -1.4012785 1.2898797 -0.46242064 0.16443494
0.39716122 0.07252768 0.981482 1.7590848 -0.7724754 -0.2597883 -0.8866236 -0.30979854
0.2513303 0.32066664 -3.2683237 -0.725919 2.0214899 -0.77198 -0.86254275 -0.29703626
0.0010565586 -0.44938937 -0.13934225 0.2074826 -0.07304407 -0.21869572 -1.5558815 0.26299784
0.3188804 0.032518163 -0.07911941 0.5081095 1.3941314 -0.4234412 0.09568577 0.12825824

fc.bias f4 [70]
00000000: 10af e43d 16d8 a63d c0b2 be3c 1fcf afbe
00000010: ec17 a8be 599d c83e 732f 873e 9d1e a23d
00000020: 3c05 6cbe 07c0 113e b0da 5c3d 6204 95bc
00000030: 4c0d 773c d23a 4dbe fdee 9abe 7d81 c43e
00000040: bd06 0b3e 83fa 1b3b 50a6 54bd b51b 6b3e
00000050: 90c7 eb3d 1533 023e 82e4 21be 9efa 2dbd
00000060: 9dde a33d 5f6d ee3d 0262 9a3c 2361 563d
00000070: 343a ee3d 76ef eabc 3c27 243e 32f9 e8bd
00000080: 2ebc 5fbe 349e 7a3e bd8d 0b3e a0c5 3fbf
00000090: aff2 073d 3694 72bd 64e6 55be e9dc cc3d
000000a0: 53ed 2d3d 5b49 d03c 8aff 303d 30b6 6dbe
000000b0: d667 fc3c e76a 3abd fa5d 16be 9b50 8dbd
000000c0: cb47 a03a 04a2 073c 2a74 383e 67c4 e23d
000000d0: d8a4 adbd b8da 453e 37ad 293e eef5 2fbf
000000e0: b5f3 e3be 97bc 07bf e2a7 053d 290d c9bd
000000f0: 2af4 1cbd 0c82 58bc 4ae0 25be 6e29 373d
00000100: 1fb1 bf3d a263 ebbd 6263 81bd 9f74 71be
00000110: 3c49 9e3e 4458 3e3d
0.11166203 0.08146684 0.023278594 -0.34337708 -0.3283075 0.39182547 0.26403388 0.07915995
-0.23048872 0.14233409 0.053919494 -0.018190566 0.015078854 -0.2004197 -0.3026046 0.38380042
0.13576789 0.002380044 -0.05191642 0.22959788 0.11512673 0.12714799 -0.15809825 -0.042475335
0.080014445 0.11641955 0.018845562 0.05233873 0.11632195 -0.028678637 0.16030592 -0.11375655
-0.21849129 0.24474412 0.13628288 -0.74910927 0.033190425 -0.059223376 -0.20888668 0.10003073
0.042462658 0.025425604 0.04321245 -0.2321403 0.030811232 -0.045512106 -0.14684287 -0.0690014
0.0012228427 0.008278374 0.18013063 0.11072617 -0.08478707 0.19321716 0.16569982 -0.68734634
-0.4452187 -0.5302214 0.03263081 -0.09816963 -0.03831879 -0.013214599 -0.1619884 0.044717245
0.09359955 -0.11493613 -0.06317784 -0.23579644 0.30915248 0.046470895
