models/MLP/result_MLP.pt (torch, 201615 bytes, 8 tensors)

linear.0.weight f4 [64, 576]
00000000: 9d80 9b3d 7b3e 4f3d 8167 0a3e 6790 933d
00000010: 4170 e93d add5 783d 90b8 983d 1c2c 043e
00000020: 2181 673d 00fa 443d 8812 ec3d 6a1b 303d
00000030: 4bad 8e3d d409 d33d 1e9b ef3d 76ac a03d
00000040: 5fc1 013e 1dae b73d b05b 943d 840d 9c3d
00000050: 3a33 f83d 472d c33d f125 083e b64d 843d
00000060: 7493 053e d875 983d 4b0d dc3d 011e d13d
00000070: ce6c b93d cfba bc3d 3078 903d da12 f53d
00000080: 2977 a53d 3839 7a3d c7ea e73d 417e 8a3d
00000090: d252 d03d b441 ee3d e19f d63d 3180 db3d
000000a0: 8af0 e53d d823 163e e0f6 a43d 9b57 ce3d
000000b0: 409d df3d 3289 ad3d a5cc b73d 73fb df3d
000000c0: fcc1 013e cf45 cd3d 71f7 ad3d 8753 6f3d
000000d0: 2f3c cc3d 8135 c83d 30c0 ab3d cbb5 853c
000000e0: 2b48 f93d a080 e03c 8704 fb3d e391 e43c
000000f0: fb5c 6f3d 39ee 033d efbe 483d 7c8e e53b
00000100: 7182 273c f069 cd3c c8be 7f3c 518e 1c3d
00000110: 522a a13c 2281 af3b ec9c 893c efac 9eba
00000120: fb96 52bc 7915 aabc 5178 1abd eb48 aabb
00000130: 15e0 7cbd 94d7 48bd e823 bcbd 7770 96bd
00000140: bd73 d5bd be99 58bd d833 e5bb 405c bdbd
00000150: 87ef 75bd 706b 1cbd c938 a0bd e858 65bd
00000160: 1614 05bd edfb 3ebd 0ee9 4abd 59a7 8dbd
00000170: 70a9 95bd 5ff8 00bd aad7 39bd 7fc1 09bd
00000180: 74a8 ecbb 9103 a4bc 546c c83a 794e 593b
00000190: 805a 283d 5c09 bd3c c998 e9bb cc8b 363d
000001a0: 9696 9d3c 516c 253d 9bd1 603d 6ef0 2e3d
000001b0: bc14 9c3d 339f 423d d11b d83d 7c8f fcb9
000001c0: e3fd 2f3d 8f87 903d 432a 0f3d a172 913d
000001d0: 8b9c 743d 2832 bb3d 5ea0 043e ab01 9e3d
000001e0: 70b3 ca3d eed3 a03d cab5 123e d753 903d
000001f0: 5cee ba3d cce9 553d 0ba3 c43d b4a0 0b3e
00000200: c89b 0a3e 21d2 e73d 302c ec3d f484 cf3d
00000210: bb99 a13d 8735 ab3d 0d12 4c3d e7cc 8d3d
00000220: 22ac b43d 2d54 2f3d 1f2f 223d 9c4a e13b
00000230: 6a5a 123d 2a9e ecbc d7a4 94bc 3ee8 cdbd
00000240: efcb e5bd df6d 15be 37a4 5bbe d7c0 87be
00000250: 7e92 98be 1de3 97be 5c81 aebe dd04 b8be
00000260: da96 d1be 615c d0be b366 b6be 5a0b d5be
00000270: a8d0 ccbe aa2a dfbe 4f00 e7be 9e45 f8be
00000280: e5dc 05bf 074a e6be f941 e6be d50f d5be
00000290: 3b7d 04bf 944f efbe b249 cfbe eb11 e5be
000002a0: f5de efbe d462 e3be 1723 09bf 4f19 e7be
000002b0: d0ed e2be 3aeb f7be ddd7 e1be 53f9 bbbe
000002c0: 0098 e7be ee94 ebbe d9c3 d8be 0ed8 e8be
000002d0: 78ff c2be 01e4 bdbe 1651 adbe 08ed bfbe
000002e0: ba20 9fbe 9602 b4be f86c 87be ec89 99be
000002f0: e17e a0be ed8f 81be 3925 6abe 8278 61be
00000300: c474 93be 132d 28be 19cf 56be 0888 1abe
00000310: bc39 09be 7879 40be 5517 e7bd d1c4 2bbe
00000320: 75e0 fdbd c21c f2bd c198 02be a29e babd
00000330: f572 b9bd ee59 8fbd 8d73 66bd cfc8 55bd
00000340: 4728 83bd 3b12 55bd bc69 ccbd 9099 90bd
00000350: 2d5e 37bd 2db5 2cbd 1502 bdbd 472f 74bd
00000360: 17ad 5dbd 81ea c8bd d213 c5bd a844 6ebd
00000370: ac1c b3bd 1054 7dbd 4327 4abd 0340 7bbc
00000380: d4fe 2abd cfda 5abd e9b5 3abd 1adc 6fbd
00000390: 2bac 95bd 6cb8 9abd 1bc8 4ebd 41d3 68bd
000003a0: c0a9 8cbd fa25 cfbc 696b 0cbd 0ae8 3abc
000003b0: 2676 883c 512d a03d 5505 843d 01a5 a03d
000003c0: 650a e43d 36b5 153e cbf2 393e b466 6b3e
000003d0: 44bc 803e 900e ae3e 6e2d b83e 72b1 d93e
000003e0: 2351 e73e 42f1 f73e 3484 ef3e 5e5f f23e
000003f0: c218 ea3e 1055 e83e f748 083f 276a eb3e
0.075928904 0.050596695 0.13516046 0.07205277 0.11398364 0.060750652 0.074570775 0.12907451
0.05651963 0.04808998 0.11526972 0.042994894 0.06966647 0.10304609 0.11699508 0.07845394
0.12671421 0.08968756 0.072440505 0.076197654 0.12119146 0.0953012 0.13295723 0.06460135
0.1304453 0.07444352 0.10744723 0.10210801 0.09053956 0.092153184 0.07054174 0.11966486
0.080793686 0.061089724 0.11324077 0.06762362 0.10172047 0.116336256 0.10479713 0.1071781
0.1122752 0.14662111 0.080549 0.10075303 0.10918665 0.084734336 0.0897458 0.10936632
0.12671655 0.100230806 0.08494461 0.058429267 0.099724166 0.0977583 0.08386266 0.016322037
0.12171968 0.027405083 0.12256723 0.027901595 0.058438282 0.03220961 0.049010213 0.007005511
0.010223971 0.025074929 0.015609451 0.03822166 0.0196735 0.00535597 0.016798459 -0.0012105982
-0.012853379 -0.020762192 -0.0377124 -0.005196681 -0.06173714 -0.049033716 -0.09186536 -0.0734567
-0.10422466 -0.052880995 -0.0069947056 -0.09246111 -0.060042884 -0.038188398 -0.07823331 -0.05599299
-0.03248986 -0.046626974 -0.049538665 -0.06916685 -0.07307708 -0.031486865 -0.04537169 -0.033631798
-0.0072222296 -0.020021232 0.0015291073 0.0033158346 0.041101933 0.023075752 -0.007128809 0.044566914
0.019236844 0.0403865 0.054887395 0.04270976 0.07621142 0.047515105 0.105521806 -0.0004817209
0.042966735 0.07057106 0.034952413 0.07101942 0.059719604 0.09140426 0.129518 0.07715162
0.09897506 0.078529224 0.1432716 0.07047241 0.09127495 0.05222492 0.096014105 0.13635522
0.13535988 0.11319376 0.115318656 0.10132781 0.0789065 0.08359819 0.049821902 0.06923848
0.08821894 0.042804886 0.03959572 0.006875349 0.035730757 -0.028884012 -0.018145008 -0.10054062
-0.11220538 -0.14592694 -0.21449362 -0.26514313 -0.29799265 -0.2966546 -0.34083068 -0.3594121
-0.40935403 -0.4069548 -0.35625228 -0.41610223 -0.40002942 -0.43587238 -0.45117423 -0.48490614
-0.52290183 -0.44978353 -0.44972208 -0.4161364 -0.51753587 -0.467404 -0.40485913 -0.44740233
-0.4684979 -0.44411337 -0.5356917 -0.45136496 -0.44322062 -0.4842165 -0.44110003 -0.36713657
-0.45233154 -0.46012062 -0.4233692 -0.45477337 -0.38085532 -0.37088016 -0.33850926 -0.37485528
-0.31079656 -0.35158223 -0.26450324 -0.2998804 -0.313468 -0.2530512 -0.22865762 -0.22018626
-0.28800023 -0.16423444 -0.20977439 -0.15090954 -0.1340093 -0.18796337 -0.11283747 -0.16774298
-0.123963274 -0.11821891 -0.12753583 -0.09112288 -0.090551294 -0.069995746 -0.05626254 -0.05219346
-0.06404167 -0.05201934 -0.09981105 -0.0706054 -0.044767547 -0.04216497 -0.09228913 -0.0596154
-0.05412015 -0.09810353 -0.09622921 -0.058170944 -0.08745703 -0.061847746 -0.04935385 -0.015335086
-0.04174693 -0.05343133 -0.04558364 -0.058559515 -0.07308229 -0.07554707 -0.050483804 -0.056842092
-0.06868315 -0.025286663 -0.03428212 -0.0114078615 0.0166579 0.078211434 0.064463295 0.07843972
0.11134795 0.14619908 0.18159024 0.22988397 0.25143635 0.33995485 0.3597216 0.42518193
0.4517909 0.48426253 0.4678055 0.47338384 0.45722014 0.45377398 0.53236336 0.45979425

linear.0.bias f4 [64]
00000000: f9ea 12be b95e e03c 4d89 c2bd a494 4d3e
00000010: ac69 91bd 6d7b 023c ae64 29be 61b5 1cbc
00000020: d1b2 f2bd 38f1 2e3e 85ea 17be bdd6 b43c
00000030: cb21 bc3d 0fad 8ebd 3def 0bbe 5542 19be
00000040: 9317 193d c390 1cbd 58ba 9dbe 78fa f7bd
00000050: d2a1 0d3e 93d6 303e 7116 e5bc 94df b9bd
00000060: 4912 76be 4117 ae3d 36e7 9dbd 5cf6 0a3c
00000070: 5674 00be 0b9b 75be 056b ec3d df4f 66bd
00000080: 6f8e 243e 856b 4abe 74c9 a03e 4377 623e
00000090: aa6b e6bd 269a 243e 5f3a 8cba c28b ae3b
000000a0: f497 acbd e4f3 c63d edda 14be 0549 8dbe
000000b0: fc37 543e c7e0 ebbd 6e9c cbbc 0ea2 053e
000000c0: c707 003e 25a3 b83d bc11 64be 04ce 56be
000000d0: be1f abbc 2b81 0fbe e17b 0c3e 039b 4b3e
000000e0: b1e2 f2bd 6288 003d 652a 5c3d e07f 9dbc
000000f0: 65e1 583b 8a53 82bd c298 bb3e 9207 a4bd
-0.14347447 0.027388917 -0.09498844 0.20076233 -0.071002334 0.007963997 -0.16542313 -0.0095647285
-0.11850513 0.17084205 -0.14835556 0.022075051 0.09186133 -0.06966602 -0.13665481 -0.1496671
0.037375998 -0.038223993 -0.30806231 -0.1210832 0.13831261 0.17269354 -0.027964802 -0.09075847
-0.24030413 0.08500529 -0.077101156 0.008481588 -0.12544379 -0.23984925 0.1154385 -0.056228515
0.16069959 -0.19767578 0.31403697 0.22115807 -0.11251004 0.16074428 -0.0010698548 0.005326719
-0.0842742 0.09714487 -0.14536639 -0.27594772 0.20724481 -0.11517482 -0.024854865 0.130501
0.12502967 0.09015492 -0.2227239 -0.20977026 -0.02088916 -0.14014117 0.13719131 0.19883351
-0.11859644 0.031380065 0.053751368 -0.019226015 0.003309333 -0.0636359 0.36639982 -0.080092564

linear.2.weight f4 [64, 64]
00000000: 22fc c1be 724b ba3e 022e 5b3e 8213 5c3e
00000010: 3831 153f dc7e 923d 4c02 4c3e 4c4d 013f
00000020: 610d 383e 4a0f 0f3f 03a5 183f 5596 bd3e
00000030: 141a fb3e 83ac bd3e fb23 a3ba 6914 f23e
00000040: b141 5a3e f1d5 823e 2dc8 29be 4f92 693e
00000050: ca60 1f3e 9501 a03e 5d2b 353f ab37 3dbd
00000060: 832e 2f3f e356 de3e 40fa 103f 5097 2a3e
00000070: 4b58 e83e 6a1e a1be c732 8f3e 11a5 753e
00000080: b04e 2a3f e402 173f d963 c8be 9570 b83e
00000090: 5ef7 ab3e d46b c1bd 8c02 4a3f 8a13 273f
000000a0: aa6a f33e 5b75 443f f2ef 7d3d 6778 013d
000000b0: 3de2 1a3f 9e8c 103f f3c2 9c3e 544e c1bb
000000c0: d474 023f f355 013f 94c2 6a3e cbc6 0c3f
000000d0: ed38 073f 92e8 3d3e 0ad1 5dbe 7a52 bd3e
000000e0: 8135 f83e f850 c23d 66cd d8bb 690e 66bd
000000f0: 959b ef3e 4db8 433e bbea 6abf 6219 df3e
00000100: a025 cd3e 97f4 f93d bb0d 71ba 729b 3fbe
00000110: 9583 8d38 75c0 a73c 9ff7 43bd 4a9e 62be
00000120: 418b 3ebd 5be6 28bf 1290 08be a85a e4bd
00000130: 0e9d 51bd 0bbd 503d ba82 7d3e 8474 513e
00000140: c0bf 62be 81ed 703e dc52 e03e 02e1 c83c
00000150: 2b63 94be 720c acbe 3300 d2bd dfe7 073d
00000160: 5539 85be 21ad 403d 391c 3dbe 3330 6cbe
00000170: 249d ebbe 6188 be3d 3bf5 53be 5e93 353d
00000180: e233 93be 32d8 7b3d e620 8abe 6d11 43be
00000190: 9a07 7dbe 175a 223d 4437 a5be 01bc 6cbd
000001a0: 110d b3bc 8075 a3be 9ccc 603e b5b3 c8be
000001b0: 3cd4 83be c5bb ffbd 1d05 9bbd 3189 383e
000001c0: bd65 be3c 33cb b4be d096 b6bd 8e9b b93d
000001d0: 8e81 c7bd 95a3 2e3e 487b 023e 0175 4abe
000001e0: 7b96 a3be 91d1 94bd 540c 76be f858 83bc
000001f0: 5245 073d 3305 90be 6f65 55bd 6838 ff3d
00000200: 1544 12bf 07e9 8a3e 8d08 f83e 446c 113f
00000210: 31fe 633f a5b6 223f 6f0a d53e d123 173f
00000220: eb88 543f cae6 263f fffa 2d3f 6b41 133f
00000230: 2836 203f c6c3 993e e449 56bd 9f9a 363f
00000240: a01f 353f b4bc 15bc be60 31bf 8d41 973e
00000250: bd6c af3e f1f1 f63e ed40 0f3f a6c0 3c3e
00000260: dfc3 3b3f 7368 133f 497f 0f3f eb64 723f
00000270: dfb2 563f 5eec e6be ae9e 19be c2c6 f13d
00000280: 1e09 e93e 99a0 c73e c39c 60bc e3fe 783f
00000290: f62a 483e 0876 51be 4eb0 293f 394b 993f
000002a0: bdde 8d3d ba48 083f 4949 d2be 15a2 0d3f
000002b0: be87 a43f ff13 023f 7ba8 d93e a392 083d
000002c0: f654 843f 63f4 913f fb10 813e 7a24 063f
000002d0: 0318 213f d7e1 d23e e859 093e b1e9 28be
000002e0: ea3d 713f 0cc2 dd3e 8cd4 c5be fab3 a13e
000002f0: 5b8e 823e abc0 5e3f a84e 91be f1b8 b53e
00000300: d29b cd3e ec42 f13e 0d69 e93e 93af 9b3e
00000310: 8526 733f 4bb5 453e 8bfa 883e a56f 773e
00000320: 2610 aabd 9a01 463e 581b 853e 86ce 2cbd
00000330: 0ab8 77bd b7c6 9dbd e8da 00be 380b dcbc
00000340: d72a a43e a2d2 24bd c221 053d f0c3 073e
00000350: 8581 273e 592a e8bd 893f 3b3e da33 573e
00000360: 9dc0 dd3d 74fd e8bd 0f83 9cbe b06d 9c3e
00000370: e80d 283d 42f3 b3be 8924 22be 865d 8fbd
00000380: 34de db3d 45bb 863e 5a96 443e f372 4c3e
00000390: a128 90bd 333d 9e3d d932 b73d bc11 483e
000003a0: e28e ca3e 943a 0bbe 7cb9 633d 69d6 fa3e
000003b0: 9573 a23e 5238 173e 0d48 febd 516d 3b3e
000003c0: f487 9b3e 0071 153e fd6a 683d 1dec d73d
000003d0: 8320 2c3d ee3e 033f 6f70 803e 4211 23bf
000003e0: 79f8 3f3d fba0 863e 2ace 37bd 4bec 8dbe
000003f0: ee05 cbbc 15cf a43d 3bf8 ee3d a3c7 873d
-0.37887675 0.36385685 0.2140427 0.21491817 0.58278227 0.07153103 0.19922751 0.5050857
0.17973854 0.55882704 0.5962679 0.37028757 0.49043334 0.37045678 -0.0012446636 0.47281197
0.21314122 0.2555385 -0.16580267 0.22809719 0.15564266 0.31251207 0.7076929 -0.046195667
0.68430346 0.43425664 0.5663185 0.16659284 0.45379862 -0.31468517 0.27968428 0.23988749
0.6652632 0.58988786 -0.39138678 0.36023393 0.33587164 -0.09444395 0.78910136 0.6526419
0.47542316 0.7674157 0.061996408 0.031608965 0.6050146 0.56464565 0.30617484 -0.00589923
0.50959516 0.50521773 0.22925788 0.54990834 0.52821237 0.1854575 -0.21661773 0.36976987
0.4847832 0.094881 -0.0066162823 -0.056166086 0.46798387 0.19113274 -0.9176442 0.43574053
0.40067768 0.12204855 -0.00091954664 -0.18711641 6.747913e-05 0.020477513 -0.04784357 -0.22130695
-0.04651952 -0.65976495 -0.13336208 -0.11150104 -0.05117517 0.050961535 0.247569 0.20454603
-0.2214346 0.235281 0.43813217 0.024521355 -0.2898191 -0.33603245 -0.10253944 0.033180114
-0.26020303 0.04704011 -0.18467797 -0.23065262 -0.46018326 0.09303356 -0.20699017 0.044329993
-0.2875052 0.061485477 -0.26978225 -0.19049616 -0.24709931 0.039636698 -0.32268727 -0.057796482
-0.021856816 -0.31925583 0.21953052 -0.39199606 -0.2574786 -0.12486986 -0.07569335 0.18021084
0.023241872 -0.3531128 -0.08915484 0.09062873 -0.097415075 0.17054589 0.1274234 -0.19771196
-0.31950745 -0.07266534 -0.2402814 -0.016033635 0.033025093 -0.28128967 -0.052098688 0.124619305
-0.57135135 0.2713091 0.48444024 0.56805825 0.8905974 0.63559943 0.41609523 0.59039026
0.8302142 0.65195906 0.67961115 0.57521695 0.62582636 0.30032176 -0.05231656 0.71329683
0.7075138 -0.009139229 -0.6928824 0.295422 0.34262648 0.48231462 0.55958444 0.18432865
0.7334575 0.5758125 0.56053597 0.9468524 0.83866686 -0.4510221 -0.15001938 0.11805488
0.45514768 0.38989714 -0.01370925 0.97263926 0.19547638 -0.20455182 0.66284645 1.1976081
0.069272496 0.5323597 -0.41071537 0.5532544 1.2853925 0.5081176 0.42511353 0.03334297
1.0338428 1.1402706 0.25208268 0.5239941 0.62927264 0.41187927 0.13413203 -0.16495396
0.942351 0.4331211 -0.38638723 0.31582624 0.25499234 0.8701274 -0.28380322 0.35492662
0.40157944 0.4712137 0.4558796 0.3040739 0.9498065 0.19307439 0.2675365 0.24163683
-0.08303861 0.19336548 0.25997424 -0.042189144 -0.060478248 -0.077039175 -0.12583506 -0.026860818
0.32063934 -0.040239938 0.032502897 0.13258338 0.16358002 -0.11336202 0.18285955 0.21015874
0.10827754 -0.11376467 -0.3056874 0.30552435 0.041028887 -0.35146528 -0.1583425 -0.0700026
0.10735741 0.2631475 0.1919798 0.19965725 -0.07038999 0.077265166 0.08945245 0.19538015
0.39562136 -0.13596565 0.055596814 0.48991707 0.31728807 0.14767578 -0.12416086 0.1830342
0.30377162 0.14593887 0.056742657 0.10543082 0.042023193 0.512679 0.2508578 -0.6369821
0.04686782 0.26294693 -0.044874348 -0.2771934 -0.024783101 0.0804731 0.1166844 0.066298746

linear.2.bias f4 [64]
00000000: a38f 21bf 1e04 a43d ba1f 53bf ada4 193e
00000010: 48d2 08bf 1667 103e c3e7 f2be 22c0 7dbf
00000020: c129 a9ba 6b9d 2bbf 81f5 163e 5d61 363d
00000030: 32b5 5cbf 795d 3e3d f45f 5f3e 37c1 1b3e
00000040: a75f 8dbe 571f 92be d047 20bf 9bf8 86bf
00000050: df17 78be 0e7f 7fbe fcbc 1ebf c08f 69bd
00000060: 50fe 35bf 0269 c8bc b0ac 32bf 42cf d9bd
00000070: 5300 d1be 9afe f8bd 0843 2abf cc35 093e
00000080: acb6 f63c 9e2d 763e efa6 443e e210 dcbe
00000090: 376e 0abf d761 fb3c 9c05 9bba f97c b2be
000000a0: c1a6 a4be 37d8 b1be 8017 aa3e 5ca6 0cbf
000000b0: a2ae dfbe dd71 b1be 5a7f be3e 972b c7be
000000c0: 64f3 0dbe 946f 1cbe d0b4 3cbc 75d5 30bf
000000d0: 1cfa f8be 1672 f43c 3869 bdbd 60e6 80bd
000000e0: 48f9 883e 979c dcbe 789f 423e 497c df3e
000000f0: b7f7 17bf 2177 5a3d 3744 dbbe 5981 e6bd
-0.631098 0.08008598 -0.82470286 0.15004225 -0.53445864 0.14101824 -0.47442445 -0.99121296
-0.001290612 -0.67037076 0.1474209 0.044526447 -0.8621398 0.04647586 0.21813947 0.15210424
-0.2761204 -0.28539535 -0.6260958 -1.0544618 -0.24227856 -0.24950811 -0.6200712 -0.057021856
-0.71091175 -0.024464134 -0.6979475 -0.106352344 -0.4082056 -0.121579364 -0.6650853 0.13399428
0.030116402 0.24040839 0.19204305 -0.4298163 -0.54074425 0.030686302 -0.0011827233 -0.34860972
-0.32158473 -0.3473527 0.33221054 -0.54941344 -0.43687922 -0.34657183 0.37206537 -0.38900444
-0.13862377 -0.15276939 -0.011517718 -0.6907571 -0.48628318 0.029839557 -0.092485845 -0.062939405
0.26752687 -0.4308822 0.19006145 0.4364951 -0.5936236 0.053336266 -0.4282548 -0.1125514

linear.4.weight f4 [64, 64]
00000000: a32c 7a3c 0958 c23e be72 b1be 8cd0 a5be
00000010: ce40 b03d 9526 a63e af6b 183e 1396 5dbe
00000020: 4303 173f 8be1 26be 62ab 1dbf 1ba6 8a3c
00000030: 5d15 0dbf 0789 5b3e 1dcc 28bf 89ad 3cbf
00000040: f72e 703d 191b 0c3e 4dfb e1be 88fd a7bd
00000050: 9c17 1cbe c3e4 5ebf bf6a 8bbe 329f ee3c
00000060: 0cfe a23c e0a2 e7be 07db 8ebc 2d04 b43c
00000070: 8242 ae3e ff46 07be 65e3 693d 9f16 38bf
00000080: 9e52 eabe df4a 46be efa8 60be df17 36be
00000090: e382 6fbd 4c49 4bbe ad88 9abf cb71 56bd
000000a0: 9cfe 403e 8f70 333f fb4f d33d 19ab afbb
000000b0: 7100 4f3c 01b6 2c3e dcfa c9be 8413 5cbf
000000c0: 20b6 a83c c74f c8bc 237d 7d3e ae43 53bf
000000d0: dafc 85bd a2ef 03bf dca6 58be f356 96be
000000e0: 0b8d 8ebe a58c e0bc 4c57 bb3e 455b 1d3f
000000f0: ca71 72be 0348 1fbf 5bc1 c2bd 0b5a 123f
00000100: 722a 1ebd 453b 27bf c307 adbd de18 0f3e
00000110: 7661 edbd db1f 243f b37e c13e 933f 65bd
00000120: 2b56 bcbe e67f fbbd 63d9 aebe c61b a6bd
00000130: 09ac 14be c02f c73e bfc4 1cbd 2207 103f
00000140: 6feb b5be 9198 70bf 7fc7 67be 5419 3ebe
00000150: cb7d a23d b1b5 0fbf ded9 97be 3fb4 313e
00000160: 2f9a 58be 357b 913e 876a e6be b27e dd3c
00000170: 3309 9c3e 7545 eebe 8aaf dd3d 07a4 313e
00000180: 85b0 da3e e491 143d 0832 08bf d804 16be
00000190: dd67 6dbe 1f87 16bd efb0 5dbd 8361 a0be
000001a0: 2885 8f3e 342f 7cbe c337 543f b799 22be
000001b0: 5588 f2be 031e 05bc f34c 28be cc37 10bf
000001c0: 9858 52be 4744 a23e 448e f93d 6dc7 07bf
000001d0: c955 3dbe bf11 9f3c c2f3 8cbe 3afe 983e
000001e0: 1b0e 6d3e 2aa4 1abd c114 343e bd61 b5bc
000001f0: c873 c2bd cdd1 853e 5f58 9fbe 905a 14bf
00000200: bd40 2f3f dd3f 32be ddda a03e e169 253e
00000210: 841c 0d3f 9afe da3e 08a6 c23d b86d 9e3d
00000220: 9873 4f3e aa6d b33e a910 9ebf 2a40 bdbd
00000230: a04e c83d fd87 4a3f a94f 263f f2ac 04be
00000240: 5d03 4b3e 8e3d 15be 7fa7 ac3d 255f c13e
00000250: 6902 643e 568c d2be 5fe8 913f bc16 443e
00000260: 5311 b83d 4ea3 943f 511f cf3e 3624 afbe
00000270: ac20 383e b8cc b3bd 5522 c5be 606d 1fbe
00000280: 6b64 fe3e 4b7c 073f dbc8 1bbf 3960 d23d
00000290: 98b2 db3e 689d 223f 08b7 533e b52b 0a3f
000002a0: a5e8 40bf ea7d 233e ab7c cd3e ca3b 2e3f
000002b0: 6e9d fa3c 1492 a23c 1467 023f 3f4e 913e
000002c0: 728a 3b3e 8791 543d e87a d13e fd20 923e
000002d0: d3ff 033f fdaa 2abf 36a1 533e 6c9a c7bd
000002e0: 7d06 cd3c cf83 8a3e 10e4 e23e a7bc babd
000002f0: f98f d63e ef2e 3039 0fe7 7bbd 0f66 d33e
00000300: d046 8e3d b753 13be 4609 d73c 9e43 6fbe
00000310: 6990 433d 8fe8 d8be 0122 af3e 1233 483e
00000320: 20fe aebe c886 df3d 3009 34bd 507e 91be
00000330: fa99 21bc fd2e 52bb 7a61 203d 772a 56be
00000340: 7865 5c3e 539e 333b beec cbbe cf79 e33d
00000350: c28f 353f 388f bcbd b306 0e3f a93a 513e
00000360: 918c 173d 1dc5 4dbd 9ff9 fdbc ca84 71bd
00000370: b716 dbbd 679c 983e 0c2a 97be b61b 46be
00000380: ef42 3d3d c868 debd 132d 50bb 8b07 e23d
00000390: 941b 803d dfdb d43e 1708 f4bc 01ee 4e3e
000003a0: d47b bebd 90a4 1f3e e651 2d3e e01d 653e
000003b0: 0e98 b43d 0d9c f03d b058 3b3f 4c2b b63e
000003c0: 1860 333e c804 65bf 71ba 443e 1780 8bbb
000003d0: a831 2c3d 70d4 46be dc16 81be 191f 89be
000003e0: e206 15bf c2ae 3a3d 1e18 0d3f 6f1c e8be
000003f0: 9809 753e 2233 c73d 6cce 423e caf5 0c3f
0.015269431 0.3795779 -0.34657854 -0.3238567 0.086061105 0.3245131 0.14884828 -0.2163928
0.5898935 -0.16296975 -0.61589634 0.016924908 -0.5511072 0.2143899 -0.6593645 -0.73702294
0.05863854 0.13682212 -0.4413704 -0.08202654 -0.15243381 -0.8706781 -0.27229878 0.029128645
0.01989653 -0.4524145 -0.017438425 0.021974647 0.34035116 -0.13210677 0.057101626 -0.7190952
-0.45766157 -0.19364499 -0.21939443 -0.17782544 -0.058474433 -0.1985218 -1.207296 -0.052354615
0.18847126 0.70093626 0.103179894 -0.0053609726 0.012634383 0.16866304 -0.39449203 -0.8596728
0.020594656 -0.024452103 0.24754767 -0.82525146 -0.06542368 -0.51537526 -0.21157402 -0.29363212
-0.27841982 -0.027410815 0.3659004 0.6146739 -0.2367622 -0.62219256 -0.09509536 0.57168645
-0.038614698 -0.65324813 -0.08448746 0.1397433 -0.11590855 0.6411111 0.37791976 -0.055968832
-0.3678449 -0.12280254 -0.34150228 -0.08110766 -0.14518751 0.38903618 -0.03827357 0.56260884
-0.35531184 -0.939828 -0.22634695 -0.1856435 0.07934149 -0.56136614 -0.29658407 0.17353915
-0.21152566 0.28414312 -0.4500315 0.027037952 0.30475768 -0.46537367 0.10824497 0.17347728
0.427128 0.036271945 -0.5320134 -0.14650285 -0.23184152 -0.036749955 -0.054123815 -0.31324396
0.28031278 -0.24627382 0.82897586 -0.1587895 -0.47369638 -0.008124831 -0.16435604 -0.5633514
-0.20541608 0.31692716 0.12185338 -0.53038675 -0.18489756 0.019417642 -0.27529722 0.2988146
0.23149912 -0.037754215 0.17586042 -0.022141332 -0.0949474 0.26136628 -0.3112211 -0.5795069
0.6845816 -0.17407174 0.3141698 0.16153671 0.55121636 0.4277237 0.09504324 0.07735771
0.2025894 0.35044605 -1.2348834 -0.09240754 0.097806215 0.7911375 0.649653 -0.12956598
0.19825502 -0.14574262 0.08430385 0.37767902 0.22266544 -0.41122693 1.1399039 0.19149297
0.08987679 1.1612337 0.4045358 -0.34207314 0.17981213 -0.087792814 -0.38502756 -0.15569067
0.49685988 0.5292403 -0.60853356 0.10272259 0.42909694 0.6352143 0.2067529 0.5397294
-0.7535499 0.15966001 0.40134177 0.6805998 0.030592646 0.019845046 0.50938535 0.2838001
0.18314531 0.0518966 0.40914083 0.28540793 0.5156223 -0.6666716 0.20666966 -0.097462505
0.025027508 0.27053687 0.44314623 -0.09118014 0.41906717 0.00016802152 -0.06149965 0.41288802
0.069471 -0.14387403 0.02624954 -0.23365638 0.047745142 -0.42364928 0.3420563 0.19550732
-0.34178257 0.10914379 -0.043954074 -0.2841668 -0.009863371 -0.0032071464 0.03915546 -0.20914637
0.21523082 0.00274076 -0.39829057 0.111072175 0.7092248 -0.09207004 0.5547897 0.20432533
0.03699929 -0.05023681 -0.031002818 -0.05896453 -0.10697692 0.29806826 -0.29524267 -0.19346508
0.04620641 -0.10859829 -0.0031765148 0.11036595 0.0625526 0.41573998 -0.029789014 0.20207979
-0.09300962 0.1559012 0.16925773 0.22374678 0.08818065 0.11748514 0.731822 0.35579908
0.17517126 -0.8946042 0.19211747 -0.004257213 0.042039543 -0.19416976 -0.25212753 -0.26781538
-0.5821363 0.04557682 0.55114925 -0.45334193 0.23929441 0.0972655 0.19024056 0.55062544

linear.4.bias f4 [64]
00000000: 28dd 033e a813 b13e 2a27 b0be 8929 c5be
00000010: 08e0 93be a2cd c7be 5c0a 0d3f e793 253e
00000020: 12be 453e be5e cd3e 6c4a 7d3e eadc a2bd
00000030: d631 9dbe e3f5 0b3f 20d2 1a3f 8c6f 9f3e
00000040: b5ab 863d fdcd d4bd d664 f43d 62db 60be
00000050: 8954 a83e da0b 84be d64b a23c ee6e efbe
00000060: 342f 0bbe ee27 143f 9370 4bbf b515 653e
00000070: bad4 d8be d143 a83e 3aa9 93be 9ed9 283f
00000080: 9f7a 16bf c488 65bf f760 013f 16fc 0a3f
00000090: 0add 713e 5eff bbbe b538 1d3f c0e0 88bf
000000a0: 6186 8e3e 219d ccbd d4f7 113f 9241 57be
000000b0: 682c 853e 13f5 963d f0f1 483f d52d aa3f
000000c0: 1475 473f 0ce1 0ebe 87cc afbe 6438 fabe
000000d0: 0f7e 243e 048e 3d3d 2f39 f8be 604e c0be
000000e0: 91ff 4b3f 50d6 3f3f 2e42 b13e d969 823f
000000f0: 5183 293f bb0f 883e 8fa3 0dbf 1529 223f
0.12877333 0.3458531 -0.3440488 -0.3850825 -0.2888186 -0.39024073 0.5509393 0.16169702
0.19310787 0.40111345 0.24735421 -0.07952292 -0.30702084 0.5467207 0.60476875 0.3113979
0.06575719 -0.10390852 0.119332954 -0.21958688 0.32876995 -0.25790292 0.019811552 -0.4676432
-0.13592225 0.5787343 -0.7946865 0.22371562 -0.42349797 0.3286424 -0.28840047 0.6595706
-0.58780855 -0.8966181 0.5053858 0.542909 0.23619476 -0.36718267 0.61414653 -1.0693588
0.27836898 -0.099909075 0.5701878 -0.21021107 0.26010442 0.07370963 0.7849417 1.3295237
0.7791302 -0.13953036 -0.3433573 -0.48871148 0.16063713 0.046278015 -0.48481128 -0.37559795
0.7968684 0.7493639 0.34620804 1.0188552 0.66216 0.265745 -0.55327696 0.63343936

fc.weight f4 [70, 64]
00000000: bef1 923e 5137 bfbf 9eac ef3e 69c5 05be
00000010: 9353 2cbf 20d7 d2bd ecdb 853f 75f3 15bf
00000020: de63 bfbf b873 b9be 5803 f4be 853f cebf
00000030: 0db7 1e3e a5d9 7bbd a9e5 a9bf 8b87 b5be
00000040: 58b6 063f d82c bbbb 02bb ab39 d4d2 6a3f
00000050: 9aef 96bf 7dfd 193e df1a 143f 9579 53be
00000060: 4b9d 4e3e f84e 7fbe 4556 843d c448 aa3c
00000070: d168 3fbe 38a8 19bf cbe3 47be bb85 b4bf
00000080: 839a e63e b563 c13e 75d9 1ebf 8bc3 87bf
00000090: cdc7 7dbe 0372 363f 6c34 4ac0 75e0 2a3e
000000a0: dd4a 6cbe a3a7 9bbd bb6c d2bd 534e a03e
000000b0: 03df b5be 75f3 66bf 8341 263f a7ec 823e
000000c0: bf9e 42bf 35f6 b03d 1391 583e 67f5 6abe
000000d0: 2e0e 19bf 955c f23e 5a1a b03d ae1b 06bf
000000e0: 75d9 27bf 0566 17c0 732a f83e f5fa e5be
000000f0: 66d8 b33e 425f 6d3e 4f2a c7be 22fc f7be
00000100: 00ae 71bd 907d f1bf 59c4 253f 2f48 5c3c
00000110: 36d2 fabe ea56 51be 9018 febd e842 023c
00000120: 99d1 a0bf 709d e8bd 0ba8 e0be 2d5c 12bf
00000130: 2411 853c 1683 4e3e d603 17bf cbbd 93be
00000140: 3ec6 bdbd 53b4 7b3e df19 043c 7093 4ebd
00000150: b7e6 99be fc35 183e 92a0 273f 8df5 95bd
00000160: 0a6c d3bd 5188 51bf d709 8bbe 54a1 4bbf
00000170: 9422 ecbe ed2a 63be 93df 8ebe 531d a6bf
00000180: ae66 0c3e fb07 b83d e9ed 6dbf c0b6 2abf
00000190: 777e bbbd 252f 063f 49cc 6ec0 ef64 81bd
000001a0: ce30 a4be b55e 0cbe 66b4 77bd 61b8 85be
000001b0: 6199 12bf cbbb 2cbf a3df 8f3e 9bef 093f
000001c0: 5842 bbbf d477 c7be b27d 323e 9ad3 94be
000001d0: cf5d 37bf e4f3 a1be ca36 75be d19c 88be
000001e0: 77f4 46bf 92cd d1bf 70d7 a43e d325 96be
000001f0: f662 6b3d bcdf 8d3c 31e4 acbe 3829 24c0
00000200: 73c4 9cbe ca43 25bf 007c 273e 8cf0 1e3d
00000210: 446c 36bd d771 8f3c 4e9b 1e3f b03c 27bd
00000220: 2290 59bf 62eb b7bd e1fb 75be 8814 15bf
00000230: 4f8b 0abe c394 d33e 2602 0ebf 2ab6 243e
00000240: 6bc9 8f3d 6a55 d53e bd50 bd3e ffb7 463e
00000250: a421 c8be 8ae0 533e 2892 bd3e 4952 1f3e
00000260: e039 e63d 74cf a7be f03f 853d 6d60 04bf
00000270: e106 b0bd 69be 5e3e de4d 8bbe ad35 b3be
00000280: 8f28 59bd be8a c4bc 018f 95bf a23d 41bf
00000290: 297e 06bd 9f83 0a3f caa6 80c0 5562 a9bd
000002a0: 78d6 ccbe d150 89be a255 18bf 7420 38bf
000002b0: f0ea 45bf ecf6 93bf 6833 afbe edcf e7be
000002c0: 608d 06c0 6699 7abe 7fe6 713e a108 32be
000002d0: 1581 8abe 8e27 8b3e 0493 c83c 73e0 eb3c
000002e0: e0f8 5fbf c4c3 8dbf 2dc0 e83e c495 f3be
000002f0: 7c13 f93e 8f9e 383e 8bcb 473e 5787 aabf
00000300: 2d82 dfbd 4298 f6be 0284 d13c 964c 0fbe
00000310: 7da4 1dbe 868f 2dbe 18c0 e03e 7609 5b3c
00000320: 698c 4bbf a379 adbc ada0 eabb 498a a2be
00000330: 188c 7dbe c131 263e 6246 753d 92c7 1b3d
00000340: ff4f bc3d 0e18 083f 3e3b 52be 84ca 953e
00000350: adca 41bf 62b7 38bf 3a07 0c3e 27ba 7b3c
00000360: dedf 533e 7475 bebe 6489 973e 83b4 063c
00000370: 6d9b db3d 20d0 2c3e 3eeb 053d 4afb 383e
00000380: d7a2 363e 3604 223c 821b 15bf d346 dcbe
00000390: c2a1 313e 0ef5 013f 915b 4ac0 5904 6c3e
000003a0: 6763 b3be 8592 b23e d0bf 5fbf 3822 923e
000003b0: 3d4c e7be 38a9 97bf 0864 70bf cc2c 96be
000003c0: 6199 fcbf d9b6 e7bd 0082 af3d 936f a03d
000003d0: 2ff8 ecbe 7813 0fbf 51e9 8d3e 0a02 533d
000003e0: 9aa0 03bf 5bd6 233d 593b 343e 5a1a 03bf
000003f0: 1329 d93e 66b4 a93d 93e0 843e e82f 16bf
0.2870006 -1.4938756 0.46811384 -0.13063587 -0.67315024 -0.10294938 1.045774 -0.5857461
-1.4952352 -0.362211 -0.476588 -1.6113135 0.15499516 -0.06148686 -1.3273212 -0.35454974
0.52621984 -0.005712133 0.00032754993 0.9172795 -1.179187 0.15038104 0.578535 -0.20651849
0.2017719 -0.24932468 0.06461767 0.02078665 -0.18692328 -0.60022306 -0.1952049 -1.4103311
0.45039758 0.37771383 -0.62050563 -1.060655 -0.24783249 0.7126772 -3.1594496 0.16687186
-0.23075433 -0.076003335 -0.10274645 0.31309757 -0.35521707 -0.90215236 0.6494371 0.25571176
-0.7602348 0.0864071 0.21149091 -0.22945176 -0.5978726 0.4733626 0.08598776 -0.52385986
-0.6556619 -2.3656018 0.48469886 -0.44918028 0.35126036 0.23180869 -0.38899466 -0.4843455
-0.05900383 -1.8866444 0.6475273 0.013444944 -0.48988503 -0.20443311 -0.12407029 0.007950522
-1.2563964 -0.11358154 -0.43878207 -0.571719 0.016243525 0.20167193 -0.5899023 -0.28855738
-0.09266327 0.24580507 0.008062809 -0.050433576 -0.30058834 0.14864343 0.65479386 -0.07322226
-0.10323341 -0.8184863 -0.27155945 -0.7954304 -0.4612013 -0.22184344 -0.2790495 -1.2977699
0.13711044 0.08985897 -0.9294115 -0.66685104 -0.09154981 0.52415687 -3.7312186 -0.0631808
-0.32068485 -0.13708003 -0.060474776 -0.26117232 -0.5726529 -0.6747405 0.2810031 0.53881234
-1.4629622 -0.3895861 0.17430761 -0.2906769 -0.71627516 -0.31631386 -0.23946682 -0.2668214
-0.77716774 -1.639086 0.32195616 -0.29325733 0.057467423 0.017318599 -0.33767846 -2.5650158
-0.3061863 -0.6455656 0.16355896 0.038803622 -0.044536844 0.017510338 0.61955726 -0.04082936
-0.84985554 -0.089804426 -0.24021865 -0.58234453 -0.13529705 0.41324434 -0.5547203 0.16085115
0.07020839 0.41666728 0.3697566 0.19406126 -0.39088166 0.20691124 0.3702557 0.15558733
0.112415075 -0.32775462 0.06506336 -0.51709634 -0.08595062 0.21752323 -0.27207845 -0.3500189
-0.053017195 -0.023991939 -1.1684266 -0.7548467 -0.03283516 0.5410709 -4.02036 -0.082707085
-0.40007377 -0.2681947 -0.59505665 -0.7192452 -0.7731161 -1.155973 -0.34218907 -0.45275822
-2.1023788 -0.2447258 0.23623084 -0.17386104 -0.27051607 0.27178615 0.024484165 0.02879355
-0.8748913 -1.1075368 0.45459118 -0.475752 0.48647678 0.18029235 0.19511239 -1.3322552
-0.10913501 -0.48163038 0.025575642 -0.13994059 -0.15394779 -0.16949281 0.43896556 0.013368955
-0.79511124 -0.021176165 -0.0071602673 -0.31746128 -0.24760473 0.16229917 0.059881575 0.038032122
0.091949455 0.53161705 -0.20530412 0.2925607 -0.75699884 -0.7215482 0.13674632 0.015364206
0.20690867 -0.37198985 0.29597008 0.008221748 0.107230045 0.16876268 0.032695048 0.18064609
0.17835556 0.009888699 -0.582451 -0.43022785 0.17346862 0.5076455 -3.1618388 0.23048533
-0.35036775 0.3487741 -0.8740206 0.28541732 -0.45175353 -1.1848516 -0.93902636 -0.29331052
-1.9734308 -0.11314172 0.085697174 0.07833781 -0.462831 -0.5588908 0.2771707 0.051515616
-0.51416934 0.039999347 0.17600764 -0.51212084 0.4241415 0.082863614 0.25952587 -0.5866685

fc.bias f4 [70]
00000000: c3fd 3cbe 993a 64bf a148 a4be 8acc a2be
00000010: 7e7a 6cbf 82a0 e3be 9db8 9e3c 5e22 13bd
00000020: 58a3 a0be c910 643d 1dbc d9be 85ad a1be
00000030: c1e7 8ebf 5c2c 01bf cdf7 3cbf f11a a0be
00000040: 4f33 843b 34b6 573f f0ba c3be c8ae 23bf
00000050: cc25 4b3f a9c1 b43d 97e6 1abf b294 a73e
00000060: 93e3 dbbe aa60 943e 8329 9dbb 9118 5ebf
00000070: 1c03 c0be 8040 0b3f dc11 0f3e c4ec eb3d
00000080: fcef 26bf 56e2 7dbe ed50 acbf 08c6 20bf
00000090: cbd0 a1be 76ea e03d d8ec 07bf 0e88 863e
000000a0: 45e6 013f 2248 343d 9ab4 95be 232e 63be
000000b0: 8acd a8bf e7b4 c83c e212 613f cb54 98bc
000000c0: fbb4 3c3f fad4 833f 271a d93d d1b4 8c3e
000000d0: 1861 953e b403 013f 99a5 4cbe bffa 18bf
000000e0: 950f 10bf 75ab 3ebf 1736 d6bd 688b 27bd
000000f0: 5d5e 95bf 482f b5be bd9c 0c3e df28 0e3e
00000100: 76b2 1f3d 5cb8 5ebf 5941 3cbf 1c55 70bf
00000110: 03c2 e8be def0 97be
-0.18456177 -0.8915191 -0.3208666 -0.31796676 -0.9237441 -0.44458395 0.01937514 -0.035921447
-0.3137462 0.05568007 -0.42526332 -0.31577697 -1.1164476 -0.5045831 -0.73815614 -0.31270555
0.004034437 0.84262395 -0.3822856 -0.6393857 0.7935455 0.08826 -0.605081 0.32730633
-0.42947063 0.2898 -0.0047962083 -0.86756235 -0.37502372 0.54395294 0.13971657 0.11519769
-0.6520994 -0.24793372 -1.3462197 -0.6280217 -0.3160461 0.1098222 -0.5309577 0.26275676
0.5074199 0.044014104 -0.2923935 -0.22185569 -1.3187726 0.024500323 0.8791944 -0.01859512
0.73713654 1.029937 0.10600691 0.27481702 0.2917564 0.50396276 -0.19985045 -0.5975761
-0.56273776 -0.7448037 -0.104595356 -0.040904433 -1.1669422 -0.35387635 0.13731666 0.13882779
0.038988553 -0.8700006 -0.7353721 -0.93879867 -0.4546052 -0.29675955
