models/sparsity_granularity/mlp_gru1.pt (torch, 62345 bytes, 9 tensors)

gamma_x_l.weight f4 [1, 256]
0	0xbdab707a	-0.083710626
1	0x3dcf9f64	0.10137823
2	0x3e3a1e62	0.18175653
3	0x3e03fe09	0.12889875
4	0xbc9b422c	-0.018952452
5	0x3d9e0083	0.07714941
6	0xbc7bbb70	-0.015364513
7	0x3cb94796	0.022617143
8	0xbb286c00	-0.0025699139
9	0x3e319a89	0.17344107
10	0x3c8dcb2c	0.017308794
11	0x3da9c034	0.08288613
12	0x3c158f82	0.009128453
13	0x3da05ccc	0.078301996
14	0x3de31e7a	0.11089797
15	0xbc0908c5	-0.008363907
16	0xbd9cafec	-0.07650742
17	0x3dc2098c	0.09474477
18	0x3c1654f8	0.009175532
19	0x3d9d9de2	0.076961294
20	0x3d29bfab	0.041442554
21	0xbbc1fb80	-0.0059198737
22	0xbd93272d	-0.071852066
23	0x3e846fd0	0.25866556
24	0x3e386183	0.18005948
25	0x3e4cfe07	0.20018779
26	0x3c60abe9	0.013712862
27	0xbd7c7a8f	-0.06164032
28	0x3d924b95	0.071433224
29	0x3e6fca9e	0.23417136
30	0x3c2afb4e	0.010435892
31	0x3ddfc333	0.10925903
32	0x3c806f09	0.015677946
33	0xbd365c18	-0.04452142
34	0x3d119e3b	0.03555129
35	0x3cbe7670	0.023249835
36	0x3d2817ca	0.041038312
37	0x3d26e634	0.040746883
38	0xbd51209b	-0.051056486
39	0x3bad5460	0.0052895993
40	0x3d6a6c47	0.057232168
41	0x3b690bc0	0.0035559982
42	0xbcf172e1	-0.029473724
43	0x3e4ee56a	0.20204702
44	0x3dacda17	0.08440035
45	0x3d395476	0.045246564
46	0x3da9700a	0.08273323
47	0x3e85b7d2	0.26116806
48	0x3e8f0792	0.27935463
49	0x3d731e1c	0.059354886
50	0xbcf1b2fa	-0.029504288
51	0x3e2c6574	0.16835576
52	0x3d09242a	0.033481754
53	0x3dc190b1	0.09451426
54	0xbd1ffd77	-0.039060082
55	0xbcffde3c	-0.0312339
56	0x3e0d0808	0.13772595
57	0x3dad6bc3	0.084678195
58	0x3d3ec72c	0.046576664
59	0x3de66543	0.11249783
60	0x3d8f33ea	0.06992324
61	0x3e379acf	0.17930149
62	0x3d35fc3c	0.044430003
63	0x3dac465c	0.084118575
64	0xbd3515b5	-0.044210155
65	0x3dc2980e	0.095016584
66	0x3d362cfc	0.044476494
67	0x3e29db78	0.16587627
68	0x3e37ed55	0.17961629
69	0x3de873b1	0.113501914
70	0x3dc35528	0.09537727
71	0x3f004a6f	0.50113577
72	0x3eb425d1	0.35185102
73	0x3de3d63b	0.111248456
74	0x3e1af338	0.15131843
75	0x3c6a4adb	0.0143000735
76	0x3cca3931	0.024685474
77	0x3daf336e	0.08554731
78	0x3e45a6ff	0.19301985
79	0xbd53fe88	-0.05175641
80	0x3de49f20	0.11163163
81	0x3ee3ad76	0.44468278
82	0xbdb246b3	-0.08704891
83	0xbcc018be	-0.023449298
84	0x3c05113d	0.008121786
85	0x3ce03db2	0.027373169
86	0x3e17c385	0.14820679
87	0xbc0495b0	-0.008092329
88	0xbd23f694	-0.040030077
89	0x3e86ed30	0.26352835
90	0x3d4db3c6	0.050220273
91	0x3ea58fcc	0.3233627
92	0x3de6cdd7	0.112697296
93	0xbd23ff74	-0.04003854
94	0x3cd59d7e	0.026076075
95	0xbdd0c4ed	-0.101938106
96	0xbc00d510	-0.007863298
97	0x3ce53994	0.027981557
98	0x390f2000	0.00013649464
99	0x3e681cf0	0.22667289
100	0xbd08310e	-0.033249907
101	0x3df28fa8	0.118438065
102	0x3e91b743	0.2846013
103	0xbb6e8320	-0.0036394075
104	0xbd5c2d3d	-0.05375408
105	0x3eb92256	0.3615901
106	0x3d1a66c0	0.037695646
107	0xbc144c70	-0.009051427
108	0x3df7a166	0.12091331
109	0x3e77383a	0.24142542
110	0x3e0e40cf	0.1389191
111	0x3d5dba87	0.054132964
112	0x3c972044	0.018448003
113	0x3daac3c3	0.0833812
114	0x3d6a0344	0.05713202
115	0x3d83679f	0.064162485
116	0x3e6c640e	0.23085043
117	0x3d96ac83	0.07357123
118	0x3e92a328	0.28640103
119	0x3e1ca4ca	0.15297237
120	0x3d44738b	0.047961753
121	0x3e082577	0.13295542
122	0xbcffa99b	-0.031208804
123	0x3d9d1c2f	0.07671391
124	0x3df1e10b	0.11810502
125	0x3ecf0d15	0.40439668
126	0x3eaca9a6	0.3372318
127	0x3bf987b4	0.007615054
128	0x3e3dbf29	0.18529953
129	0x3e45966c	0.19295663
130	0x3dd0925a	0.10184164
131	0x3d553d7a	0.05206058
132	0x3dcb7a2d	0.099354126
133	0x3d14fcfe	0.036374085
134	0x3e43105e	0.19049212
135	0x3e98007d	0.29687873
136	0x3d25ac15	0.040447313
137	0x3d2e591b	0.042565446
138	0x3d83bab0	0.06432092
139	0xbdaecb44	-0.085348636
140	0x3d6b3774	0.05742593
141	0x3cf21d08	0.029554859
142	0x3f1aa29c	0.6040437
143	0x3d993ff9	0.07482905
144	0x3e740257	0.23829018
145	0x3d461422	0.048359044
146	0x3d84275f	0.06452822
147	0xbd40fce7	-0.047116186
148	0xbd20f0f8	-0.039292306
149	0x3daa6793	0.083205365
150	0x3f06ad59	0.5260826
151	0x3e3c6fea	0.18402067
152	0x3e95ac9b	0.2923325
153	0x3dd37f82	0.103270546
154	0x3e01f17a	0.12689772
155	0x3e650172	0.22363833
156	0x3dfe1b6e	0.124075755
157	0x3d94646c	0.072457165
158	0x3cd8c3ad	0.026460493
159	0xbd411ce4	-0.047146693
160	0x3db807f5	0.08985893
161	0x3e757b0e	0.23972723
162	0x3e6e06b5	0.23244746
163	0x3d486b1f	0.048930284
164	0x3edcb3c7	0.4310591
165	0x3c79bfb0	0.015243456
166	0xbcf820a7	-0.030289007
167	0x3bf570d2	0.007490256
168	0x3e8f2c3e	0.27963442
169	0x3eb0d608	0.34538293
170	0xbd06f260	-0.03294599
171	0x3d940c46	0.072289035
172	0x3d081ed5	0.03323253
173	0xbdf308d2	-0.11866917
174	0x3b4e88c0	0.0031514615
175	0xbbeb68e0	-0.007184133
176	0xbd291c48	-0.041286737
177	0xbd5d0c9c	-0.053967103
178	0xbd77e2dc	-0.060519084
179	0xbdd21fea	-0.102599934
180	0xbd35a251	-0.04434425
181	0xbd8fd323	-0.07022693
182	0x3d92b210	0.07162869
183	0x3d1f5c28	0.038906246
184	0x3d81bc16	0.06334703
185	0x3d1d94cc	0.038471982
186	0xbc365e64	-0.011130903
187	0x3e1bba12	0.15207699
188	0x3e31f61d	0.17379041
189	0x3e22cfa3	0.1589952
190	0xbca12c80	-0.01967454
191	0x3e2b97b6	0.16757092
192	0x3afe41ef	0.0019398312
193	0xbdeb98a4	-0.11503723
194	0x3e22f41c	0.15913433
195	0x3cfd6467	0.030931665
196	0x3bbbe088	0.0057335533
197	0x3c080f50	0.008304432
198	0x3e943802	0.2894898
199	0xbbf4b410	-0.007467754
200	0x3e81fae0	0.25386715
201	0x3d6f112b	0.058365982
202	0x3d060433	0.03271885
203	0x3d9da62e	0.07697712
204	0x3e02820f	0.12744926
205	0xbcbd1860	-0.023082912
206	0x3dc553ef	0.0963515
207	0x3de5b8c6	0.11216883
208	0x3ce1bd61	0.027556123
209	0x3e33dcac	0.17564648
210	0x3d3fdb99	0.046840284
211	0xbcd48528	-0.0259424
212	0xbd4c74e4	-0.049916163
213	0xbc875534	-0.01652012
214	0x3cc816b8	0.024424896
215	0x3eb37b5e	0.3505506
216	0x3d38328b	0.044970077
217	0xbd1ae913	-0.037819933
218	0x3e7fc77f	0.24978445
219	0x3e3b8f05	0.18316276
220	0x3db597f2	0.08866872
221	0xbd4f68c0	-0.050637007
222	0x3d614ff6	0.055007897
223	0x3db7c898	0.08973807
224	0x3c6628d8	0.014047824
225	0xbcf2ac64	-0.029623218
226	0x3e52e239	0.2059411
227	0xbb3fd436	-0.0029270775
228	0xbc284f2f	-0.010272785
229	0x3b4d0ca0	0.0031288043
230	0x3d1d195f	0.038354274
231	0x3e348b20	0.17631197
232	0x3b538660	0.0032276139
233	0x3d81493d	0.06312797
234	0x3b7e85a0	0.003883697
235	0x3e89717d	0.26844397
236	0x3e61a0d6	0.2203401
237	0xbca0fe0e	-0.019652393
238	0x3b7e7b60	0.0038830861
239	0xbd84266a	-0.064526394
240	0xbd256d7a	-0.040387608
241	0xbd777616	-0.06041535
242	0xbd0b5029	-0.034011994
243	0x3ece0c8c	0.40243948
244	0x3e813565	0.2523605
245	0x3e44bdcf	0.19213031
246	0x3cc1e261	0.023667516
247	0x3edefc14	0.43551695
248	0x3db75f21	0.08953691
249	0xbc908eb3	-0.01764617
250	0xbdd1c213	-0.10242095
251	0xbdc2cfbf	-0.09512281
252	0xba8fa240	-0.0010958388
253	0xbd45b021	-0.048263673
254	0x3d9cc992	0.07655634
255	0x3dbdb567	0.092631154

gru_cell.weight_ih f4 [192, 2]
0	0x3e26d479	0.1629199
1	0x3d371ea4	0.044706956
2	0x3f369ed0	0.7133608
3	0x3f0f9578	0.56087446
4	0xbf93fc1a	-1.156131
5	0xbe8ace76	-0.27110642
6	0x3f729e82	0.94773114
7	0xbeb99546	-0.362467
8	0x3daff13e	0.08590935
9	0xbb995516	-0.0046793325
10	0x3f88307e	1.0639799
11	0x3efbf254	0.4920832
12	0xbdded0a1	-0.108796366
13	0x3e02249b	0.12709276
14	0xbfe14d76	-1.7601764
15	0xbfbf5c33	-1.4950012
16	0xbf8cc11d	-1.0996433
17	0xbf553186	-0.8327869
18	0xbe93507a	-0.28772336
19	0xbfc12b5e	-1.509136
20	0x3e7ed06f	0.24884199
21	0x3e5e7b86	0.21726808
22	0x3fc0c66c	1.5060554
23	0x3f07f5d1	0.5310946
24	0xbfdad06e	-1.7094858
25	0xbf0381e3	-0.51370066
26	0xbf53aa02	-0.82681286
27	0xbeefd780	-0.468441
28	0x3ee89657	0.454272
29	0xbeb9d73d	-0.36297026
30	0xbf49d0e9	-0.78834397
31	0x3ee6e5ac	0.450971
32	0xbf7e0075	-0.9921945
33	0xbd5ce5d3	-0.053930115
34	0xbe6243e1	-0.22096206
35	0xbe8e0ff4	-0.27746546
36	0xbec21e7a	-0.37913877
37	0xbedee75d	-0.4353589
38	0xbd077444	-0.033069864
39	0xbe4b56f3	-0.19857387
40	0xbf43c5cc	-0.7647369
41	0x3e6be990	0.23038316
42	0xbeb841b3	-0.35987625
43	0xbf0aa30f	-0.5415506
44	0xbf21fd2a	-0.6327692
45	0xbe1552a9	-0.14582314
46	0xbfccf558	-1.6012373
47	0xbe3f3da2	-0.18675855
48	0xbf2470b0	-0.6423445
49	0xbe91c9b4	-0.284742
50	0xbf7c3b7c	-0.98528266
51	0xbff2cef1	-1.8969404
52	0xbeb2aa6f	-0.34895656
53	0x3e239ab3	0.15976982
54	0x3ec4b40a	0.3841861
55	0xbf21e17e	-0.632347
56	0xbf1e6063	-0.61865824
57	0xbf257a50	-0.6463976
58	0x3f94f81c	1.1638217
59	0x3f2f9f6b	0.6860263
60	0xbf2f76ec	-0.68540835
61	0x3e831230	0.25599813
62	0xbf3faca7	-0.7487282
63	0xbf907a1f	-1.1287268
64	0xbeb844b3	-0.35989913
65	0xbcf3f8e9	-0.029781776
66	0xbf1a8007	-0.60351604
67	0xc07f4882	-3.9888005
68	0xbf52d164	-0.82350755
69	0xbf01e7fa	-0.50744593
70	0xbfd038d6	-1.6267345
71	0xbf034357	-0.5127463
72	0xbf6dc9bd	-0.92885953
73	0x4004a679	2.0726607
74	0xbf3af2ff	-0.7302703
75	0xbd843ae4	-0.06456545
76	0xbf1e701b	-0.6188981
77	0xbe0efbd8	-0.13963258
78	0xbf809a14	-1.0047021
79	0xbf309a4b	-0.6898543
80	0xbf90da56	-1.1316631
81	0xbed3ddf7	-0.41380283
82	0xbd07ffee	-0.033203058
83	0x3e9806e5	0.2969276
84	0xbfbb1466	-1.46156
85	0xbf44316f	-0.7663793
86	0xbe04d55e	-0.12972018
87	0xbf1b0d29	-0.60566956
88	0xbfaa9b22	-1.3328593
89	0xbe3eafcc	-0.18621749
90	0xbf4ee053	-0.8081104
91	0xbfc35007	-1.5258797
92	0xbf545bc8	-0.8295255
93	0xbeeb7bee	-0.45992988
94	0xbf938910	-1.1526203
95	0xbea32107	-0.31861135
96	0xbfb5c896	-1.4201839
97	0xbf32d66f	-0.6985845
98	0xbf72654f	-0.94685835
99	0xbf857c53	-1.0428566
100	0xbfcbca1b	-1.5921053
101	0xbf280bc8	-0.65642977
102	0xbf449c48	-0.76800966
103	0xbfc8581d	-1.565189
104	0xbe79740a	-0.24360672
105	0xbf0ee641	-0.5582009
106	0xbfaa4de1	-1.3305017
107	0xbf121751	-0.5706683
108	0xbe83ba29	-0.25727966
109	0xbed8e1e2	-0.42359835
110	0xbf309623	-0.6897909
111	0xbe71b857	-0.23605476
112	0x3f0e1d9b	0.55513924
113	0x3f855a77	1.0418233
114	0x3eb881d6	0.36036557
115	0x3efc3194	0.49256575
116	0xbde5560f	-0.11198055
117	0xbbd9b109	-0.0066434187
118	0xbe40705c	-0.18792862
119	0x3f95ccd5	1.1703135
120	0x3e2a07e3	0.16604571
121	0xbc75a743	-0.014993492
122	0xbea42566	-0.32059783
123	0xbf38c6e3	-0.7217848
124	0xbf14e3fc	-0.58160377
125	0xbe768561	-0.24074318
126	0xbf462e30	-0.77414227
127	0xbf10199c	-0.56289077
128	0x3fb749a6	1.4319351
129	0x3e2040a2	0.15649655
130	0xbcc0ed64	-0.023550697
131	0x3e37bcc7	0.17943107
132	0x3eb029ef	0.34406993
133	0x3e67c195	0.2263244
134	0x3e09870e	0.13430426
135	0xbeabb601	-0.33537295
136	0x3dc1d87c	0.09465119
137	0xbd9f3ede	-0.07775663
138	0x3e98e676	0.29863328
139	0xbde26399	-0.11054153
140	0x3e5221be	0.20520684
141	0xbdbf51ae	-0.09341751
142	0x3f8e740f	1.1129168
143	0x3ea63cc0	0.32468224
144	0x3ed8a8d2	0.423163
145	0xbecfc711	-0.40581563
146	0xbf065160	-0.5246792
147	0xbff0074e	-1.8752229
148	0xbef19355	-0.47182718
149	0xbe001d4a	-0.12511173
150	0x3e26aa81	0.1627598
151	0xbd5d5c4f	-0.05404311
152	0xbeeb88c3	-0.46002778
153	0xbf268533	-0.65046996
154	0x3f86caf6	1.0530689
155	0xbe58349d	-0.2111382
156	0xbe2c9675	-0.1685427
157	0x3dc770fd	0.09738348
158	0x3f3439b8	0.7040057
159	0xbfc11117	-1.508334
160	0x3fd4c311	1.662203
161	0x3f65b4b9	0.89728886
162	0x3e6d3773	0.23165683
163	0x3d8aadfe	0.067714676
164	0x3ec9978a	0.39373428
165	0xbca1de0b	-0.019759199
166	0x3d92d93b	0.0717034
167	0xbe8aacd6	-0.27084988
168	0x3ed09a8e	0.40742916
169	0x3f08d50b	0.5345008
170	0x3edb0202	0.4277497
171	0xbd1a8443	-0.03772379
172	0x3e925c7f	0.28586194
173	0x3ee32781	0.44366077
174	0x3e53a5e1	0.20668747
175	0x3ec10e86	0.37706393
176	0x3efbdbf8	0.4919126
177	0x3ef87def	0.4853358
178	0x3fc7a209	1.5596324
179	0x3fdfdf95	1.7490107
180	0xbde105b7	-0.10987418
181	0xbe294688	-0.16530812
182	0x3e83a412	0.25711113
183	0xbe5ada55	-0.2137235
184	0x3e5ea3ac	0.21742123
185	0x3e61f594	0.22066337
186	0x3e629ccb	0.22130124
187	0x3e052f88	0.13006413
188	0x3e4ac61c	0.19802135
189	0x3df59c49	0.119927
190	0x3f9eb57a	1.2399132
191	0x3d52b500	0.051442146
192	0x3ddf7836	0.109116
193	0xbcae6b28	-0.02129133
194	0x4017948f	2.3684423
195	0xc0432bf1	-3.049557
196	0xbc506fc6	-0.012721961
197	0xbd1739bd	-0.036920298
198	0x3f4eb457	0.80743927
199	0xbec55d13	-0.38547572
200	0x3f720c3a	0.94549906
201	0xbe969b8a	-0.29415542
202	0x3e8dcb32	0.27694088
203	0xbe0bbd5c	-0.13646454
204	0x3e963da3	0.293439
205	0x3e614c3a	0.22001734
206	0x3e9cb6b8	0.30608153
207	0x3ea45a15	0.32099977
208	0x3e3e65ce	0.18593523
209	0xbe27e21d	-0.16394849
210	0x3f400b73	0.7501747
211	0xbfae9a6c	-1.3640876
212	0x3ec36ad0	0.3816743
213	0x3efdf49e	0.4960069
214	0x3e15e27d	0.1463718
215	0xbe912cfb	-0.2835463
216	0x3f2ed667	0.682959
217	0x3e099151	0.1343434
218	0x3f75a890	0.9596033
219	0x3d30126a	0.04298631
220	0x3c48db78	0.012259357
221	0x3f160134	0.58595586
222	0x3c842435	0.016130546
223	0x3e8d4fee	0.27600044
224	0x3dae8062	0.08520581
225	0xbe517c72	-0.20457628
226	0x3f28f2e9	0.6599565
227	0x3e7aa5a7	0.24477254
228	0xbe00c216	-0.12574038
229	0xbdc8e418	-0.098091304
230	0x3ebeda11	0.37275746
231	0x3f411a62	0.7543088
232	0x3ed97799	0.42474058
233	0x3f252e2d	0.64523584
234	0xbf0c01a8	-0.5469003
235	0x3eed5d69	0.4636033
236	0x3edd8b98	0.43270564
237	0x3ee4e295	0.44704118
238	0x3edf469d	0.4360856
239	0x3c90f5a4	0.017695256
240	0x3da966bc	0.08271548
241	0x3e6c73b9	0.2309102
242	0x3e1a0a55	0.15043004
243	0xbce19488	-0.027536646
244	0x3f1efe2b	0.6210658
245	0x3eb72346	0.357691
246	0x3f21096f	0.6290502
247	0x3f498c7c	0.7872999
248	0xbe9bd9c1	-0.3043957
249	0xbdd39703	-0.103315376
250	0x3e953182	0.29139334
251	0xbe9cb5e1	-0.30607513
252	0xbd613812	-0.054985113
253	0x3f1fbd0f	0.62397856
254	0x3e819787	0.2531092
255	0xbda50144	-0.08056882

gru_cell.weight_hh f4 [192, 64]
0	0x3ffa5ed9	1.9560195
1	0x3fb8414a	1.4394925
2	0x3e2bc6f0	0.16775107
3	0x3f2c0430	0.6719389
4	0x3faa9af4	1.3328538
5	0xbfe9a8a9	-1.8254596
6	0x3e6ef3f9	0.23335256
7	0xbf7c0235	-0.9844087
8	0xbf7a3f79	-0.977531
9	0xbf05e566	-0.5230316
10	0x3d9877b7	0.07444709
11	0x3f0b4a4f	0.5441026
12	0x3f5c91ae	0.8615979
13	0x3f969529	1.176427
14	0xbec9bbd0	-0.39401102
15	0x3f88b6fc	1.0680842
16	0x3ea6dfa5	0.32592502
17	0x3eb4cc6e	0.35312217
18	0xbfd7691f	-1.6828955
19	0xbeb46432	-0.35232693
20	0x3c4ce8d6	0.012506684
21	0x3fe77ca4	1.8084912
22	0xbe39ee47	-0.18157302
23	0xbebe7685	-0.37199798
24	0x3f161de9	0.5863939
25	0x3e4e36fc	0.20138162
26	0xbe802c79	-0.2503393
27	0x3f084d7e	0.53243244
28	0x3eff9de6	0.49925154
29	0xbe941f31	-0.28930047
30	0xbee0fd7a	-0.43943387
31	0x3e840c2a	0.2579053
32	0xbe27f6f6	-0.16402802
33	0x3ea4e976	0.32209367
34	0x3bf24d7c	0.0073944908
35	0x3f99ce16	1.2016017
36	0xbf42252b	-0.75837964
37	0x3fa15c7b	1.2606348
38	0x3eb5032f	0.3535399
39	0xbf9e3d05	-1.2362372
40	0x3c994a09	0.01871206
41	0x3edfaf05	0.43688217
42	0x3ea259d2	0.31709152
43	0x3d6b93d7	0.057514038
44	0xbe6aeee6	-0.22942695
45	0xbd595767	-0.05306187
46	0xbe82d827	-0.25555536
47	0xbd7a0baf	-0.0610463
48	0xbefa45e4	-0.48881447
49	0xbef642ea	-0.48097926
50	0x3d739ceb	0.05947582
51	0xbf4b46b7	-0.7940478
52	0x3ff6bac6	1.9275749
53	0xbebb604a	-0.365969
54	0x3f841b02	1.0320742
55	0xbedc3d7f	-0.43015668
56	0x3e647feb	0.22314422
57	0x3f1ba471	0.6079779
58	0x3f12e7a9	0.57384735
59	0xbf6d71e7	-0.92751926
60	0xbfa50481	-1.2892
61	0x3f80233b	1.0010751
62	0xbe4920f2	-0.19641474
63	0x3fa7df50	1.3115025
64	0xbddb1ca1	-0.1069882
65	0x3d2f7695	0.042837698
66	0x3f593513	0.8484661
67	0xbe5155e9	-0.20442928
68	0x3f786a9b	0.9703767
69	0x3f30201a	0.68798983
70	0xbdf269c6	-0.11836581
71	0x3e8be31c	0.27321708
72	0x3f65917b	0.8967511
73	0xbf6d97f1	-0.9280997
74	0xbed03e8f	-0.40672728
75	0x3f85c123	1.0449566
76	0x3e3b59d7	0.1829599
77	0x3df09207	0.117466025
78	0xbf36c7db	-0.71398705
79	0xbe3228d8	-0.17398393
80	0xbe63a6f9	-0.22231664
81	0xbccfd7d8	-0.025371477
82	0xbe864ebc	-0.26231945
83	0x3df4662a	0.11933549
84	0xbe18fa79	-0.14939298
85	0x3ea42bb3	0.3206459
86	0x3f395c16	0.72406137
87	0x3e890237	0.26759502
88	0x3f0c1e66	0.54733884
89	0xbf92298b	-1.1418928
90	0xbead9638	-0.3390367
91	0xbf40128b	-0.75028294
92	0x3f920b41	1.1409684
93	0xbea0c6e0	-0.3140173
94	0x3e0c2edf	0.13689755
95	0xbe6e9acb	-0.23301236
96	0xbd12c4d4	-0.03583224
97	0xbf76e9ea	-0.96450675
98	0xbf84c188	-1.0371561
99	0xbeea1e94	-0.45726454
100	0x3dc24b00	0.09486961
101	0x3f8ae9d6	1.0852611
102	0x3fc392d3	1.5279182
103	0xbf1370d4	-0.5759404
104	0xbebbe9f8	-0.36701941
105	0x3f0f825b	0.5605828
106	0xbfa8d2f0	-1.3189373
107	0x3e12f2dc	0.14350456
108	0x3e7e24bf	0.24818705
109	0xbfae7cd7	-1.3631848
110	0x3eb23ea2	0.3481341
111	0xbd96e92a	-0.07368691
112	0xbd79e8a5	-0.061012883
113	0x3ea570a8	0.32312512
114	0xbf3331fb	-0.6999814
115	0x3f927e51	1.1444799
116	0x3f9448d3	1.1584724
117	0x3f0672c6	0.5251888
118	0x3f0fc24f	0.56155866
119	0x3f1ae0d9	0.6049934
120	0xbd9a99e0	-0.075488806
121	0x3fc7f58c	1.562181
122	0x3faa26b5	1.3293062
123	0xbe1c7383	-0.15278439
124	0xbe6f0232	-0.23340681
125	0x3ef0b356	0.47011822
126	0x3ed30e78	0.41221976
127	0x3f641b92	0.8910457
128	0xbf8e0abb	-1.1097025
129	0x3f4025d7	0.7505774
130	0x3ed2b7d8	0.41155887
131	0x3f61ad05	0.8815463
132	0x3f6d7772	0.92760384
133	0xbe86f381	-0.26357654
134	0xbe7b61c8	-0.2454902
135	0xbf35d76e	-0.71031845
136	0xbf408342	-0.75200284
137	0x3ea5b86a	0.3236726
138	0xbe5b7861	-0.2143264
139	0x3f2f6d1b	0.68525857
140	0xbd90689a	-0.07051201
141	0x3f85b523	1.0445904
142	0x3fb0371b	1.3766817
143	0x3f3c8b77	0.73650306
144	0x3f90fa01	1.1326295
145	0xbee96885	-0.45587555
146	0xbee54cbf	-0.44785115
147	0x3f1660ce	0.5874146
148	0xbeb83d0e	-0.3598408
149	0x3e8ad8a5	0.27118412
150	0x3e62db31	0.22153927
151	0xbffcaad2	-1.973963
152	0xbef8633d	-0.48513213
153	0x3f2b8f2d	0.67015344
154	0xbe591097	-0.21197735
155	0xbf9f0cfc	-1.2425838
156	0x3ec15e0c	0.37767065
157	0x3eabf95c	0.33588684
158	0x3e496cd5	0.19670422
159	0x3f05c343	0.5225107
160	0xbe93d018	-0.288697
161	0x3ed355df	0.41276452
162	0x403cb624	2.948617
163	0x40059861	2.0874255
164	0xbecea390	-0.40359163
165	0xbfc88af0	-1.56674
166	0x3f4f906b	0.8107974
167	0xbf35676b	-0.7086093
168	0xbe0c2aa7	-0.13688146
169	0x3fd37777	1.6520833
170	0x3fcb1df1	1.5868512
171	0xbe63bb6a	-0.22239462
172	0xbcb65530	-0.022257417
173	0x3e685a59	0.22690715
174	0xbf7e11b2	-0.9924575
175	0xbeac3b56	-0.3363902
176	0xbe679201	-0.2261429
177	0x3e52afd8	0.20574892
178	0x3facb41b	1.3492464
179	0xbe624a42	-0.2209864
180	0x3fe1a1ca	1.7627499
181	0xbf295d78	-0.66158247
182	0x3e35edff	0.1776657
183	0x3e0307ef	0.12795995
184	0xbedab3c8	-0.42715287
185	0xbf4727ba	-0.7779499
186	0x3f8fcce0	1.1234398
187	0x3d49edd6	0.049299084
188	0xbd42bf6f	-0.047545847
189	0xbf1a82f9	-0.603561
190	0xbed89c3a	-0.4230669
191	0x3fd1405a	1.6347764
192	0x3f06e0d2	0.526868
193	0x3e835985	0.25654235
194	0xbe2e66f4	-0.17031461
195	0xbf2b9c31	-0.67035204
196	0xbeb0d811	-0.34539846
197	0x3eb002e6	0.3437721
198	0x3e12b39d	0.1432633
199	0x3e1fa315	0.15589555
200	0x3f3b3302	0.73124707
201	0xbf4f979f	-0.8109073
202	0x3ed1835d	0.40920535
203	0x3f8baf84	1.0912938
204	0xbf224cae	-0.63398254
205	0xbf8682be	-1.0508649
206	0xbfba97a2	-1.4577525
207	0xbf3671d3	-0.7126743
208	0x3e43373d	0.1906404
209	0x3d84299b	0.06453248
210	0xbd9fda43	-0.07805302
211	0xbf4a3ded	-0.7900074
212	0xbe7e9915	-0.24863084
213	0xbb8290d3	-0.0039845495
214	0x3ecaeb09	0.39632443
215	0x3fd2da49	1.6472865
216	0xbe266086	-0.16247758
217	0xbedf089a	-0.4356125
218	0x3ed58f5d	0.4171094
219	0x3ef1dd03	0.4723893
220	0x3f21429a	0.6299225
221	0xbf0ccfd5	-0.55004627
222	0x3e364d34	0.17802888
223	0x3f71db3b	0.94475144
224	0xbbbe8389	-0.00581402
225	0x3dfcf5de	0.12351583
226	0xc01ada3f	-2.4195707
227	0xc01a8133	-2.4141357
228	0x3ee7e114	0.45288908
229	0x3fd64926	1.6741073
230	0x3f1f3d6c	0.622031
231	0x3f105d70	0.56392574
232	0xbea71b71	-0.32638124
233	0x3ed9ae17	0.42515633
234	0xc00d397a	-2.206633
235	0x3f7f012b	0.9961116
236	0x3f87e3d5	1.0616404
237	0xbed54742	-0.41655928
238	0x3f86e680	1.0539093
239	0xbcdf805a	-0.027282882
240	0x3fce4244	1.6113973
241	0x3d9f4798	0.07777327
242	0xbf99930a	-1.1997998
243	0x3ec5b2a7	0.38612863
244	0x3c79cba6	0.0152463075
245	0xbf52f8e3	-0.8241102
246	0x3fa9661a	1.3234284
247	0xbe9e5602	-0.30924994
248	0x3c44bb7f	0.012007593
249	0x3ff5aec4	1.9193959
250	0x3e73b9ca	0.23801342
251	0xbf0a6888	-0.5406575
252	0xbf6abad8	-0.9169135
253	0xbf225cbf	-0.6342277
254	0xbf72d1bd	-0.94851285
255	0x3d82636b	0.06366619

gru_cell.bias_ih f4 [192]
0	0x3ed9db12	0.4254995
1	0xbd653c28	-0.055965573
2	0xbec31593	-0.38102397
3	0xbcf2bf84	-0.029632337
4	0x3e9cdc4a	0.30636817
5	0x3c74d37a	0.014942998
6	0x3e23f41e	0.16011092
7	0xbf013978	-0.50478315
8	0xbd0bc12f	-0.03411978
9	0x3e8eff94	0.27929366
10	0xbd572baf	-0.052531894
11	0x3e3e03a7	0.18556081
12	0xbded637a	-0.11591239
13	0x3e7b9bd3	0.24571161
14	0xbe21a4a0	-0.15785456
15	0xbf196b56	-0.59929407
16	0xbe42017e	-0.18945882
17	0x3df169c0	0.11787748
18	0xbe114f5f	-0.14190434
19	0xbe9076dd	-0.28215685
20	0xbdfa9eb8	-0.122373044
21	0xbe276b32	-0.16349486
22	0xbe013ebb	-0.12621586
23	0xbed64265	-0.4184753
24	0xbf4a3aad	-0.7899578
25	0xbf9cd8ed	-1.22537
26	0xbe4796d2	-0.19491127
27	0xbe899600	-0.26872253
28	0xbd7dc619	-0.0619565
29	0xbe10ed9e	-0.14153144
30	0x3d65a74e	0.056067757
31	0xbfbcc7d6	-1.4748485
32	0x3ddf8a84	0.10915092
33	0xbeb1b1bb	-0.3470591
34	0xbf0a7bfc	-0.54095435
35	0xbe9e5969	-0.3092759
36	0xbfd1c9b2	-1.6389678
37	0xbe83af76	-0.25719804
38	0xbe424484	-0.18971449
39	0xbf13aafd	-0.5768278
40	0xbf04038f	-0.5156793
41	0x3bf032ad	0.00733026
42	0xbf20bdf6	-0.6278986
43	0xbf029d4a	-0.51021254
44	0xbe2641f9	-0.16236104
45	0xbe93a5eb	-0.28837523
46	0xbf57caf0	-0.84294033
47	0x3d249630	0.040182292
48	0xbe32d5d0	-0.17464375
49	0xbf8253eb	-1.018186
50	0xbecd108e	-0.40051693
51	0xbefd8134	-0.49512637
52	0xbe9bad0b	-0.3040546
53	0xbefdd2c6	-0.4957487
54	0xbf41cacb	-0.7570006
55	0x3cb95218	0.022622153
56	0x3f3b03de	0.73052776
57	0xbe9bf463	-0.3045989
58	0xbf5332b7	-0.8249926
59	0xbebccfd9	-0.36877325
60	0x3dfc1ac2	0.12309791
61	0xbe7e4766	-0.24831924
62	0xbe1b685a	-0.15176526
63	0xbe9aa7ea	-0.30206233
64	0x3f65dfb9	0.897945
65	0x3ecd4db1	0.40098336
66	0x3f016207	0.505402
67	0x3edcd5ce	0.4313187
68	0x3f01378f	0.504754
69	0x3f0136e4	0.5047438
70	0x3ec2558a	0.37955886
71	0x3f00374d	0.5008438
72	0x3f65fc10	0.8983774
73	0x3d904ad0	0.07045519
74	0xbcff267e	-0.031146284
75	0x3f130933	0.5743591
76	0xbe75f8e0	-0.2402072
77	0x3f007306	0.5017551
78	0x3ea5409a	0.3227585
79	0x3f1644ea	0.58698905
80	0x3f01197a	0.504295
81	0x3f07123f	0.52762216
82	0x3f125168	0.57155466
83	0x3e772b36	0.24137577
84	0x3e7a964e	0.24471399
85	0x3f2dfbd7	0.679624
86	0x3ef62f37	0.48082897
87	0x3ea42cb3	0.32065353
88	0x3f9b3c30	1.2127743
89	0x3f95f28b	1.1714643
90	0x3f1cc737	0.6124148
91	0x3ec78471	0.38968232
92	0x3eb0b2ad	0.3451132
93	0x3f453f8d	0.77050096
94	0x3eda3c34	0.42624056
95	0x4044ef6f	3.0771139
96	0x3ec48d5e	0.38389105
97	0x3f364b10	0.71208286
98	0x3f0ff949	0.56239754
99	0x3f24f8e4	0.64442277
100	0x406a0135	3.6563237
101	0x3f053418	0.52032614
102	0x3f5ac3b6	0.8545488
103	0x3f482aa3	0.7819006
104	0x3f4c17ee	0.79724014
105	0x3f72977d	0.947624
106	0x3f30d2af	0.6907148
107	0x3ea711fa	0.32630903
108	0x3f1a510e	0.6027993
109	0x3efa8ea6	0.48936957
110	0x3df97ba0	0.12181783
111	0x3e50b34e	0.203809
112	0x3f36b2e9	0.71366745
113	0x3fbca6ea	1.4738438
114	0x3edf6b4e	0.43636554
115	0x3c8aa23d	0.016923064
116	0x3f8ec755	1.1154581
117	0x3dfc1b21	0.12309862
118	0x3d6e4e49	0.058180127
119	0x3f2b739a	0.6697327
120	0x3ea897de	0.32928365
121	0x3ed9ca0f	0.4253697
122	0x3ef8847d	0.4853858
123	0x3f678ed6	0.90452325
124	0x3ec4f8b3	0.38470992
125	0x3cfd1a3c	0.030896299
126	0x3dbd5732	0.09245147
127	0xbdbe62ff	-0.09296226
128	0xbcbcb1f5	-0.023034075
129	0xbf19fc72	-0.60150826
130	0xbe96d16a	-0.29456645
131	0x3caf3db6	0.02139173
132	0xbedc8c2f	-0.43075702
133	0x3f253991	0.64540964
134	0x3d815154	0.0631434
135	0x3e456e1e	0.19280288
136	0xbecc982c	-0.39959848
137	0x3e353b54	0.17698413
138	0xbd25f411	-0.040515963
139	0xbdfe2688	-0.12409693
140	0x3eb2768d	0.34856072
141	0x3da8f3ff	0.082496636
142	0x3ec644e2	0.38724428
143	0x3da38984	0.079852134
144	0x3df36616	0.11884706
145	0x3ece82b3	0.4033409
146	0xbed307d1	-0.412169
147	0x3bec5b2d	0.0072130174
148	0x3eb2f8a1	0.34955314
149	0x3e65d0d2	0.2244294
150	0x3e0b7a37	0.1362084
151	0xbe36848d	-0.17824002
152	0xbe5aec13	-0.21379118
153	0x3d905c54	0.0704886
154	0xbea8a7e8	-0.32940602
155	0x3d8a41ce	0.067508325
156	0xbefdd5e2	-0.49577242
157	0x3f4adf63	0.7924711
158	0xbdfe2ef6	-0.12411301
159	0x3be0488a	0.006844585
160	0x3dead806	0.114669845
161	0xbef6222b	-0.48072943
162	0x3f149bf3	0.5805046
163	0x3f129a56	0.5726675
164	0xbd031052	-0.031997986
165	0xbf14f8c4	-0.58192086
166	0xbd8d0051	-0.06884826
167	0xbe709910	-0.23495889
168	0x3ea177b2	0.31536633
169	0xbe8ce2a8	-0.27516675
170	0x3f0a6ea8	0.540751
171	0x3cd012bb	0.025399556
172	0xbed4f458	-0.4159267
173	0xbdcd83c5	-0.10034899
174	0xbe6304da	-0.2216982
175	0x3e96602a	0.29370242
176	0xbe9b6ff7	-0.3035886
177	0xbd90e14c	-0.07074222
178	0x3f17c909	0.5929113
179	0x3e4253c1	0.18977262
180	0x3e08308e	0.13299772
181	0x3eccdb97	0.40011284
182	0x3f061360	0.52373314
183	0x3e4319f0	0.19052863
184	0x3eda1ad9	0.42598608
185	0xbf08effc	-0.5349119
186	0xbce135dd	-0.027491504
187	0x3dd1ba33	0.10240593
188	0x3e11ac62	0.14225915
189	0x3d022617	0.031774607
190	0x3ecb2f48	0.3968451
191	0xbe8bb000	-0.27282715

gru_cell.bias_hh f4 [192]
0	0x3e487178	0.19574535
1	0x3d39b967	0.04534283
2	0xbe80ae9e	-0.25133222
3	0x3e28a0d3	0.164676
4	0x3f073828	0.5282006
5	0x3e48bb0f	0.19602607
6	0x3d8f97ee	0.070114
7	0xbf1e72a1	-0.6189366
8	0x3d14aaa9	0.036295567
9	0x3e9354d3	0.28775653
10	0x3b75aeeb	0.0037488292
11	0x3e1f662f	0.15566324
12	0xbe0a9eb2	-0.135371
13	0x3e489840	0.19589329
14	0xbe356d98	-0.17717588
15	0xbef406c1	-0.47661403
16	0xbe722b45	-0.23649319
17	0x3e86314f	0.26209494
18	0xbe4f2030	-0.20227122
19	0xbe24a9d5	-0.16080411
20	0xbd3b659c	-0.0457512
21	0xbe252079	-0.16125669
22	0xbe2b0c5e	-0.16703936
23	0xbe9b50e5	-0.30335155
24	0xbf1dfaf5	-0.61711055
25	0xbf8c6d2c	-1.0970817
26	0xbe76a0f4	-0.24084836
27	0xbeb7d112	-0.35901695
28	0xbe413e50	-0.18871427
29	0xbe171ee5	-0.14757879
30	0x3e1480a1	0.14502193
31	0xbfb780fa	-1.4336236
32	0xbdd5061b	-0.10401555
33	0xbe904aa0	-0.28181934
34	0xbf27ba5b	-0.6551873
35	0xbf00fd15	-0.5038617
36	0xbfc7f8b2	-1.5622771
37	0xbe690359	-0.22755183
38	0xbe513691	-0.20430972
39	0xbefa7418	-0.48916698
40	0xbf084db6	-0.5324358
41	0x3d59c30e	0.053164534
42	0xbf13423f	-0.5752296
43	0xbee8107d	-0.4532508
44	0xbe54242c	-0.20716923
45	0xbed393e4	-0.4132377
46	0xbf46a600	-0.77597046
47	0x3d670f26	0.05641093
48	0xbe2e45f3	-0.17018871
49	0xbf67d905	-0.9056552
50	0xbed51f06	-0.41625232
51	0xbf302ca8	-0.6881814
52	0xbed829f8	-0.4221952
53	0xbf06928b	-0.52567357
54	0xbf44cfce	-0.76879585
55	0x3e012511	0.12611796
56	0x3f4a6b94	0.790704
57	0xbe9a853c	-0.30179775
58	0xbf614352	-0.8799335
59	0xbe22beb9	-0.15893067
60	0x3d6b24a3	0.057407986
61	0xbe5a0718	-0.21291769
62	0xbdd1641e	-0.10224174
63	0xbe1ec51a	-0.15504876
64	0x3f757f67	0.95897526
65	0x3ed70cd8	0.42001987
66	0x3ed0f280	0.40810013
67	0x3ef56f54	0.479365
68	0x3f005af1	0.50138766
69	0x3eeb1e9c	0.4592179
70	0x3ef56c8a	0.4793437
71	0x3f2b111f	0.66823
72	0x3f7a9ba4	0.9789374
73	0x3e5130f9	0.20428838
74	0xbca14d00	-0.019690037
75	0x3edee695	0.43535295
76	0xbe6e6e57	-0.23284279
77	0x3e9e630f	0.3093495
78	0x3ea9b319	0.33144453
79	0x3f18b503	0.596512
80	0x3f1a45e3	0.6026289
81	0x3f247d34	0.64253545
82	0x3f2abf5a	0.6669823
83	0x3ec43686	0.38322848
84	0x3e9748d5	0.29547754
85	0x3f279abc	0.6547048
86	0x3eac46f5	0.33647886
87	0x3e8ad631	0.2711654
88	0x3fa3125b	1.2739977
89	0x3fa9140c	1.3209243
90	0x3edacaf2	0.4273296
91	0x3ef43ec4	0.47704136
92	0x3ec808e7	0.39069292
93	0x3f395815	0.7240003
94	0x3f03a795	0.51427585
95	0x403ed49b	2.9817264
96	0x3ef87ea5	0.48534122
97	0x3f4404e8	0.76569986
98	0x3f16a40b	0.5884406
99	0x3f33e11b	0.7026536
100	0x4069da1a	3.6539369
101	0x3edf65d6	0.43632382
102	0x3f20e96d	0.6285618
103	0x3f17a0e3	0.5922987
104	0x3f49120b	0.78543156
105	0x3f723ce9	0.9462419
106	0x3f39d4aa	0.72590125
107	0x3ee6926a	0.4503358
108	0x3f18aff2	0.5964347
109	0x3f139780	0.57653046
110	0x3e3a854a	0.18214908
111	0x3e96186c	0.29315507
112	0x3f261501	0.648758
113	0x3fb4bdfb	1.4120477
114	0x3ea90988	0.33015084
115	0x3d72d480	0.059284687
116	0x3f902fc2	1.1264575
117	0xbd2a51db	-0.04158197
118	0x3e810f6c	0.25207078
119	0x3f1cc3fa	0.61236537
120	0x3eefc30b	0.46828493
121	0x3eab34b7	0.33438656
122	0x3ebbaa75	0.36653486
123	0x3f734526	0.9502739
124	0x3e6eb301	0.23310472
125	0x3dfd5d19	0.123712726
126	0xba96454a	-0.0011464742
127	0xbdbf0802	-0.09327699
128	0xbf39c3af	-0.72564214
129	0xbe2db893	-0.1696494
130	0xbde66a49	-0.11250741
131	0xbe8d43ab	-0.2759069
132	0x3ea55f95	0.32299486
133	0xbe8a6fac	-0.27038324
134	0x3e022f06	0.1271325
135	0x3ed5cd3c	0.41758144
136	0x3a507b81	0.0007952974
137	0x3d862d57	0.06551617
138	0x3f6b72ea	0.9197222
139	0xbf8ab98c	-1.0837874
140	0x3e8de6b2	0.2771507
141	0x3e946362	0.28982073
142	0xbeea9e4f	-0.45823905
143	0xbf4ef1fe	-0.80838
144	0x3eae5ea5	0.34056583
145	0x3f88eaad	1.0696617
146	0xbec16641	-0.37773326
147	0xbf0adcd4	-0.54243207
148	0x3f3461e5	0.70461875
149	0x3e9ec9a4	0.31013215
150	0xbe1a6890	-0.1507895
151	0xbe8ea5d1	-0.27860883
152	0xbed85c14	-0.4225775
153	0xbdd56531	-0.10419691
154	0xbd83ed75	-0.06441776
155	0x3e14cb62	0.1453071
156	0xbeed4d40	-0.46348
157	0xbef8abdf	-0.48568627
158	0xbf42736a	-0.7595736
159	0xbdcb3cb2	-0.09923686
160	0x3eda9463	0.42691335
161	0x3f4992e7	0.7873978
162	0x3e2ac856	0.16677985
163	0x3e76a5c7	0.24086677
164	0xbcb4fa16	-0.022091907
165	0xbee60993	-0.4492918
166	0x3e784351	0.24244429
167	0xbe40c52e	-0.18825218
168	0xbe895ff2	-0.26831013
169	0x3f87271d	1.0558811
170	0xbf19a859	-0.60022503
171	0x3f1aa875	0.60413295
172	0xbed3ac4c	-0.4134239
173	0x3e7e0c60	0.24809408
174	0x3d57662d	0.052587677
175	0x3ebdbc14	0.37057555
176	0x3e92c20c	0.2866367
177	0xbd70d42f	-0.058796104
178	0x3dc6bdec	0.097041935
179	0x3df3e928	0.119097054
180	0xbf3114f3	-0.6917259
181	0x3f0e1115	0.55494815
182	0xbeaf70c7	-0.3426573
183	0x3e373e07	0.17894755
184	0x3f07c694	0.5303738
185	0xbdbb4510	-0.09144032
186	0x3e96cc01	0.29452518
187	0x3f0a1000	0.53930664
188	0xbeaa934e	-0.3331551
189	0x3f75c9cf	0.9601106
190	0x3f55fec5	0.8359187
191	0x3e1aae02	0.15105441

mlp_model.0.weight f4 [256, 3]
0	0xbf351e13	-0.70749015
1	0xbf41ccae	-0.7570294
2	0xbe82dbeb	-0.2555841
3	0xbd58545c	-0.052814826
4	0xbe6780ed	-0.22607775
5	0xbd937de8	-0.07201749
6	0xbe9d8c7e	-0.3077125
7	0xbdc8ae8c	-0.09798917
8	0x3e08f77b	0.13375656
9	0x3e314b65	0.17313917
10	0xbe1f65a3	-0.15566115
11	0x3ed61312	0.41811424
12	0xbf0070db	-0.50172204
13	0x3d83d98e	0.0643798
14	0xbe8a501e	-0.2701425
15	0x3e92b273	0.2865177
16	0x3e348912	0.17630413
17	0x3ec48af2	0.38387257
18	0xbf0805a4	-0.53133607
19	0x3ea9d011	0.33166555
20	0xbf1198f5	-0.5687402
21	0xbe0e6470	-0.13905501
22	0x3dfc802f	0.123291366
23	0xbea2eac2	-0.3181973
24	0xbef0bea9	-0.47020462
25	0xbe4b7c50	-0.1987164
26	0xbf08cfb2	-0.5344192
27	0xbe77ad43	-0.24187188
28	0x3d8080d7	0.06274574
29	0x3e3fcbbc	0.18730062
30	0xbf0b401d	-0.54394704
31	0x3ebb10d3	0.36536273
32	0xbe841b82	-0.25802237
33	0x3edcc229	0.43116882
34	0xbefb532f	-0.49086902
35	0xbee071f5	-0.43836942
36	0xbceb93e5	-0.028757045
37	0xbf100f31	-0.5627318
38	0xbec1937c	-0.37807834
39	0x3f0f0338	0.55864286
40	0xbe01aa5b	-0.12662642
41	0xbe679a89	-0.22617544
42	0x3e7eeff4	0.24896222
43	0xbea79210	-0.32728624
44	0xbdc0f76c	-0.09422192
45	0xbee45966	-0.44599456
46	0xbddd1c40	-0.10796404
47	0xbd84b90e	-0.06480609
48	0x3ef48b55	0.47762552
49	0x3e975ffd	0.2956542
50	0xbdc62eb6	-0.09676878
51	0x3f0e1676	0.5550302
52	0xbe3b22fb	-0.18275063
53	0xbeb14116	-0.3461997
54	0x3eb515cb	0.3536819
55	0x3ec011cb	0.37513575
56	0x3e9247db	0.28570446
57	0x3e578483	0.21046643
58	0xbd231e69	-0.039823923
59	0x3edfa46e	0.43680137
60	0x3ebb4990	0.3657956
61	0x3ee220e0	0.44165707
62	0xbf19be4e	-0.60056007
63	0xbf041edc	-0.5160959
64	0xbe8349d0	-0.25642252
65	0xbebf281c	-0.3733529
66	0xbf4f58d7	-0.80994934
67	0xbedb77c7	-0.4286482
68	0xbc0c7997	-0.008573911
69	0x3ddad982	0.106860176
70	0xbeb7e428	-0.35916257
71	0x3f5097d8	0.81481695
72	0x3e9ecb39	0.31014422
73	0xbee168e1	-0.4402533
74	0xbe98680c	-0.2976688
75	0x3dca3bde	0.098747
76	0x3efd3aec	0.49459016
77	0x3f4b0f27	0.79319996
78	0x3e8e9cac	0.27853906
79	0x3ea9a501	0.331337
80	0xbf089941	-0.53358847
81	0xbe9c39d0	-0.30512857
82	0xbe1c2120	-0.15247011
83	0xbe1a34c6	-0.15059194
84	0x3e8281cf	0.2548966
85	0xbeda5032	-0.4263931
86	0xbdcbbdec	-0.09948334
87	0x3daff0f1	0.08590878
88	0xbe53cbd4	-0.20683223
89	0x3ed5263d	0.41630736
90	0x3f0c45e4	0.54794145
91	0x3efb861a	0.4912575
92	0xbe8db0cd	-0.2767395
93	0x3e543024	0.20721489
94	0x3e1e95c4	0.15486819
95	0xbe02c93a	-0.12772074
96	0x3efbafbd	0.49157515
97	0x3e0f516f	0.13995908
98	0x3d817cc7	0.063226275
99	0x3f00ab5b	0.5026147
100	0xbe2318a9	-0.15927376
101	0xbeab4418	-0.3345039
102	0x3e3785d2	0.17922142
103	0x3ecd3bf3	0.400848
104	0xbeba51e7	-0.36390612
105	0xbe8526e3	-0.2600623
106	0xbe9ce428	-0.3064282
107	0xbce502be	-0.02795541
108	0xbee33b39	-0.4438112
109	0xbebf3db9	-0.37351778
110	0xbe79ec19	-0.2440647
111	0xbf111ba3	-0.56682795
112	0x3e954fa8	0.29162335
113	0xbdb3b193	-0.08774104
114	0xbf058001	-0.52148443
115	0x3ef38330	0.47561026
116	0xba99eb3d	-0.001174308
117	0xbea4e62c	-0.32206857
118	0xbf0f0e00	-0.5588074
119	0xbee4d890	-0.44696474
120	0x3f0e8340	0.5566902
121	0x3ecc1f72	0.3986774
122	0x3e2cb899	0.16867293
123	0xbe34d5bf	-0.17659663
124	0xbf07e502	-0.53083813
125	0xbef87c6d	-0.4853243
126	0x3d93ba85	0.0721331
127	0x3ed73af6	0.4203717
128	0xbe68d8fc	-0.22739023
129	0x3de577d3	0.11204495
130	0x3da0c055	0.078491844
131	0x3f3777f3	0.71667403
132	0x3e8480c7	0.258795
133	0x3eeb0ed1	0.45909742
134	0x3ed03a2d	0.40669385
135	0x3eade6c7	0.33965132
136	0xbef4bc90	-0.47800112
137	0x3d8def34	0.0693039
138	0xbc261a72	-0.010138141
139	0xbe738a9b	-0.23783343
140	0xbe163b13	-0.14670973
141	0xbd835041	-0.064117916
142	0xbdab00cb	-0.083497606
143	0x3ee76012	0.45190483
144	0x3dcab399	0.09897537
145	0xbe8619db	-0.261916
146	0x3f289552	0.65852845
147	0xbe551bc6	-0.20811376
148	0xbf11bcee	-0.5692891
149	0xbed2a865	-0.411441
150	0xbda105fa	-0.07862468
151	0x3deeab1a	0.11653729
152	0xbefb6f14	-0.49108183
153	0x3ba99f14	0.0051764343
154	0xbe655543	-0.22395806
155	0x3f09fd31	0.53901964
156	0x3ee36911	0.44416097
157	0xbe2bf58b	-0.16792886
158	0x3d92e5b8	0.071727216
159	0x3ef1fcd6	0.4726321
160	0xbe12e3ca	-0.14344707
161	0xbe063618	-0.13106573
162	0xbea92229	-0.33033875
163	0x3e7a3369	0.24433674
164	0xbe763d8a	-0.24046913
165	0xbf071cc9	-0.527783
166	0x3d815234	0.06314507
167	0xbd996608	-0.07490164
168	0x3e8cbe15	0.2748877
169	0x3ef3bf91	0.4760709
170	0x3f2b386c	0.6688297
171	0x3e12f2e4	0.14350468
172	0x3db4d50d	0.08829699
173	0x3ec7b1c5	0.39002815
174	0xbdacf4a1	-0.08445097
175	0xbe6bba79	-0.23020352
176	0xbd262fdc	-0.040572986
177	0xbed2f3c7	-0.41201612
178	0xbdc64019	-0.096801944
179	0x3e6fa80d	0.2340395
180	0xbe143ae6	-0.14475593
181	0xbed6fd73	-0.4199024
182	0x3b83972b	0.0040158234
183	0x3e87cc0d	0.26522866
184	0xbef524ec	-0.47879732
185	0x3eb44df7	0.35215732
186	0x3de6170c	0.112348646
187	0x3dc779a1	0.09739996
188	0xbeddf9bd	-0.43354598
189	0x3ddee946	0.10884337
190	0xbedd00c8	-0.4316466
191	0xbd41c76c	-0.047309324
192	0xbd458466	-0.048221968
193	0xbea30762	-0.3184157
194	0xbde46d59	-0.11153669
195	0x3f175986	0.59120977
196	0xbc5de1ec	-0.0135426335
197	0xbe3d78fe	-0.18503186
198	0xbc27717a	-0.010219926
199	0xbec46e0f	-0.38365218
200	0xbe17c42c	-0.14820927
201	0x3e7ffd2d	0.24998923
202	0xbed414ba	-0.41422063
203	0x3eee515f	0.46546456
204	0x3e7f8ea6	0.2495676
205	0xbe76a9ce	-0.24088213
206	0x3eebe1c5	0.46070686
207	0x3ec93d7c	0.3930472
208	0xbe9be3b0	-0.3044715
209	0xbecf4e9e	-0.40489668
210	0x3e4a96c2	0.19784072
211	0xbe9c17d6	-0.30486935
212	0xbe6fe50b	-0.23427217
213	0xbe4082f5	-0.18799956
214	0x3e7ed0a3	0.24884276
215	0x3f52fd54	0.824178
216	0x3d580c4a	0.052746095
217	0xbe3e7ffd	-0.18603511
218	0x3f0ee309	0.5581518
219	0x3e849254	0.2589289
220	0x3d86e96c	0.065874904
221	0x3f3549a1	0.70815474
222	0xbf499c82	-0.78754437
223	0xbde7617d	-0.11297891
224	0x3c088de6	0.0083346125
225	0x3d214572	0.03937287
226	0x3e88d8d1	0.26727918
227	0x3eebb6be	0.4603786
228	0x3e0136eb	0.12618606
229	0xbd221e4f	-0.039579686
230	0xbef316d6	-0.4747836
231	0x3e997180	0.29969406
232	0xbefe2732	-0.4963928
233	0xbef92055	-0.4865748
234	0x3e48c822	0.19607595
235	0xbef2e212	-0.47438103
236	0x3f1b213c	0.60597587
237	0xbea43dd5	-0.32078424
238	0xbe84b8d6	-0.2592227
239	0x3aa079ef	0.001224337
240	0x3e513c15	0.20433076
241	0x3dafe6a1	0.08588911
242	0x3ef545e4	0.47904885
243	0xbe16c274	-0.14722615
244	0x3e91a1c0	0.28443718
245	0x3f521cde	0.820753
246	0x3f0a96ae	0.5413617
247	0x3eb62bbf	0.3558025
248	0xbe93448e	-0.2876324
249	0x3dd20980	0.10255718
250	0x3ed19bb2	0.409391
251	0xbe8332e7	-0.25624773
252	0xbb1f164a	-0.002427476
253	0xbe20e061	-0.15710594
254	0xbeaec029	-0.34130982
255	0x3e84ad68	0.25913548

mlp_model.0.bias f4 [256]
0	0x3eaf8338	0.342798
1	0x3f1aa3b6	0.60406053
2	0x3e851b71	0.259975
3	0xbdc810c9	-0.097688265
4	0xbeba44f0	-0.3638072
5	0xbe064403	-0.13111882
6	0x3e12892c	0.1431014
7	0x3d3f5b0c	0.04671769
8	0xbe8d21b7	-0.27564785
9	0x3ecb8dfa	0.39756757
10	0x3d42312d	0.04741018
11	0x3ec147a6	0.37749976
12	0xbe8ca014	-0.2746588
13	0xbeacdbd8	-0.33761477
14	0xbe4824b1	-0.19545247
15	0x3d1be378	0.038058728
16	0x3e05167e	0.12996861
17	0xbe250193	-0.16113882
18	0xbc7d6b87	-0.015467531
19	0xbdca32e7	-0.0987299
20	0xbedf3a47	-0.4359915
21	0x3d56bd20	0.052426457
22	0xbf420f07	-0.7580418
23	0xbe2a3523	-0.16621833
24	0x3f621b95	0.88323337
25	0x3dcc9a93	0.0999042
26	0xbda89676	-0.08231823
27	0x3f0abfba	0.541988
28	0xbe7e1431	-0.2481239
29	0x3d6564fd	0.056004513
30	0xbeb85031	-0.3599868
31	0xbe9e36b7	-0.3090112
32	0x3e2be23b	0.16785519
33	0x3ecf1b9f	0.4045076
34	0xbec66444	-0.38748372
35	0xbe2d004e	-0.16894647
36	0xbec3889c	-0.38190162
37	0x3d0dc8ee	0.03461545
38	0xbbcb2553	-0.0061995178
39	0x3e0d1b9d	0.13780065
40	0x3e5bd4c7	0.21467887
41	0x3ebfe6b3	0.37480697
42	0x3d36b8f7	0.04460999
43	0xbe630caf	-0.22172807
44	0x3e8bf5ca	0.2733596
45	0x3eca161a	0.39469987
46	0x3eb1f04a	0.34753639
47	0x3ecfd697	0.40593407
48	0x3cf9cfe5	0.03049464
49	0xbd875701	-0.066083916
50	0xbf1d5fb8	-0.6147418
51	0x3e054151	0.13013197
52	0x3e9c206b	0.30493483
53	0xbebe9fd2	-0.37231308
54	0x3e4ef478	0.20210445
55	0xbedc2758	-0.42998767
56	0xbd324211	-0.043520037
57	0xbe040513	-0.1289256
58	0x3cbc4455	0.022981802
59	0xbef155a8	-0.47135663
60	0xbf2fe628	-0.68710566
61	0x3e92312c	0.2855314
62	0x3e5c2609	0.21498884
63	0x3ef0385d	0.46918002
64	0xbe8d3c75	-0.27585188
65	0xbeec0527	-0.4609768
66	0x3f152b5e	0.582693
67	0x3e9333e4	0.28750527
68	0xbe55a9e0	-0.20865583
69	0x3b8b2acc	0.004247045
70	0x3f511508	0.81672716
71	0x3eb87c4d	0.36032334
72	0x3de6d5f5	0.11271278
73	0xbe88e327	-0.26735803
74	0x3e2edc3c	0.170762
75	0xbf0d7f71	-0.55272585
76	0x3d56569e	0.0523287
77	0x3ea738ff	0.32660672
78	0x3db8ec9f	0.09029507
79	0xbed3aa7d	-0.4134101
80	0xbd9d81eb	-0.076907955
81	0xbe814773	-0.25249824
82	0x3e5babb3	0.21452217
83	0xbd17e2c9	-0.037081514
84	0x3e9ac656	0.30229443
85	0x3e382ff9	0.1798705
86	0x3cb843c8	0.022493258
87	0x3e92e8a4	0.28693116
88	0xbec2cc26	-0.38046378
89	0x3f02cad6	0.51090753
90	0xbe866512	-0.26248986
91	0xbee0d356	-0.43911237
92	0x3f3b6d4a	0.73213637
93	0x3f01cfb6	0.50707567
94	0x3e9d46ec	0.30718172
95	0x3f256f3a	0.64622843
96	0x3dfa7ee5	0.122312345
97	0xbd20a85f	-0.03922307
98	0x3d970201	0.07373429
99	0xbc9de323	-0.019273346
100	0xbec91101	-0.39270785
101	0x3ec8ea66	0.39241332
102	0x3d983736	0.07432406
103	0xbe70a2c9	-0.23499598
104	0x3e6a2d4e	0.22868845
105	0x3ed42c44	0.41440022
106	0x3ec352f6	0.38149232
107	0xbed00bfc	-0.40634143
108	0x3e6bce3a	0.23027888
109	0x3f1e25bd	0.61776334
110	0x3e774591	0.24147631
111	0x3d6614bc	0.056172118
112	0x3e543f43	0.20727257
113	0x3d1b6a46	0.037943147
114	0x3ba9f76d	0.005186966
115	0x3ee1e1f8	0.44117713
116	0x3ebfe5e5	0.37480083
117	0x3f2ef393	0.68340415
118	0x3cbba470	0.022905558
119	0xbe80c5aa	-0.25150806
120	0xbe6840b2	-0.2268093
121	0x3e6825a1	0.22670604
122	0x3f07d133	0.5305359
123	0xbed4941e	-0.41519254
124	0xbda83dcf	-0.08214914
125	0x3cf926f9	0.030414091
126	0xbf40fdf1	-0.75387484
127	0x3ef72926	0.4827358
128	0x3e826964	0.25471032
129	0x3f117281	0.56815344
130	0x3e87559c	0.26432502
131	0xbe28e397	-0.16493069
132	0xbec77ec8	-0.38963914
133	0x3f01d020	0.507082
134	0x3e8aaf1d	0.27086726
135	0xbe9d09d7	-0.3067157
136	0xbeb3b1f3	-0.35096702
137	0xbf036be5	-0.5133651
138	0xbeaa3f72	-0.3325153
139	0xbf08d96e	-0.5345677
140	0xbdff917a	-0.12478919
141	0x3ecb6a1d	0.39729396
142	0xbd3a7bf2	-0.04552836
143	0xbd9a7942	-0.07542659
144	0x3f0c13a5	0.54717475
145	0xbe30ee80	-0.1727848
146	0x3ef67717	0.48137733
147	0x3efbe768	0.49199986
148	0xbf057387	-0.52129406
149	0xbf003248	-0.50076723
150	0xbe65da88	-0.22446644
151	0xbd46e7a4	-0.048560753
152	0x3c415907	0.011801011
153	0xbcf23c09	-0.029569643
154	0xbe108751	-0.14114119
155	0x3d850d0f	0.06496631
156	0xbda7b696	-0.081891224
157	0xbe06b982	-0.13156703
158	0xbdd669ce	-0.104693994
159	0xbdb19fa0	-0.08673024
160	0xbec00241	-0.3750172
161	0x3f0b0677	0.5430674
162	0x3c0cbfb7	0.00859063
163	0x3f12422b	0.57132214
164	0xbeb2d36a	-0.3492692
165	0xbe8edeb9	-0.279043
166	0x3f12f1d7	0.5740027
167	0xbd99110c	-0.074739546
168	0xbf20955d	-0.6272791
169	0xbdd4191d	-0.103563525
170	0xbf0e51b5	-0.55593425
171	0x3e00116c	0.12506646
172	0xbef1b36e	-0.47207206
173	0xbf4f1edd	-0.8090647
174	0xbc7c4c2c	-0.01539902
175	0xbf13476e	-0.5753087
176	0xbe24b347	-0.16084014
177	0x3e3400a0	0.17578363
178	0x3e3f451d	0.18678708
179	0x3ee44d07	0.44590017
180	0x3dc253d5	0.09488646
181	0x3eac7a44	0.3368703
182	0x3eb69609	0.35661343
183	0x3ea0d48c	0.3141216
184	0xbdd3d66a	-0.103436306
185	0x3ea4d3d9	0.32192877
186	0xbcbef89c	-0.023311906
187	0x3dff22ef	0.12457835
188	0x3cce1144	0.025154717
189	0xbe63ce50	-0.2224667
190	0xbe9a897c	-0.30183017
191	0x3f059b74	0.5219033
192	0xbec6a78f	-0.38799712
193	0x3e075115	0.13214524
194	0xbf1b6034	-0.6069367
195	0xbea28c8f	-0.31747863
196	0x3e983a42	0.29731947
197	0x3e2af9ca	0.1669685
198	0x3f09ff06	0.5390476
199	0x3d478313	0.048708986
200	0x3e5fa0de	0.2183871
201	0x3e864885	0.26227203
202	0xbeb5c790	-0.35503817
203	0xbe731f70	-0.23742461
204	0x3edab077	0.42712757
205	0xbee95541	-0.45572856
206	0x3eb049da	0.34431344
207	0x3e5e2055	0.21692021
208	0x3df95bfd	0.121757485
209	0xbec344ec	-0.3813852
210	0xbd80c182	-0.06286909
211	0x3dad31f0	0.084567904
212	0xbeae47b5	-0.34039083
213	0xbec418f4	-0.38300288
214	0x3e2711c8	0.16315377
215	0xbe2dd471	-0.16975571
216	0x3ed59818	0.417176
217	0x3ee5d50f	0.44889113
218	0xbdf65a81	-0.12028981
219	0x3ed7032a	0.419946
220	0x3f0bf4bc	0.5467031
221	0xbe8f67d1	-0.28008893
222	0xbea8c12d	-0.3295988
223	0xbf36d0d0	-0.7141237
224	0x3c0da432	0.008645104
225	0x3cd870bd	0.026420945
226	0x3d8341fe	0.064090714
227	0xbeba5686	-0.36394137
228	0xbe29e497	-0.16591106
229	0xbe450195	-0.19238885
230	0xbb83d6d9	-0.0040234146
231	0xbee3dcfb	-0.44504532
232	0xbef7b253	-0.48378238
233	0xbd8f63f3	-0.07001486
234	0xbe1781c2	-0.14795592
235	0x3e1f5866	0.15561065
236	0x3ea13d36	0.31492013
237	0xbf02a9b9	-0.51040226
238	0x3e0c2f60	0.13689947
239	0x3e5e0282	0.21680644
240	0x3e620921	0.22073795
241	0xbecde912	-0.4021688
242	0x3f570fa4	0.8400824
243	0x3e2830ab	0.16424815
244	0x3f359709	0.70933586
245	0xbd18bc20	-0.037288785
246	0xbf4a48e3	-0.79017466
247	0x3e5f90a5	0.21832521
248	0x3f24196b	0.64101285
249	0x3dac28da	0.08406229
250	0x3dd782e5	0.10523013
251	0x3f3016d7	0.6878485
252	0x3ea0acc9	0.31381825
253	0x3f27a002	0.6547853
254	0x3f0258d6	0.509168
255	0xbdf3628c	-0.11884031

fc.weight f4 [5, 64]
0	0x3f688003	0.9082033
1	0xbfad69ac	-1.3547873
2	0xbee5ec30	-0.4490676
3	0xbee4a1ae	-0.44654602
4	0xbf219b78	-0.6312785
5	0x402675cb	2.6009395
6	0x3f5c062e	0.8594693
7	0x3ec94c59	0.3931606
8	0xc04c14b2	-3.1887631
9	0xbeecf4df	-0.46280572
10	0x3f42880d	0.75988847
11	0xbf522f41	-0.82103354
12	0x3f884101	1.0644838
13	0xc09484c4	-4.6412067
14	0x3e268100	0.16260147
15	0xbf385190	-0.71999454
16	0xbe6dffa6	-0.23242053
17	0x3cd15a9f	0.025555907
18	0x40a44c4a	5.1343126
19	0xbf1c3c4e	-0.6102952
20	0xbd9a1132	-0.07522811
21	0xc098becf	-4.773292
22	0xc037c5fd	-2.8714592
23	0x3f2cb4a9	0.67463166
24	0xbfc5b378	-1.5445395
25	0x3db2fa06	0.087390944
26	0x3fd6cc97	1.6781186
27	0x3f071b11	0.52775675
28	0xc04a5b39	-3.1618178
29	0x40a34802	5.10254
30	0xbf3681ff	-0.7129211
31	0xbf0875b6	-0.5330461
32	0x3da58f02	0.08083917
33	0x4097784a	4.7334337
34	0x400f3dc2	2.2381444
35	0x40188edd	2.3837197
36	0xbe387542	-0.1801348
37	0xbe957e9c	-0.29198158
38	0xbfb7f782	-1.4372408
39	0x3f47caaf	0.78043646
40	0x408277d9	4.07713
41	0xbf63963c	-0.88901114
42	0xbf66fb50	-0.9022722
43	0x3fe42289	1.7823039
44	0xbfd0761e	-1.6286047
45	0x3f1631f3	0.58669966
46	0xbd47a91a	-0.048745252
47	0x3fba76bc	1.4567485
48	0xc06206b1	-3.5316584
49	0xbfafd7b9	-1.3737708
50	0x3f933f09	1.1503612
51	0xbf9fb0e8	-1.2475863
52	0x3fd32c53	1.6497902
53	0x3fbf127e	1.4927518
54	0xc0586784	-3.381318
55	0xbfc1d7a0	-1.5143929
56	0xbe6a048f	-0.22853301
57	0xc010eef4	-2.2645845
58	0xbf157b40	-0.5839119
59	0xbfabdb64	-1.3426328
60	0x4047e7ff	3.123535
61	0xc0121e83	-2.2831123
62	0xbfe8c7c7	-1.8185967
63	0xbf59e0b3	-0.8510849
64	0x40170311	2.3595622
65	0xbfb5d941	-1.4206926
66	0x3f111b32	0.5668212
67	0x3e188650	0.14894986
68	0xbf9940e7	-1.1972932
69	0x3f3b8233	0.73245543
70	0x40316e36	2.7723517
71	0x3f3d334c	0.739064
72	0xc00ea37a	-2.2287278
73	0xbcaa7159	-0.020806001
74	0xc0807b29	-4.015034
75	0x3f81abab	1.0130514
76	0x3deeed3a	0.11666341
77	0x3ed33576	0.41251725
78	0xbdcdd461	-0.10050274
79	0x3f55386d	0.83289224
80	0x3f830af2	1.0237715
81	0x3ec0082c	0.37506235
82	0x3fee331e	1.860935
83	0xbeef3428	-0.4671948
84	0x3cb78256	0.022401016
85	0xc0150faa	-2.329081
86	0xbf00a73a	-0.5025517
87	0x3f34cd72	0.70625985
88	0xbfedc08f	-1.8574389
89	0xc05d9b76	-3.4626136
90	0x402524a6	2.5803618
91	0x3ee9045b	0.45511135
92	0x3e6d29d9	0.23160495
93	0x40242d31	2.5652583
94	0xbff97e78	-1.949172
95	0x408a1b60	4.3158417
96	0x3faec62f	1.3654231
97	0x401496d8	2.3217068
98	0x3f777605	0.9666446
99	0x3ffd4aba	1.978843
100	0x4029e449	2.6545584
101	0xc017548d	-2.3645356
102	0xbfa6ea84	-1.3040318
103	0x3fb0ce31	1.3812925
104	0x401502b7	2.3282907
105	0xbe62122f	-0.22077249
106	0x3d8530c5	0.06503443
107	0x3f2e96c4	0.681988
108	0x3f117068	0.56812143
109	0xbd3a0e7e	-0.045423977
110	0xb9acf056	-0.0003298546
111	0xbf9d473f	-1.2287368
112	0x3f10af13	0.5651714
113	0x3e22ac38	0.15886009
114	0x3e22b7cf	0.1589043
115	0xbfb32c56	-1.3997905
116	0x400ac925	2.168527
117	0xbf4e3d75	-0.80562526
118	0xbe195dce	-0.1497719
119	0xc066b86e	-3.6050067
120	0xbd8241d0	-0.06360209
121	0xbec5fd40	-0.38669777
122	0x3f45247a	0.77008784
123	0xbfd8efe2	-1.6948206
124	0xbe3e4a47	-0.18583022
125	0xbe19d871	-0.15023972
126	0xbfd9937c	-1.6998134
127	0x3f40bf41	0.7529183
128	0x3f925d46	1.1434715
129	0x3f90412c	1.1269889
130	0xbf6279aa	-0.88466895
131	0xbf5ca07d	-0.86182386
132	0xbd277439	-0.040882323
133	0xbe412b5e	-0.188642
134	0xbf27e6a7	-0.6558632
135	0xbf4acd7a	-0.7921978
136	0xbe066088	-0.13122761
137	0xbe018794	-0.12649375
138	0x3f30835e	0.6895045
139	0x3f08bfdf	0.5341777
140	0xbc021dd5	-0.007941683
141	0xbefe530a	-0.4967273
142	0xbe8cee39	-0.275255
143	0xbfbb8f85	-1.4653174
144	0x3ff574a5	1.9176222
145	0x3f7a3b15	0.977464
146	0xbf4f4352	-0.809621
147	0x3e900a42	0.28132826
148	0x3f0d51c1	0.5520287
149	0x3d2c49e3	0.04206265
150	0x3f9f327e	1.2437284
151	0xbe4e437a	-0.20142928
152	0xbf1d845b	-0.61530083
153	0xc05b698c	-3.428317
154	0xbfd1be3d	-1.6386181
155	0x3f972505	1.1808172
156	0x3e8a97a0	0.27068806
157	0xbf07b44b	-0.5300948
158	0x3f39e087	0.72608227
159	0x40546996	3.3189445
160	0xbe6b85fb	-0.23000328
161	0x3dd2b03c	0.1028752
162	0xbfc70313	-1.5547813
163	0x3fb55c02	1.4168704
164	0x3fbd31eb	1.4780859
165	0x3e75f8c3	0.24020676
166	0x3f18879f	0.5958194
167	0x3e5aac7a	0.21354857
168	0xbf7f00f2	-0.9961082
169	0xbfdc5702	-1.7214053
170	0xbf01d42e	-0.50714386
171	0x3eee5976	0.46552628
172	0x3e709052	0.23492554
173	0xbd9f0ffa	-0.07766719
174	0x3d2032bf	0.039110895
175	0x3f2b48a9	0.66907746
176	0x3f9080d3	1.1289314
177	0x3f5986d6	0.8497137
178	0xbd6392d4	-0.055559948
179	0x3fac865e	1.3478506
180	0x400963c0	2.1467133
181	0x3f869f26	1.0517318
182	0xbe276605	-0.16347511
183	0x3f15af0d	0.5847023
184	0x3ea6b281	0.32558063
185	0x3e528708	0.20559323
186	0xbff6892d	-1.9260613
187	0xbe6e916a	-0.23297659
188	0xbe6ddbc8	-0.23228371
189	0x3e14c9c7	0.14530097
190	0x401839ca	2.3785272
191	0x3f746f6e	0.9548253
192	0xbfeacb7f	-1.8343352
193	0xbf430fdb	-0.7619607
194	0xbec545d1	-0.38529828
195	0x3fa2aec6	1.2709587
196	0xbe1bab1a	-0.15201989
197	0x3e0b3ee5	0.13598211
198	0xbfc62ad8	-1.5481825
199	0x3e2989b3	0.16556434
200	0x3f1fe241	0.6245461
201	0xbe321c98	-0.1739372
202	0x3ef5cd50	0.48008204
203	0xbe9bfe98	-0.30467677
204	0xbca527ce	-0.020160582
205	0x3e841784	0.2579919
206	0x3db272a0	0.08713269
207	0xbf45b6a6	-0.77231824
208	0xbf4d6fa3	-0.8024847
209	0xbdd95d26	-0.1061347
210	0xbf5e2528	-0.86775446
211	0xbe808241	-0.25099376
212	0xbe7c5541	-0.24641897
213	0x3fda8acd	1.7073609
214	0xbf5b7278	-0.8572154
215	0x3e664ad0	0.22489476
216	0x3f41d2a5	0.75712043
217	0x3f620612	0.8829051
218	0x3f44f4aa	0.7693583
219	0x3fc26a7c	1.5188746
220	0x3e4a8805	0.1977845
221	0xbd50911e	-0.050919645
222	0x3fca3607	1.5797738
223	0xbe920dd6	-0.2852618
224	0xbf83fd65	-1.0311705
225	0xbf8c0b64	-1.0940976
226	0x3e024dd4	0.12725002
227	0xbfb12b6a	-1.3841374
228	0x3ff1d1c2	1.8892138
229	0x3c9d7eee	0.019225564
230	0x3f44eae5	0.7692092
231	0x3fb2350d	1.392244
232	0xbe85dc79	-0.2614477
233	0x3de4c156	0.111696884
234	0x3f15127f	0.5823135
235	0x3f8b31cb	1.0874571
236	0xbd83cf06	-0.06435971
237	0xbf04ec81	-0.51923376
238	0xbeff8bd3	-0.49911365
239	0xbf314c04	-0.69256616
240	0x3e9f3b4d	0.3109993
241	0xbef9172b	-0.48650488
242	0xbed6f2a2	-0.4198199
243	0x3ed3617b	0.4128531
244	0xbef1c1c2	-0.47218138
245	0xbf0f3320	-0.55937386
246	0x3ee74a0b	0.45173678
247	0x3fc1f8b0	1.5154018
248	0x3d0bceaa	0.034132637
249	0xbf27b32e	-0.6550778
250	0x3d9ad4b7	0.075601034
251	0x3d3a90ea	0.045548357
252	0xbf0eb087	-0.5573811
253	0xbe46a61b	-0.19399302
254	0x3f6feeec	0.9372394
255	0x3e75b829	0.23996033

fc.bias f4 [5]
0	0xbf431c7b	-0.7621533
1	0xbe57415a	-0.21021023
2	0x3f4b07b3	0.79308623
3	0x3e255977	0.1614741
4	0xbf4f0b5b	-0.808767
