models/sparsity_granularity/mlp_gru3.pt (torch, 79241 bytes, 9 tensors)

gamma_x_l.weight f4 [1, 256]
-0.11693052 0.0023073344 -0.13837723 -0.01164388 -0.20650752 0.40257588 -0.14097781 -0.24886219
0.024827339 -0.21023877 -0.10782342 -0.16984648 -0.00033003045 -0.16675176 -0.14168784 -0.066576526
0.3211098 0.010804148 0.24040724 -0.18508899 -0.06197925 0.18847394 -0.21005253 0.02904936
-0.21844584 0.088514745 -0.02038531 0.10453196 0.046402883 -0.070777014 -0.17199656 -0.12222978
0.029532477 -0.0044048997 -0.20066044 -0.23809284 0.12331982 -0.04872147 0.01769241 -0.23546165
0.0017392447 -0.17571327 -0.113376684 -0.17691618 -0.23979056 0.0441477 -0.05556407 -0.07918433
-0.05650214 -0.010490179 -0.076485746 -0.059550434 -0.14113677 0.112999156 -0.08522421 -0.10118128
-0.027564786 -0.04953742 0.31765506 -0.1557651 -0.07216042 0.113704994 0.1376252 0.03597474
-0.057303727 0.05346101 -0.1405895 -0.08426855 0.10170952 -0.010381609 -0.07379993 -0.059803132
-0.10333523 0.036709785 -0.09068251 0.01328577 -0.25468475 -0.20591415 0.32066983 -0.06596335
0.2752698 0.26110205 0.2753874 0.1061526 -0.19412293 -0.023977993 -0.11311148 -0.17439383
-0.050323963 0.037893705 0.07189358 0.052485358 0.30979508 -0.011468344 -0.10570569 0.04347699
0.3026975 0.28527093 -0.033883512 -0.2525429 -0.20562701 -0.21196805 -0.052732408 -0.14547214
0.2711548 -0.08481439 0.007290907 -0.20153086 0.078627124 -0.12857363 -0.147816 -0.030598758
-0.16834734 0.22137418 -0.02655096 -0.011767425 -0.0026890885 -0.052513987 -0.12642947 -0.22577277
-0.15991025 -0.0592707 0.4621417 0.007622613 -0.036965914 -0.029394297 -0.02791547 0.054104697
-0.04041063 -0.074893855 -0.08827144 -0.018992243 0.044765428 -0.05433193 -0.21547046 0.022828672
-0.15666284 -0.23074752 0.043350425 -0.26920867 -0.017081972 -0.25910822 -0.23654631 0.015172664
-0.01314066 -0.0140900975 0.23009734 -0.14752774 -0.16316405 0.18662101 -0.0551626 0.041339613
-0.045878693 0.033506624 -0.1751822 0.054657318 -0.017530948 -0.19199307 -0.2511961 0.039538577
0.2263299 0.05913476 0.11535683 -0.020174466 0.14846231 0.21276891 0.04829572 -0.072682515
-0.22885273 0.2924327 -0.15744697 0.2916917 -0.11919825 -0.15390532 0.20918165 -0.1544867
-0.029372545 -0.028385783 0.2496936 0.4576347 -0.224615 -0.017601013 0.10265363 0.0037954755
-0.16154161 -0.1441812 0.020329617 0.14009151 -0.24847972 -0.05241628 -0.121181175 -0.16710061
0.24563159 0.021153472 -0.15012118 -0.10775955 -0.11481765 0.022334583 0.057662264 0.08557158
0.10653534 -0.1404957 -0.1598079 -0.059259325 -0.05157458 -0.10630353 0.551702 0.07078584
0.060085792 -0.0015983393 -0.15087016 -0.07760957 -0.02007287 0.020755453 0.032300927 0.03957858
-0.12857662 -0.22586483 0.015140056 -0.27204883 0.34513324 -0.07163313 -0.03008057 0.082701445
0.016739137 -0.22402161 -0.15140612 -0.23790441 -0.025095427 0.28887722 -0.009592039 0.034435354
0.1559106 0.15056014 0.025880322 -0.10610234 0.12151142 0.022161271 0.5965558 -0.21564898
0.033847444 -0.11522545 -0.13154608 -0.09602756 0.014032611 -0.038719308 0.036887087 0.0100467205
-0.10220519 -0.10954506 0.15178403 -0.05980686 0.04532443 -0.11317134 -0.13211052 -0.011962373
00000000: 4579 efbd a636 173b c3b2 0dbe f9c5 3ebc
00000010: b576 53be 6d1e ce3e 7d5c 10be bbd5 7ebe
00000020: b462 cb3c d548 57be 86d2 dcbd 3cec 2dbe
00000030: f007 adb9 f9c0 2abe 9e16 11be 4659 88bd
00000040: 8168 a43e e203 313c 512d 763e f887 3dbe
00000050: f4dd 7dbd 50ff 403e 0318 57be ecf8 ed3c
00000060: 44b0 5fbe 3847 b53d 18ff a6bc da14 d63d
00000070: f310 3e3d 8af3 90bd de1f 30be 9b53 fabd
00000080: 18ee f13c fa56 90bb ee79 4dbe 9cce 73be
00000090: 1a8f fc3d 2a90 47bd acef 903c dc1c 71be
000000a0: 5ef7 e33a 2eee 33be 0932 e8bd 8429 35be
000000b0: a88b 75be 38d4 343d 2697 63bd 652b a2bd
000000c0: ca6e 67bd 00df 2bbc 8fa4 9cbd 28eb 73bd
000000d0: 2886 10be 1a6c e73d 088a aebd 2238 cfbd
000000e0: 8ccf e1bc c0e7 4abd afa3 a23e e380 1fbe
000000f0: d8c8 93bd 2ade e83d 9fed 0c3e 405a 133d
00000100: 50b7 6abd eff9 5a3d b2f6 0fbe fd94 acbd
00000110: 154d d03d a017 2abc 6b24 97bd 21f4 74bd
00000120: 6ca1 d3bd 005d 163d c0b7 b9bd 8fac 593c
00000130: 0a66 82be 29db 52be d62e a43e cb17 87bd
00000140: 2af0 8c3e 2baf 853e 94ff 8c3e 8966 d93d
00000150: 29c8 46be 7f6d c4bc fea6 e7bd 4c94 32be
00000160: 8020 4ebd 6e36 1b3d f13c 933d e3fa 563d
00000170: 769d 9e3e b9e5 3bbc 3a7c d8bd ee14 323d
00000180: 2bfb 9a3e 080f 923e 70c9 0abd 4e4d 81be
00000190: e38f 52be 270e 59be f0fd 57bd a6f6 14be
000001a0: cdd4 8a3e 2bb3 adbd 90e8 ee3b 1b5e 4ebe
000001b0: 4207 a13d cea8 03be 145d 17be 3faa fabc
000001c0: 3f63 2cbe eaaf 623e 6681 d9bc 28cc 40bc
000001d0: 6b3b 30bb e818 57bd ba76 01be fa30 67be
000001e0: 83bf 23be d5c5 72bd d69d ec3e 1dc7 f93b
000001f0: 9269 17bd 4fcc f0bc fcae e4bc e39c 5d3d
00000200: 9e85 25bd f361 99bd a8c7 b4bd 9f95 9bbc
00000210: f45b 373d 288b 5ebd 4aa4 5cbe 3203 bb3c
00000220: 396c 20be 1449 6cbe 3790 313d b8d5 89be
00000230: 7eef 8bbc d5a9 84be 3239 72be c496 783c
00000240: ec4b 57bc 27da 66bc a39e 6b3e 8311 17be
00000250: 7a14 27be 9419 3f3e 2ef2 61bd ba53 293d
00000260: 4ceb 3bbd 3e3e 093d f662 33be 5ae0 5f3d
00000270: 109d 8fbc d599 44be c69c 80be 34f3 213d
00000280: 06c3 673e 4a37 723d 3440 ec3d ec44 a5bc
00000290: 8106 183e 18e0 593e bcd1 453d 92da 94bd
000002a0: 5f58 6abe bdb9 953e c739 21be 9d58 953e
000002b0: 361e f4bd 5b99 1dbe b733 563e c331 1ebe
000002c0: b19e f0bc 4d89 e8bc aeaf 7f3e 184f ea3e
000002d0: 7901 66be 0030 90bc 113c d23d 83bd 783b
000002e0: 2a6b 25be 3da4 13be 4c8a a63c 2674 0f3e
000002f0: 7871 7ebe 74b2 56bd d62d f8bd 6c1c 2bbe
00000300: d986 7b3e 0c4a ad3c 5eb9 19be 0ab1 dcbd
00000310: 8425 ebbd 04f7 b63c 442f 6c3d 2740 af3d
00000320: 332f da3d 1bde 0fbe afa4 23be e8b9 72bd
00000330: de3f 53bd aab5 d9bd 583c 0d3f 2bf8 903d
00000340: 851c 763d 5e7f d1ba b57d 1abe c4f1 9ebd
00000350: dc6f a4bc 5707 aa3c fa4d 043d 261d 223d
00000360: 97a9 03be 1c49 67be ff0d 783c fc49 8bbe
00000370: 4eb5 b03e 64b4 92bd 876b f6bc 605f a93d
00000380: 8420 893c ec65 65be 350a 1bbe 379d 73be
00000390: ed94 cdbc b7e7 933e ed27 1dbc 160c 0d3d
000003a0: 07a7 1f3e 702c 1a3e f802 d43c 2f4c d9bd
000003b0: fbda f83d 8e8b b53c e2b7 183f 16d3 5cbe
000003c0: 9ea3 0a3d 52fb ebbd 04b4 06be 19aa c4bd
000003d0: 09e9 653c 2398 1ebd ea16 173d 009b 243c
000003e0: f450 d1bd 2959 e0bd 466d 1b3e 0af8 74bd
000003f0: 1ca6 393d 60c6 e7bd fb47 07be d4fd 43bc

gru_cell.weight_ih f4 [192, 2]
1.8061483 0.6660412 -0.7629661 -0.66398364 -0.18842822 0.26354012 -1.3127377 -0.31309703
-0.311543 -0.7202654 -2.2611935 -0.37132147 -0.91269594 6.7389425e-05 0.39502603 0.28020665
-0.41417974 0.011335507 -0.2618261 -0.26843727 0.49770248 -0.28062385 -0.07032773 -0.20752007
-0.8072441 0.41139567 -1.2837211 -0.21869722 -0.3593808 0.053964816 0.18858929 0.25106224
-0.98573494 -0.3754927 -0.3589612 0.08310558 -0.65330625 -0.0004244012 -1.0668843 0.13415256
-0.5772176 -0.09722398 -0.9329245 -0.2391301 -1.4731396 -0.29781312 -0.00093731657 0.4857299
-0.84558064 0.37851235 -1.3972117 -0.2978164 -0.95224464 0.11459291 -1.0917038 0.10590995
0.5542199 -0.03699383 -0.4316125 0.12245125 -0.87175846 -0.2971604 -1.0330284 -0.09423702
-0.9553297 -0.09458469 -0.57593644 0.009392462 -0.23743658 0.16613673 0.87939054 0.45315048
4.7588816 0.6447235 0.48425192 0.18623751 -0.18735461 0.060595173 -1.377753 -0.25070575
-0.33422405 0.4871743 -0.010224912 0.5462113 0.14439818 -0.052769665 -0.20857786 -0.13802318
-0.7089382 -0.027006399 -1.1249491 0.026632354 -0.9205065 -0.23578818 0.14949986 -6.0121155
-0.0611315 0.5757957 -0.5998386 0.1259215 -0.18216263 -0.09514425 -1.146042 0.014533926
-0.068786 -0.008088479 -1.2679653 -0.0335439 -0.854819 -0.0933258 -0.19385144 0.56386685
0.38168982 1.4831119 -0.23435138 1.243091 0.36445302 0.18989187 -0.050879236 -0.26025543
-1.6075162 -0.4632134 -0.56113744 0.25803846 -0.7601552 0.5237262 -0.3237096 0.028408172
0.49978843 0.10785984 0.26986 0.112798445 -0.06663867 0.02316346 -0.2925244 0.24233754
0.3266587 0.12618132 -0.5067999 1.2256025 0.9168327 0.0994927 0.43751052 0.00019622748
0.39142147 0.30963358 0.86201423 0.34615892 0.93805754 0.3263616 -0.08274074 -0.06561478
0.19901839 0.085340045 0.73912394 0.19829206 -0.2182795 -0.33665746 0.6078003 0.2924053
0.22374314 -1.188753 0.96574694 0.012256016 0.13620302 -0.18932766 0.092933014 0.011145759
0.23325619 -0.17948374 0.58954567 -0.06412726 0.2602608 0.110159464 0.7285176 0.23704588
0.5853523 0.096041106 0.5432482 -0.034434758 0.2987171 -0.11916277 0.07660826 -0.05988944
-0.01949457 0.30549145 0.28344536 -0.54524237 -0.5466928 -0.0006958417 0.20985678 0.030974533
0.038618993 0.1431505 0.78313506 -0.017221222 -0.20956412 0.17631778 0.8585316 0.15788257
0.8727645 0.1251676 0.24379696 -0.094383575 -0.32781774 0.042280644 0.05556532 -0.025883697
0.38080192 0.04038288 0.25153062 -0.019788053 0.34203833 -0.21519427 0.4530771 -0.8250142
0.10305605 -0.13188772 0.11748913 0.056825556 0.16744441 0.13248168 -0.2135472 -3.9862924
1.117226 0.16962054 0.13438317 0.2143282 0.27668402 0.042573575 0.26693717 -0.09799975
0.3720673 0.0964688 0.5727626 -18.199297 0.40954158 -0.009138002 0.48559973 0.024681093
0.89123 0.22275767 0.31621572 -0.08798676 0.29924816 0.10248763 0.25921363 -2.629819
-0.10120907 0.2387619 0.56622577 -0.0036268611 0.5934925 0.15196024 0.45427683 -0.12668225
00000000: de2f e73f ad81 2a3f bf51 43bf d5fa 29bf
00000010: 54f3 40be bbee 863e ca07 a8bf 414e a0be
00000020: 9082 9fbe 5063 38bf 65b7 10c0 d91d bebe
00000030: 71a6 69bf 6c53 8d38 da40 ca3e 3f77 8f3e
00000040: 5e0f d4be 90b8 393c 120e 86be 9c70 89be
00000050: dcd2 fe3e eead 8fbe fc07 90bd 2480 54be
00000060: 8da7 4ebf 74a2 d23e f950 a4bf 2af2 5fbe
00000070: c300 b8be 360a 5d3d 8d1d 413e 3b8b 803e
00000080: 2059 7cbf 9440 c0be c3c9 b7be 4233 aa3d
00000090: 143f 27bf 2a82 deb9 aa8f 88bf 4a5f 093e
000000a0: 88c4 13bf 5e1d c7bd 24d4 6ebf 85de 74be
000000b0: d78f bcbf f67a 98be 40b6 75ba 97b1 f83e
000000c0: f977 58bf 5fcc c13e d5d7 b2bf 647b 98be
000000d0: 4ec6 73bf b0af ea3d f3bc 8bbf 51e7 d83d
000000e0: 5be1 0d3f d886 17bd 50fc dcbe b9c7 fa3d
000000f0: 902b 5fbf 6825 98be 463a 84bf 57ff c0bd
00000100: 7d90 74bf 9eb5 c1bd 9270 13bf d7e2 193c
00000110: 9322 73be bf1f 2a3e bd1f 613f 5703 e83e
00000120: c248 9840 990c 253f deef f73e 0cb5 3e3e
00000130: e3d9 3fbe a532 783d 365a b0bf 815c 80be
00000140: 6a1f abbe e96e f93e 6486 27bc 81d4 0b3f
00000150: 1edd 133e 0125 58bd 6f95 55be f355 0dbe
00000160: f97c 35bf 863c ddbc 55fe 8fbf 182c da3c
00000170: 50a6 6bbf 7572 71be 7e16 193e 4063 c0c0
00000180: 0665 7abd 5967 133f 068f 19bf 91f1 003e
00000190: d788 3abe fdda c2bd 81b1 92bf b41f 6e3c
000001a0: addf 8cbd 8a85 04bc b04c a2bf 5465 09bd
000001b0: 6bd5 5abf 9921 bfbd fe80 46be 9459 103f
000001c0: d96c c33e 9cd6 bd3f cff9 6fbe 9b1d 9f3f
000001d0: 9699 ba3e 0473 423e bf66 50bd 3340 85be
000001e0: 17c3 cdbf 4f2a edbe b4a6 0fbf 9e1d 843e
000001f0: 8899 42bf ec12 063f 44bd a5be 41b8 e83c
00000200: 45e4 ff3e 9fe5 dc3d 172b 8a3e df02 e73d
00000210: db79 88bd 4cc1 bd3c c2c5 95be 5527 783e
00000220: cf3f a73e ad35 013e a3bd 01bf 8be0 9c3f
00000230: 8cb5 6a3f d4c2 cb3d 6101 e03e 6ac2 4d39
00000240: 6568 c83e 4b88 9e3e f7ac 5c3f be3b b13e
00000250: 8a24 703f de18 a73e fa73 a9bd 0b61 86bd
00000260: 7acb 4b3e c3c6 ae3d 3a37 3d3f 130d 4b3e
00000270: a984 5fbe 5e5e acbe cd98 1b3f 26b6 953e
00000280: ec1c 653e 0f29 98bf 313b 773f 75cd 483c
00000290: ce78 0b3e 1cdf 41be aa53 be3d b49c 363c
000002a0: b6da 6e3e 96ca 37be 77ec 163f 2755 83bd
000002b0: e740 853e 499b e13d 2180 3a3f 28bc 723e
000002c0: a6d9 153f 33b1 c43d 5012 0b3f 760b 0dbd
000002d0: 73f1 983e 9c0b f4bd cbe4 9c3d a14e 75bd
000002e0: 14b3 9fbc 6069 9c3e c01f 913e 0195 0bbf
000002f0: 0ff4 0bbf 2569 36ba b2e4 563e 4ebe fd3c
00000300: f32e 1e3d 0b96 123e 8a7b 483f 8513 8dbc
00000310: fa97 56be a68c 343e bac8 5b3f f8ab 213e
00000320: 7f6d 5f3f ef2b 003e e9a5 793e 2d4c c1bd
00000330: bad7 a7be 782e 2d3d 7698 633d 0c0a d4bc
00000340: 78f8 c23e 8568 253d 9fc8 803e 8e1a a2bc
00000350: a61f af3e e35b 5cbe b9f9 e73e 2134 53bf
00000360: 0d0f d33d 930d 07be 249e f03d eac1 683d
00000370: 8c76 2b3e 47a9 073e 1eac 5abe 6a1f 7fc0
00000380: 4301 8f3f 02b1 2d3e be9b 093e da78 5b3e
00000390: 87a9 8d3e a161 2e3d fdab 883e 18b4 c8bd
000003a0: 9b7f be3e 6f91 c53d 92a0 123f 2998 91c1
000003b0: 6faf d13e 8fb7 15bc 87a0 f83e 0130 ca3c
000003c0: a627 643f 961a 643e 07e7 a13e 6732 b4bd
000003d0: 0e37 993e 09e5 d13d a6b7 843e f44e 28c0
000003e0: b346 cfbd 007e 743e 2cf4 103f a2b0 6dbb
000003f0: 20ef 173f 779b 1b3e f996 e83e feb8 01be

gru_cell.weight_hh f4 [192, 64]
1.9566674 -0.84937567 -0.09127842 -5.728596 0.3202905 -2.3924685 -0.51361513 -0.38591313
0.106405795 0.21951512 -0.38513651 0.051906466 -0.08143493 -0.23780178 0.44088453 -0.51229864
0.94813186 1.9195315 2.2847106 -0.15110967 -0.37513104 0.8682899 -0.7930929 0.35888034
-0.27030572 1.3399154 -0.17874917 0.8439086 0.10971708 0.008727074 -0.973236 0.34117863
0.5399139 0.6177999 -2.1398191 -0.057132073 -0.44952902 -0.45636627 -0.9338643 0.7321679
-0.4250318 0.03996851 -0.19108662 0.8151479 -4.102501 0.107235715 0.010230665 -0.0041371356
-0.06016424 -0.052509643 -3.639061 -0.7808091 -0.7667986 2.9911287 -0.09720342 -0.15962476
0.13769552 -0.35369557 -1.5934254 -0.77330744 2.103512 -0.5407679 0.053644188 0.17568484
0.63538253 0.4680195 -0.6860932 1.332765 -0.21532068 1.7311972 -0.38493496 0.3772581
0.6291524 0.7816505 -0.5580855 -0.43180987 -0.2588942 -0.40666956 2.542417 -1.9033288
-0.572979 -0.28470406 -0.81186396 -0.2868934 0.41966116 -0.8601627 -1.0166527 -0.0043465905
0.72971994 -0.3325231 0.6627744 0.20248818 0.05433155 0.42424324 0.022408685 -0.60597324
0.057226963 0.773415 0.8310493 0.85134536 -0.23153396 0.006841841 0.2534219 -0.218269
0.1525316 0.3352916 0.14528148 1.6341101 1.7169023 0.26619148 0.04221429 1.595404
0.25402042 -0.7779518 1.5645996 -0.7395225 -1.4675826 -1.5418006 0.37616563 0.46682915
0.04105269 -0.23629396 -0.49101537 -0.024020834 -0.63031554 0.07643485 0.042723414 0.26850235
-0.11536834 0.32018313 -0.7394058 0.46579662 0.6111779 0.79530215 0.13256396 2.195112
-0.19997384 1.0679984 0.47038743 -0.059609953 -0.09727956 0.9929321 -0.5656437 0.11319338
-0.43442148 -0.38108358 -0.61475056 0.91075313 -0.4752384 -0.56359476 0.445222 -0.9685459
-1.9936439 0.012455046 -0.021463132 -0.5881041 0.81837964 -1.2343643 -1.5505537 -0.6202149
-0.4786495 0.65857786 -0.059380665 -0.8519969 0.34167197 0.3638252 0.17419466 -0.112990886
0.29851252 0.07802186 -1.2563455 -0.0055989935 0.6332654 0.070731916 -0.24324854 1.9230918
-0.8629752 -0.97984964 -0.7632784 -0.13400075 -0.18398644 -0.8320153 0.40183163 -0.018589325
0.31820005 0.102099314 0.012124144 -0.25302327 -0.19465928 -0.063295074 -0.82468903 1.024269
-0.51541376 -1.0705692 0.29706797 -0.03819287 0.6624239 0.67327154 -0.21885306 0.8823282
1.1716702 0.16158268 -0.8963477 -0.816753 -0.00017728754 -1.34035 -1.4535209 0.84215254
0.37412757 0.5842192 -0.8679177 -0.83411086 -2.1978626 -2.2931666 -0.038438287 0.31531554
0.211092 0.98445594 0.53657824 0.5724922 1.5439633 -0.023707356 -0.31767222 0.4965004
0.7280918 0.7832287 -0.25528806 0.027834954 0.2663836 -0.72006917 -0.08559838 0.056095902
0.6291964 0.35099858 -0.09062538 -1.0798683 1.195235 0.41115797 -0.3745203 1.3775064
-0.22319205 0.41617048 0.375654 -0.56634176 0.65938735 -1.0784079 0.77731746 0.39043006
0.049235437 -0.7327818 -0.38469368 0.12205905 -0.07303676 -0.71721756 -0.39986315 0.5848917
00000000: 1474 fa3f af70 59bf 2ef0 babd a950 b7c0
00000010: 1efd a33e 341e 19c0 487c 03bf 6896 c5be
00000020: 48eb d93d 92c8 603e 9d30 c5be e09b 543d
00000030: 5bc7 a6bd 4f82 73be 9ebb e13e 0126 03bf
00000040: c5b8 723f 35b3 f53f b338 1240 7ebc 1abe
00000050: 2d11 c0be 3f48 5e3f 2308 4bbf 2abf b73e
00000060: 8365 8abe 5982 ab3f 060a 37be 650a 583f
00000070: 59b3 e03d 00fc 0e3c ff25 79bf f7ae ae3e
00000080: cc37 0a3f 2228 1e3f ccf2 08c0 5203 6abd
00000090: ab28 e6be d7a8 e9be bb11 6fbf 5b6f 3b3f
000000a0: c59d d9be 05b6 233d 36ac 43be 88ad 503f
000000b0: b047 83c0 669e db3d 859e 273c cf90 87bb
000000c0: c76e 76bd 5a14 57bd 60e6 68c0 1be3 47bf
000000d0: ea4c 44bf a76e 3f40 9612 c7bd ac74 23be
000000e0: 0e00 0d3e 9617 b5be 5df5 cbbf 7af7 45bf
000000f0: f19f 0640 c46f 0abf 02ba 5b3d bae6 333e
00000100: 6ea8 223f 40a0 ef3e cea3 2fbf 0b98 aa3f
00000110: 067d 5cbe df97 dd3f 3216 c5be f927 c13e
00000120: 2210 213f 3f1a 483f b1de 0ebf 2f16 ddbe
00000130: c88d 84be fe36 d0be f6b6 2240 47a0 f3bf
00000140: c0ae 12bf bbc4 91be 51d6 4fbf b1e3 92be
00000150: d4dd d63e 9f33 5cbf ad21 82bf d86d 8ebb
00000160: edce 3a3f 7840 aabe 95ab 293f 1059 4f3e
00000170: c28a 5e3d 6936 d93e 6b92 b73c 1021 1bbf
00000180: d266 6a3d 87fe 453f a6bf 543f c5f1 593f
00000190: 3d17 6dbe 8631 e03b 84c0 813e e981 5fbe
000001a0: 3e31 1c3e 57ab ab3e abc4 143e 852a d13f
000001b0: 74c3 db3f 404a 883e e4e8 2c3d 3336 cc3f
000001c0: f70e 823e d927 47bf cd44 c83f 5951 3dbf
000001d0: bfd9 bbbf b959 c5bf c898 c03e 3b04 ef3e
000001e0: de26 283d 0bf7 71be 5e66 fbbe 57c7 c4bc
000001f0: 5c5c 21bf e089 9c3d bffe 2e3d 2479 893e
00000200: 3c46 ecbd 0bef a33e b349 3dbf e57c ee3e
00000210: 2876 1c3f ec98 4b3f d9be 073e b77c 0c40
00000220: f1c5 4cbe 2cb4 883f 9fd6 f03e 9129 74bd
00000230: 823a c7bd cc30 7e3f 07ce 10bf eed1 e73d
00000240: 7e6c debe 631d c3be 4b60 1dbf 1e27 693f
00000250: 7352 f3be bf47 10bf 23f4 e33e a0f2 77bf
00000260: b92f ffbf 4010 4c3c 73d3 afbc fe8d 16bf
00000270: 5481 513f a6ff 9dbf 8b78 c6bf 67c6 1ebf
00000280: 8c11 f5be 8f98 283f 2439 73bd 781c 5abf
00000290: a1ef ae3e 4c47 ba3e 1660 323e c467 e7bd
000002a0: a2d6 983e edc9 9f3d eecf a0bf c377 b7bb
000002b0: ae1d 223f e5db 903d 2516 79be df27 f63f
000002c0: f1eb 5cbf 6dd7 7abf 3766 43bf 7e37 09be
000002d0: f166 3cbe f4fe 54bf e0bc cd3e a448 98bc
000002e0: 1eeb a23e 7219 d13d 58a4 463c 448c 81be
000002f0: c354 47be d9a0 81bd d21e 53bf 3f1b 833f
00000300: 28f2 03bf 6908 89bf 4b19 983e 2070 1cbd
00000310: 9d94 293f 865b 2c3f 041b 60be 43e0 613f
00000320: 4af9 953f ee75 253e 0b77 65bf b916 51bf
00000330: 43e6 39b9 9790 abbf f90c babf 4f97 573f
00000340: a68d bf3e 648f 153f db2f 5ebf 4a88 55bf
00000350: c8a9 0cc0 3ec3 12c0 7771 1dbd 0a71 a13e
00000360: 8028 583e 4e05 7c3f 315d 093f d98e 123f
00000370: 97a0 c53f ee35 c2bc efa5 a2be 4d35 fe3e
00000380: 3964 3a3f ad81 483f 1eb5 82be 2106 e43c
00000390: 6e63 883e 7456 38bf 344e afbd d1c4 653d
000003a0: 0413 213f 16b6 b33e cd99 b9bd 2039 8abf
000003b0: 76fd 983f 4c83 d23e 20c1 bfbe 2152 b03f
000003c0: 758c 64be 4c14 d53e b955 c03e c6fb 10bf
000003d0: 9ccd 283f 4509 8abf 47fe 463f 73e6 c73e
000003e0: 19ab 493d 9797 3bbf 92f6 c4be 18fa f93d
000003f0: 4c94 95bd 929b 37bf ddba ccbe 76bb 153f

gru_cell.bias_ih f4 [192]
0.6128994 -0.39670563 -0.008254084 -0.11554337 -0.27145383 -0.5788109 0.24373649 0.15724851
-0.13933674 0.3885314 0.13619687 -0.52322274 -0.15091251 -0.34031507 -0.2888575 0.08597792
-0.2154388 0.012927381 -0.569649 -0.7187705 0.31622633 -0.7330141 -0.5778801 0.19792481
-0.4114106 -0.5090201 0.24044393 -0.19463025 -0.15124385 0.101831645 -0.81127465 -0.19127554
-0.28447548 -0.031543143 0.4119994 0.5306177 0.5353377 -0.32782814 -0.09253197 -0.04725508
-0.13947347 0.5127898 -0.45610347 0.26908582 -0.41193053 -0.11617863 -0.32434085 0.0475393
0.69104433 0.19962285 -0.56026447 -0.40546557 -0.041142922 -0.34665325 0.39805666 0.46566308
-0.16044804 -0.0048796367 0.109686956 0.4608059 -0.72068775 -0.05045461 -0.33897343 -0.2820526
0.6829638 0.68792623 0.2827494 1.6301816 0.39848465 1.1314994 0.5910863 1.1766876
0.5334266 1.1142089 0.99162054 0.9306911 0.5072655 0.6129211 -0.038339633 0.43130535
0.4939478 0.43273157 0.4296938 0.90532327 0.52898127 0.29337984 0.43650612 0.9622061
1.0753254 0.4096155 1.0177102 0.6008499 0.31734434 -0.13025787 0.25132957 0.75724375
0.5479773 0.30208206 0.9039763 0.54379016 1.2284883 0.4702633 -0.31051388 0.11708279
1.1561773 0.562002 0.40714845 0.5906229 0.4063112 0.63929236 0.9472649 0.9723663
0.5577609 0.4348735 0.44655064 0.6335147 0.6908872 0.6980519 -0.06653769 0.36975998
1.2339454 0.8142832 0.20889173 -0.34754872 1.2590798 0.8359578 0.6752219 1.0207456
-0.83136374 -0.2047264 0.108409815 0.40888807 -0.30729017 0.4762424 -0.17339449 -0.2324275
-0.08043491 -0.001032579 -0.014913345 0.31310886 0.37564898 0.09031536 0.020049218 0.07550505
-0.49836865 -0.4148701 -0.33314276 0.086820304 0.36806762 -0.7067152 0.20368887 -0.38782853
0.38249576 -0.33478165 -0.19612448 0.15033686 -0.21625777 -0.15453042 -0.03986436 0.2411604
-0.19283278 0.04664316 0.12022052 -0.044176802 1.4179906 -0.31365076 0.09179253 -0.50822645
0.03567705 -0.112856865 0.0149052525 -0.049224053 0.39491528 -0.3839489 0.19376463 -0.59975064
0.45630538 -0.09520088 0.45601743 0.024360787 -0.048333667 -0.5069546 -0.21803504 0.32964772
0.36649477 -0.033942133 -0.1511955 0.08069775 -0.5723773 -0.046638034 -0.26882938 -0.08020105
00000000: fae6 1c3f 001d cbbe 233c 07bc 01a2 ecbd
00000010: fffb 8abe f32c 14bf 0f96 793e c105 213e
00000020: 4aae 0ebe 96ed c63e 3177 0b3e edf1 05bf
00000030: cf88 1abe c73d aebe 21e5 93be 3115 b03d
00000040: fd9b 5cbe 5ecd 533c 84d4 11bf 5801 38bf
00000050: 6be8 a13e d0a6 3bbf f3ef 13bf cdac 4a3e
00000060: 69a4 d2be 244f 02bf ef36 763e 274d 47be
00000070: abdf 1abe 1c8d d03d b2af 4fbf bcdd 43be
00000080: c5a6 91be 6233 01bd 96f1 d23e 90d6 073f
00000090: e40b 093f 17d9 a7be 6781 bdbd 8b8e 41bd
000000a0: 22d2 0ebe 3146 033f 6586 e9be 9ec5 893e
000000b0: 8fe8 d2be 10ef edbd 0110 a6be 92b8 423d
000000c0: 48e8 303f ef69 4c3e 7e6d 0fbf 2f99 cfbe
000000d0: 7b85 28bd 897c b1be 15ce cb3e 646b ee3e
000000e0: 7e4c 24be 5ce5 9fbb 8ea3 e03d c0ee eb3e
000000f0: fe7e 38bf 7ea9 4ebd ed8d adbe 3369 90be
00000100: b7d6 2e3f ef1b 303f 88c4 903e caa9 d03f
00000110: 2e06 cc3e f9d4 903f 6f51 173f b39d 963f
00000120: a58e 083f 669e 8e3f d8da 7d3f c641 6e3f
00000130: 27dc 013f 66e8 1c3f 050a 1dbd 0ed4 dc3e
00000140: bae6 fc3e fe8e dd3e d300 dc3e 44c3 673f
00000150: 516b 073f e235 963e bb7d df3e 2453 763f
00000160: 43a4 893f 1fb9 d13e 5444 823f 4dd1 193f
00000170: f57a a23e 5262 05be 45ae 803e bada 413f
00000180: 3e48 0c3f 80aa 9a3e fe6a 673f d535 0b3f
00000190: 1b3f 9d3f 5ac6 f03e adfb 9ebe 1ac9 ef3d
000001a0: 9efd 933f 5ddf 0f3f c375 d03e 1033 173f
000001b0: 0608 d03e aaa8 233f f47f 723f ffec 783f
000001c0: 6bc9 0e3f bda7 de3e 49a2 e43e 052e 223f
000001d0: fcdd 303f 88b3 323f ea44 88bd 2e51 bd3e
000001e0: ecf1 9d3f dd74 503f b7e7 553e e8f1 b1be
000001f0: 8729 a13f 5501 563f 58db 2c3f cba7 823f
00000200: 41d4 54bf cca3 51be f705 de3d c759 d13e
00000210: 2355 9dbe 0bd6 f33e 538e 31be 7901 6ebe
00000220: 0fbb a4bd 9a57 87ba 1a57 74bc ce4f a03e
00000230: 1055 c03e 42f7 b83d 423e a43c 64a2 9a3d
00000240: 2d2a ffbe db69 d4be b091 aabe d8ce b13d
00000250: 5c73 bc3e 4aeb 34bf d193 503e 7691 c6be
00000260: 7cd6 c33e 8068 abbe dbd4 48be e8f1 193e
00000270: ad72 5dbe 393d 1ebe d048 23bd c0f2 763e
00000280: f575 45be e60c 3f3d 2d36 f63d bcf2 34bd
00000290: b780 b53f d596 a0be b9fd bb3d 211b 02bf
000002a0: 1922 123d 8021 e7bd 2935 743c 299f 49bd
000002b0: 5632 ca3e f394 c4be 3c6a 463e 4289 19bf
000002c0: dca0 e93e aef8 c2bd 1e7b e93e 4690 c73c
000002d0: 86f9 45bd c7c7 01bf 9444 5fbe 96c7 a83e
000002e0: 34a5 bb3e e806 0bbd fed2 1abe dd44 a53d
000002f0: 5287 12bf 8607 3fbd 01a4 89be 7340 a4bd

gru_cell.bias_hh f4 [192]
0.55524015 -0.3893526 -0.06955605 -0.1643298 -0.25478077 -0.5518414 0.28235734 -0.0039775106
-0.12973778 0.30979767 0.13898721 -0.60128564 -0.105351016 -0.32903144 -0.2938248 -0.10579969
-0.019433599 -0.042887032 -0.46003854 -0.8333883 0.4113074 -0.72673166 -0.6170278 0.23861726
-0.41467223 -0.58631784 0.20295745 -0.1411566 -0.19005056 0.046921745 -0.8600943 -0.07998353
-0.29855925 0.13289171 0.4627543 0.39725652 0.5100539 -0.20677416 -0.3041204 -0.07699768
-0.21451004 0.48824555 -0.41798997 0.21697578 -0.23964795 -0.28053027 -0.25964716 0.012460022
0.75740296 0.3099676 -0.34265804 -0.48510092 -0.0022909523 -0.24932106 0.32549986 0.63611233
-0.14283177 0.046188887 0.25305846 0.41444427 -0.8432861 0.10687434 -0.41171885 -0.17116195
0.5884286 0.6318914 0.18910022 1.4942237 0.44239557 1.0270854 0.6320538 1.210382
0.6025568 1.1511161 0.85228384 0.78181046 0.50258374 0.5898094 0.09216339 0.5348929
0.5771848 0.40992802 0.6512506 0.7494672 0.469538 0.47269893 0.4428329 1.0131879
0.969483 0.30604357 1.068174 0.6167664 0.33673206 0.025061874 0.23059557 0.7413008
0.69564956 0.30553752 0.956 0.39655885 1.128498 0.42255774 -0.33100712 0.1943098
1.006249 0.43579924 0.40472767 0.6294109 0.46112648 0.6361613 0.8764005 0.84659135
0.66652226 0.45362765 0.46885356 0.85076624 0.5547548 0.6776083 -0.073889285 0.2770097
1.4592284 0.8740889 0.27948275 -0.38091448 1.2321048 0.8114532 0.6892396 1.1255261
1.1528689 -0.39195698 0.5964206 -0.08196366 -0.65387446 0.03758405 -0.70937246 0.50291073
-0.5095735 -0.013551811 -0.4327152 -0.115584284 0.7308783 0.2624433 -0.07172329 1.641206
-0.77623415 -0.09934109 0.410527 -0.1289739 1.0509613 -0.5577868 -0.2014012 -0.17840981
0.4497346 -0.24860159 -0.7399055 0.71028024 -0.34323987 -1.2247747 0.057913125 0.77875996
0.25397536 0.14580387 0.7403826 0.42050755 0.046917908 -0.44543472 -0.20660897 -1.3768654
0.2700896 -1.8516524 -0.6283941 0.58790267 -0.3378099 -0.3386483 0.19812329 -1.4054922
1.0701048 -0.9041832 -0.09257202 -0.06552518 -0.39477324 0.34070706 -2.2911124 -1.5242829
0.17694952 -0.71338224 -0.9922088 0.38042927 0.6834539 0.38479933 -0.14656022 0.04506668
00000000: 3824 0e3f 3959 c7be 6773 8ebd 1246 28be
00000010: a072 82be 7a45 0dbf 2491 903e c755 82bb
00000020: fbd9 04be cd9d 9e3e aa52 0e3e dbed 19bf
00000030: 46c2 d7bd cf76 a8be 3470 96be 82ad d8bd
00000040: 3633 9fbc 50aa 2fbd 2c8a ebbe f058 55bf
00000050: e296 d23e 160b 3abf 89f5 1dbf 1558 743e
00000060: eb4f d4be ed18 16bf 14d4 4f3e 5b8b 10be
00000070: 9d9c 42be 0431 403d 242f 5cbf 68ce a3bd
00000080: c2dc 98be c414 083e 22ee ec3e 3565 cb3e
00000090: e492 023f 9bbc 53be abb5 9bbe f6b0 9dbd
000000a0: 85a8 5bbe 52fb f93e c802 d6be e62e 5e3e
000000b0: 4666 75be aaa1 8fbe 79f0 84be 1f25 4c3c
000000c0: 29e5 413f 13b4 9e3e e070 afbe 265f f8be
000000d0: cd23 16bb 054e 7fbe eba7 a63e 42d8 223f
000000e0: 7e42 12be 8f30 3d3d e190 813e 0a32 d43e
000000f0: 99e1 57bf efe0 da3d d0cc d2be 1445 2fbe
00000100: 42a3 163f a3c3 213f 7da3 413e b942 bf3f
00000110: ac81 e23e 8977 833f 47ce 213f cced 9a3f
00000120: 2a41 1a3f c657 933f 462f 5a3f bb24 483f
00000130: 54a9 003f c0fd 163f 29c0 bc3d beee 083f
00000140: 62c2 133f 16e2 d13e 5cb8 263f 15dd 3f3f
00000150: 4967 f03e 9805 f23e feba e23e 24b0 813f
00000160: 0a30 783f beb1 9c3e edb9 883f 67e4 1d3f
00000170: 2568 ac3e 8f4e cd3c 3f21 6c3e e4c5 3d3f
00000180: 1716 323f 6a6f 9c3e 6abc 743f c309 cb3e
00000190: 9f72 903f 7d59 d83e c479 a9be 26f9 463e
000001a0: c4cc 803f 1421 df3e 7738 cf3e 1321 213f
000001b0: c518 ec3e 78db 223f c85b 603f 36ba 583f
000001c0: 34a1 2a3f e241 e83e 930d f03e d1cb 593f
000001d0: 6904 0e3f bd77 2d3f 4453 97bd 37d4 8d3e
000001e0: ffc7 ba3f 4ac4 5f3f 5d18 8f3e 3907 c3be
000001f0: 9cb5 9d3f 66bb 4f3f 0272 303f 3d11 903f
00000200: 3591 933f 96ae c8be 05af 183f 90dc a7bd
00000210: 5164 27bf bcf1 193d 6f99 35bf c2be 003f
00000220: 6973 02bf 6a08 5ebc d98c ddbe 74b7 ecbd
00000230: d71a 3b3f f85e 863e a9e3 92bd 0a13 d23f
00000240: 48b7 46bf 5773 cbbd 9830 d23e bc11 04be
00000250: e685 863f 1ecb 0ebf 1e3c 4ebe 10b1 36be
00000260: 9d43 e63e 6a91 7ebe 726a 3dbf edd4 353f
00000270: 23bd afbe 6bc5 9cbf 5036 6d3d d05c 473f
00000280: 0f09 823e 9c4d 153e b789 3d3f c44c d73e
00000290: fe2c 403d 0510 e4be 4d91 53be 203d b0bf
000002a0: 2f49 8a3e f202 edbf 70de 20bf ca80 163f
000002b0: 6bf5 acbe 4f63 adbe d5e0 4a3e 2be7 b3bf
000002c0: 32f9 883f 8d78 67bf 6696 bdbd 1132 86bd
000002d0: b81f cabe 2871 ae3e 96a1 12c0 b41b c3bf
000002e0: 4132 353e 38a0 36bf 6501 7ebf a0c7 c23e
000002f0: d6f6 2e3f 6b04 c53e e213 16be d797 383d

mlp_model.0.weight f4 [256, 3]
0.7469939 -0.34887046 0.16208544 -0.14023554 -0.0745589 -0.0070166644 0.1924227 -0.44452378
-0.111679964 -0.5854603 0.20555358 0.16342 0.073809505 0.21102092 -0.08032206 0.06164846
-0.12337662 0.29465052 0.19883999 0.010995267 -0.31405467 -0.06101001 0.38944513 -0.14519402
-0.0891744 0.08317178 -0.5018287 0.39486122 -0.09827994 0.60433024 0.02878298 -0.80888784
0.38754472 0.33946997 0.54918784 0.6311397 -0.04934388 0.24732651 -0.0036443686 0.009829073
0.36019373 0.32030147 0.69594884 0.17816785 0.47050312 0.092269875 0.1882035 0.30453128
0.16284947 -0.30584773 0.47360605 0.3844981 -0.17740797 -0.18628766 0.15648822 0.29399866
0.24306323 0.07631125 0.5567468 -0.31475967 0.041745607 -0.46843246 0.24149135 -0.29808685
0.6123341 0.25486594 -0.010568827 0.3860134 0.3371266 -0.4930865 -0.4725222 -0.39773956
0.30492306 0.00044435138 0.14869577 -0.017619105 -0.21309969 0.39774612 -0.4481498 -0.03557147
-0.0025479717 -0.22443686 -0.27924317 0.14093338 0.326476 0.35829717 -0.14919995 0.573478
0.4675691 0.18166603 -0.25946274 0.47161788 -0.09833306 -0.35032192 0.13050134 0.11427197
-0.019984864 -0.13467419 -0.00412726 -0.6539392 0.29916918 0.00022039653 0.35821834 0.45607486
0.19238669 0.2929475 -0.36657733 -0.39913043 0.1285736 0.3458531 -0.00365178 0.23404121
0.120375104 0.03225576 -0.23484126 -0.57629484 -0.5139024 0.37510416 0.3587376 0.51737356
-0.35406932 0.33850184 -0.16407542 0.60288364 -0.28268093 0.64401567 0.3055795 0.12573187
-0.20390782 0.35734728 0.2840903 0.2063856 -0.017060682 0.4690181 -0.21314277 -0.18919228
-0.42340827 0.052269224 -0.44119433 -0.22340514 -0.46949434 0.28218758 -0.1908081 0.054592993
-0.51789063 -0.23027097 0.0007174372 -0.56437635 -0.47273603 -0.35531694 0.61729634 -0.17542289
0.26728153 -0.40314007 0.08174131 -0.23255487 0.13971312 0.62751186 0.27118888 -0.044422794
0.50042987 -0.23734452 0.09032999 -0.49524045 -0.0052265967 -0.14572631 0.45114368 -0.6278195
-0.47470623 -0.49843493 -0.49312124 -0.56350994 0.56229556 -0.39096472 -0.500655 -0.2433965
0.38966686 0.05073202 0.22485487 -0.5224091 0.28839895 0.25894278 0.12577042 0.5955266
-0.008115564 -0.08176665 0.4684444 0.58165026 -0.1327508 -0.43753654 0.08440004 -0.34457025
-0.2675245 0.34522387 -0.36290598 -0.13560669 -0.25161624 -0.0093071805 0.600108 0.22796926
0.4775051 -0.022527987 0.36538726 0.06595852 0.52675575 0.5564913 -0.13587137 -0.012250175
-0.4401385 -0.050485596 0.43408167 -0.6083274 -0.5984986 -0.41704714 -0.2752038 0.36995202
-0.01514275 0.25544316 -0.5347926 -0.12564935 0.11437897 0.27082777 0.52233 0.42578024
0.38427263 -0.046819024 -0.29227564 -0.013196264 0.14839819 -0.38166317 -0.40197 0.20762958
0.15792404 -0.56340307 -0.54873294 -0.45056465 0.54108685 0.58280945 -0.36501253 -0.42447945
-0.5469963 -0.33300197 0.32974237 0.04285291 0.5592589 0.35702196 -0.055593506 0.56367403
0.71052355 0.2919167 -0.3410023 0.5403077 0.05535544 -0.5088746 0.26836333 0.40668213
00000000: fe3a 3f3f 269f b2be baf9 253e e899 0fbe
00000010: 56b2 98bd 0cec e5bb 750a 453e 9f98 e3be
00000020: 77b8 e4bd bae0 15bf a37c 523e 9357 273e
00000030: 7029 973d de15 583e e47f a4bd 1883 7c3d
00000040: e2ac fcbd 6fdc 963e b69c 4b3e 7e25 343c
00000050: c6cb a0be a2e5 79bd 5a65 c73e bead 14be
00000060: 11a1 b6bd f755 aa3d d877 00bf 402b ca3e
00000070: fe46 c9bd 63b5 1a3f 49ca eb3c 4613 4fbf
00000080: 436c c63e 02cf ad3e 9397 0c3f 5f92 213f
00000090: cf1c 4abd 2943 7d3e 5cd6 6ebb 1f0a 213c
000000a0: 506b b83e 8efe a33e b429 323f a271 363e
000000b0: c9e5 f03e fdf7 bc3d 6bb8 403e 86eb 9b3e
000000c0: 03c2 263e 1398 9cbe 7e7c f23e efdc c43e
000000d0: 6faa 35be 31c2 3ebe 733e 203e fe86 963e
000000e0: 91e5 783e 1349 9c3d f586 0e3f 2e28 a1be
000000f0: 71fd 2a3d 61d6 efbe 8249 773e d79e 98be
00000100: edc1 1c3f ca7d 823e e028 2dbc 8ca3 c53e
00000110: dc9b ac3e d575 fcbe 6eee f1be 85a4 cbbe
00000120: e01e 9c3e d5f7 e839 b443 183e f155 90bc
00000130: ce36 5abe 61a5 cb3e e473 e5be 64b3 11bd
00000140: dffb 26bb c7d2 65be f6f8 8ebe d750 103e
00000150: dd27 a73e ba72 b73e dfc7 18be 74cf 123f
00000160: 3865 ef3e a906 3a3e 4dd8 84be e677 f13e
00000170: d862 c9bd 655d b3be 25a2 053e 6c07 ea3d
00000180: 4cb7 a3bc 08e8 09be f73d 87bb 8f68 27bf
00000190: b42c 993e 3e1a 6739 6568 b73e a582 e93e
000001a0: 0401 453e 37fd 953e 06b0 bbbe d35a ccbe
000001b0: cca8 033e a813 b13e b452 6fbb 80a8 6f3e
000001c0: 3987 f63d 9e1e 043d 3a7a 70be 0f88 13bf
000001d0: 1c8f 03bf a70d c03e 74ac b73e 9872 043f
000001e0: 9348 b5be 1d50 ad3e 6303 28be 9556 1a3f
000001f0: 8ebb 90be 36de 243f eb74 9c3e dbbf 003e
00000200: 36cd 50be 39f6 b63e 4974 913e bf56 533e
00000210: d8c2 8bbc 2423 f03e 1942 5abe 9fbb 41be
00000220: f8c8 d8be 4118 563d 39e4 e1be 51c4 64be
00000230: 9061 f0be e47a 903e 3363 43be e79c 5f3d
00000240: 7b94 04bf 27cc 6bbe 6512 3c3a f87a 10bf
00000250: 750a f2be 1aec b5be 2207 1e3f 0fa2 33be
00000260: 20d9 883e 6068 cebe fd67 a73d dd22 6ebe
00000270: f510 0f3e 9ea4 203f 45d9 8a3e adf4 35bd
00000280: 2c1c 003f 710a 73be eefe b83d 2890 fdbe
00000290: df43 abbb 4739 15be 4efc e63e c7b8 20bf
000002a0: b20c f3be dd32 ffbe 637a fcbe 3042 10bf
000002b0: 9af2 0f3f 872c c8be ed2a 00bf ef3c 79be
000002c0: 6a82 c73e 61cc 4f3d 5b40 663e 9abc 05bf
000002d0: 07a9 933e 2694 843e f6c9 003e 6e74 183f
000002e0: 24f7 04bc 4675 a7bd f2d7 ef3e 08e7 143f
000002f0: d3ef 07be ca04 e0be eed9 ac3d 836b b0be
00000300: f9f8 88be 2fc1 b03e d0ce b9be 7bdc 0abe
00000310: d8d3 80be 257d 18bc aea0 193f c670 693e
00000320: 8c7b f43e 9d8c b8bc 0a14 bb3e 4315 873d
00000330: 77d9 063f 3776 0e3f dd21 0bbe f5b4 48bc
00000340: d559 e1be fcc9 4ebd f43f de3e 58bb 1bbf
00000350: 3437 19bf 3487 d5be 83e7 8cbe 5a6a bd3e
00000360: 4c19 78bc 72c9 823e 2be8 08bf 39aa 00be
00000370: 853f ea3d f0a9 8a3e 6bb7 053f deff d93e
00000380: 62bf c43e 4ec5 3fbd 27a5 95be 2535 58bc
00000390: b2f5 173e 5b69 c3be 03cf cdbe d99c 543e
000003a0: d7b6 213e 2f3b 10bf c379 0cbf 69b0 e6be
000003b0: ab84 0a3f 0033 153f ece2 babe 5f55 d9be
000003c0: f307 0cbf 3c7f aabe fed3 a83e 8886 2f3d
000003d0: 972b 0f3f 95cb b63e 04b6 63bd f14c 103f
000003e0: dfe4 353f 1b76 953e da97 aebe 9b51 0a3f
000003f0: 63bc 623d 9b45 02bf eb66 893e a438 d03e

mlp_model.0.bias f4 [256]
0.32615328 -0.34325913 -0.2985789 -0.36334282 -0.5331143 0.93788224 -0.3076029 -0.40322572
0.010075229 -0.7712064 -0.3001644 -0.36446464 0.23603311 -0.33488894 -0.083843924 0.0040747467
0.8200046 0.5285576 0.7878647 -0.51354426 -0.24720074 0.6509597 -0.6044747 -0.46251255
-0.38797697 0.5394609 -0.1939652 -0.16667628 0.66568136 0.13389114 -0.24264482 -0.28591126
-0.11498568 -0.18994145 -0.027772065 -0.31609002 0.5016988 0.26822555 0.48262385 -0.592456
-0.6094699 -0.45530826 -0.4769228 0.25862953 -0.5017134 -0.12066444 -0.53139067 -0.5005776
-0.29779202 0.3077884 -0.04443484 -0.33476096 0.2952633 1.0088478 -0.30249754 -0.006861927
0.16527532 0.345155 0.8785452 -0.05620622 0.11367457 0.39901623 0.36973965 -0.07018399
0.050985344 -0.09875409 -0.13061136 -0.23935163 0.58765787 -0.14302057 -0.36509505 -0.48950884
-0.0010460336 0.68985784 -0.21976441 -0.2946186 0.42519104 -0.3338458 0.75993884 -0.26563665
0.47214773 1.0655776 1.0437931 0.731616 -0.3471602 -0.02866778 -0.5655991 -0.31875023
-0.39022478 -0.055102397 0.25342983 0.28523362 1.1840707 -0.40097618 0.04161513 -0.21879955
0.6515209 0.8875244 -0.3623086 0.31539026 -0.46006867 -0.42829317 -0.32232606 -0.627963
0.83250993 -0.08726017 -0.26274982 -0.45455572 0.7728255 -0.2799154 -0.23066346 0.15895537
-0.02474832 0.40223834 -0.41205838 0.21185939 -0.54600036 -0.62685233 0.0005884146 -0.54916507
-0.62914944 0.18220827 0.80556834 0.54940134 -0.23141311 0.039138585 0.28653383 0.5285841
-0.1404099 -0.43505123 -0.26206893 0.34833154 -0.00322654 -0.5569271 -0.66713035 -0.38306984
0.37556836 -0.6087646 -0.034349505 0.43095925 0.17149146 -0.53620416 -0.4916954 0.3201769
0.36922976 -0.1076312 0.68146557 -0.40274283 -0.27392843 0.58888865 0.49462783 -0.48124665
0.23396862 -0.12896676 -0.5257931 0.25717035 -0.062211607 -0.5144102 -0.6354275 -0.18184623
0.49608615 0.028838027 -0.34097427 0.3186503 0.78130716 0.79581815 -0.07945538 -0.21888115
-0.48749962 0.6927401 0.052723855 1.0701716 0.124225944 -0.5742161 0.33789566 -0.11653007
-0.38683945 -0.4385973 0.83309954 0.99900216 -0.6889277 0.28940853 1.0396472 0.2821974
-0.7280486 -0.6161563 0.30757013 0.504291 -0.15184529 0.1986803 0.3919779 -0.53939384
0.74972117 -0.33381867 0.050540708 -0.009152527 0.15821041 -0.043664694 -0.572408 0.64474356
0.8949273 -0.3982597 -0.3762626 -0.5730449 0.20841922 0.32693174 1.0826598 -0.13074796
0.3004964 0.0057927114 -0.073391765 0.08611243 0.3106309 0.23713772 -0.11897738 -0.09771702
-0.112609476 -0.15706176 0.32104227 -0.09332702 0.51697576 0.28794172 -0.350719 0.60764456
-0.5149717 -0.73327804 -0.55640906 -0.69206065 -0.3147235 1.0169827 0.28547022 -0.03575742
0.516105 0.17557825 -0.30405414 -0.57195413 0.5106939 0.057097245 0.94096625 -0.49871626
0.48871174 -0.0026200458 0.11023853 -0.36054322 -0.043799594 0.014981433 -0.19246148 0.33603004
-0.31644565 0.41702485 0.90284216 0.18003687 -0.5537682 -0.7055601 -0.56212217 -0.46989247
00000000: 90fd a63e a9bf afbe 55df 98be 1208 babe
00000010: 2e7a 08bf 0d19 703f 217e 9dbe 9a73 cebe
00000020: 9312 253c c86d 45bf 26af 99be 1c9b babe
00000030: aab2 713e 9076 abbe 5db6 abbd 7485 853b
00000040: d2eb 513f 8d4f 073f 80b1 493f a377 03bf
00000050: 3122 7dbe 4ba5 263f dbbe 1abf 72ce ecbe
00000060: eba4 c6be 1c1a 0a3f d09e 46be 30ad 2abe
00000070: 186a 2a3f c21a 093e e277 78be f662 92be
00000080: 9d7d ebbd 0380 42be 3e82 e3bc 8dd6 a1be
00000090: 556f 003f dc54 893e 791a f73e 32ab 17bf
000000a0: 3806 1cbf 2a1e e9be 3a2f f4be 176b 843e
000000b0: 4a70 00bf eb1e f7bd 3809 08bf db25 00bf
000000c0: 3278 98be 7196 9d3e 4f01 36bd ca65 abbe
000000d0: c02c 973e ed21 813f f5e0 9abe 04da e0bb
000000e0: ef3d 293e 28b8 b03e 57e8 603f 7e38 66bd
000000f0: 37ce e83d db4b cc3e 844e bd3e a0bc 8fbd
00000100: 02d6 503d 963f cabd fcbe 05be 9818 75be
00000110: bf70 163f fc73 12be bded babe e7a0 fabe
00000120: 101b 89ba 869a 303f ec09 61be 40d8 96be
00000130: a4b2 d93e d6ed aabe 5a8b 423f 8701 88be
00000140: 59bd f13e d964 883f 039b 853f 304b 3b3f
00000150: fbbe b1be b1d8 eabc 1acb 10bf 3b33 a3be
00000160: 8bcb c7be 0db3 61bd 8ec1 813e 240a 923e
00000170: a18f 973f c04c cdbe a074 2a3d fd0c 60be
00000180: 13ca 263f cd34 633f 8380 b9be d57a a13e
00000190: 1f8e ebbe 3e49 dbbe ec07 a5be 2fc2 20bf
000001a0: 5f1f 553f 76b5 b2bd 2587 86be 87bb e8be
000001b0: e4d7 453f 1251 8fbe 0b33 6cbe 32c5 223e
000001c0: fdbc cabc 2ff2 cd3e 51f9 d2be abf1 583e
000001d0: aec6 0bbf 6579 20bf d63f 1a3a 1596 0cbf
000001e0: f00f 21bf ce94 3a3e ba39 4e3f 91a5 0c3f
000001f0: 8ff7 6cbe c84f 203d 90b4 923e 4a51 073f
00000200: 9dc7 0fbe 09bf debe e62d 86be 8358 b23e
00000210: 5c74 53bb c692 0ebf 0ec9 2abf bb21 c4be
00000220: 7f4a c03e ffd7 1bbf 11b2 0cbd b1a6 dc3e
00000230: 759b 2f3e ad44 09bf 80bf fbbe 3aee a33e
00000240: af0b bd3e bf6d dcbd 8774 2e3f 4f34 cebe
00000250: 5940 8cbe 68c1 163f dc3f fd3e f665 f6be
00000260: 7895 6f3e dd0f 04be 609a 06bf d5ab 833e
00000270: 99d1 7ebd 63b0 03bf 60ab 22bf e635 3abe
00000280: 01ff fd3e ba3d ec3c 2e94 aebe 2226 a33e
00000290: bf03 483f bdba 4b3f 81b9 a2bd 6122 60be
000002a0: 8d99 f9be 6a57 313f f8f4 573d 62fb 883f
000002b0: 2c6a fe3d d4ff 12bf a900 ad3e 51a7 eebd
000002c0: d20f c6be d38f e0be 0346 553f 9bbe 7f3f
000002d0: 915d 30bf 5b2d 943e 2913 853f 2d7c 903e
000002e0: 6561 3abf 6bbc 1dbf d579 9d3e 3719 013f
000002f0: 557d 1bbe d972 4b3e 54b1 c83e b715 0abf
00000300: baed 3f3f 48ea aabe c603 4f3d 7bf4 15bc
00000310: e901 223e c0d9 32bd 5589 12bf ea0d 253f
00000320: f519 653f b2e8 cbbe 7ea5 c0be 12b3 12bf
00000330: d96b 553e 9963 a73e 9994 8a3f cbe2 05be
00000340: aada 993e c9d0 bd3b 6c4e 96bd b75b b03d
00000350: 030b 9f3e 3bd4 723e 6aaa f3bd dc1f c8bd
00000360: cc9f e6bd ccd4 20be a75f a43e 3d22 bfbd
00000370: 8658 043f 196d 933e 7191 b3be 988e 1b3f
00000380: 2fd5 03bf 1cb8 3bbf d370 0ebf e32a 31bf
00000390: 7023 a1be 7d2c 823f 2729 923e 5f76 12bd
000003a0: 751f 043f c9ca 333e fcac 9bbe 966b 12bf
000003b0: d6bc 023f cdde 693d 2ae3 703f bd57 ffbe
000003c0: 6d38 fa3e 13b5 2bbb bdc4 e13d 1f99 b8be
000003d0: 3467 33bd af74 753c 9f14 45be 210c ac3e
000003e0: 2a05 a2be 4884 d53e aa20 673f 965b 383e
000003f0: c1c3 0dbf 969f 34bf 3de7 0fbf bf95 f0be

fc.weight f4 [70, 64]
-2.731674 4.101824 0.5676012 1.0208572 -2.8055313 0.7448481 1.3812113 -0.68337387
-3.0527744 0.7313409 0.54298913 2.290331 0.6977067 6.236637 1.3908457 3.9291973
-3.5427039 -0.079097524 -2.207474 0.75389224 0.65344834 2.453006 2.75658 1.2330941
-1.2999096 4.742338 -1.4842051 -4.199368 1.4282556 1.6263847 1.5346922 0.45885244
-3.3124342 -1.8851479 -0.32952118 -2.840748 6.1857142 -5.7810264 0.513394 -6.907263
-0.78941375 -0.26445824 -3.0656009 1.0809819 1.6730437 -2.3356903 1.836834 2.5491104
-1.2511926 -5.313856 0.8823967 5.014951 -1.8566849 -0.5570007 -3.0126069 0.2741982
0.044789825 1.1755561 2.821998 1.2403929 -1.9548473 6.778792 1.5511987 2.8297818
-4.758079 0.23926236 0.053832542 0.3290915 -1.4539714 0.43379214 2.7489302 -0.5766077
-2.4752858 -0.22416252 2.654508 3.0239258 0.8492823 2.3667367 3.7691536 1.0894806
-0.58884126 0.49782002 -0.5460984 0.9857547 0.4145561 -2.3934984 1.2469763 0.9882856
-1.8307141 3.2145238 -1.1989483 -4.4562116 0.7421243 1.7697183 -1.7322156 0.8243674
-3.616543 0.15053679 0.10977462 -1.6367269 4.807897 1.5942847 -0.12263874 -2.28885
-0.81715584 -0.8976466 -1.9814934 0.523064 0.44346377 -1.9265035 1.9633046 1.4239233
-1.1608452 -5.550756 -0.6336012 2.34067 0.6163102 -1.3769909 -1.3325032 -0.4437271
0.6763958 1.5878047 5.593166 -1.4455848 0.71519095 1.7961065 1.7189509 2.0944104
-1.0138198 -2.1884964 -1.2564185 -0.10279505 1.3125274 -0.19394046 1.2974163 -0.41704905
-2.0223784 -0.629244 3.6096156 0.5762103 0.85942864 1.9195526 3.6358047 -0.37536612
-0.5409913 -0.1361509 -0.37708908 0.90942496 0.7181319 -0.54954594 -1.3607407 2.1435583
-1.5342733 2.357103 -0.77084714 -3.0446556 -0.97538066 1.087886 -2.004616 0.9155491
-0.5495317 1.4466505 -0.732772 1.5321386 4.962473 4.382127 -0.70236003 -0.14949588
-0.8048604 -0.5291523 -1.0378495 -1.391128 0.3496324 -0.36717403 1.5490113 -0.02023079
-1.2655802 -6.2724133 -0.195356 -3.2742102 -0.13147303 -1.2110916 -1.7774991 -0.4383655
0.2478695 2.534956 -0.40613377 -0.05858591 -0.09642972 -1.1200677 1.1011586 0.009537761
-0.517125 -1.1736475 -1.2641509 0.7632802 1.387078 0.1488233 2.4001622 -0.813972
-3.6518183 3.2672596 2.9577959 0.78548586 0.542765 3.4103918 2.8157074 0.07807204
0.34989312 0.0015145324 2.3506248 1.8118526 -1.0064476 -0.15325812 0.89729387 2.2798703
-1.245037 2.5325303 -1.1598161 -4.0321703 -2.2109962 1.1337386 -1.4285918 0.79728466
0.19958599 0.033324454 0.3362348 1.2264565 4.723529 -1.291825 -1.4212871 0.21666662
-0.5984978 -0.34678987 -2.4399557 -0.24880871 0.6836949 1.0340912 1.7351081 1.2053173
-0.94876796 -5.875401 -0.017003376 -1.5896438 -0.4380101 -1.0983955 -2.7320213 0.12992202
0.08460527 2.845986 -0.66421634 1.3382365 -0.36036134 -0.85743576 0.9129767 -0.1325767
00000000: bfd3 2ec0 2442 8340 504e 113f 73ab 823f
00000010: d38d 33c0 5dae 3e3f 88cb b03f 97f1 2ebf
00000020: a860 43c0 2839 3b3f 5601 0b3f c894 1240
00000030: e89c 323f 8892 c740 3b07 b23f f877 7b40
00000040: a9bb 62c0 e2fd a1bd 4147 0dc0 15ff 403f
00000050: 6448 273f 0dfe 1c40 cf6b 3040 07d6 9d3f
00000060: 7063 a6bf 3cc1 9740 6ffa bdbf 3961 86c0
00000070: 14d1 b63f 602d d03f cb70 c43f b5ee ea3e
00000080: ecfe 53c0 874c f1bf 00b7 a8be d1ce 35c0
00000090: 5ff1 c540 2bfe b8c0 ca6d 033f 4c08 ddc0
000000a0: 0517 4abf 1267 87be ce32 44c0 9d5d 8a3f
000000b0: 4c26 d63f f37b 15c0 601d eb3f a024 2340
000000c0: 1427 a0bf 1c0b aac0 c0e4 613f 7b7a a040
000000d0: daa7 edbf 9997 0ebf 8dce 40c0 b563 8c3e
000000e0: 8975 373d 9f78 963f 9d9b 3440 32c5 9e3f
000000f0: 7038 fabf ddeb d840 ae8d c63f 251b 3540
00000100: 2f42 98c0 3101 753e 837f 5c3d ae7e a83e
00000110: bc1b babf 011a de3e 79ee 2f40 909c 13bf
00000120: 156b 1ec0 dc8a 65be 76e3 2940 0088 4140
00000130: 916a 593f 9d78 1740 d039 7140 1a74 8b3f
00000140: 4dbe 16bf 44e2 fe3e 1bcd 0bbf 6c5a 7c3f
00000150: b240 d43e 142f 19c0 eb9c 9f3f 4900 7d3f
00000160: d754 eabf c2ba 4d40 2377 99bf 4999 8ec0
00000170: dcfb 3d3f 2186 e23f 3eb9 ddbf be09 533f
00000180: 7175 67c0 5126 1a3e 84d1 e03d 4480 d1bf
00000190: 4bda 9940 8511 cc3f 052a fbbd 857c 12c0
000001a0: 2031 51bf 2bcc 65bf 93a1 fdbf 86e7 053f
000001b0: af0d e33e ab97 f6bf 914d fb3f 1e43 b63f
000001c0: 9396 94bf cb9f b1c0 b033 22bf 8acd 1540
000001d0: 81c6 1d3f 3d41 b0bf 778f aabf 3330 e3be
000001e0: 4628 2d3f 2f3d cb3f 37fb b240 ec08 b9bf
000001f0: c116 373f d1e6 e53f 9506 dc3f d20a 0640
00000200: d9c4 81bf 5310 0cc0 52d2 a0bf 3686 d2bd
00000210: e600 a83f 5498 46be bd11 a63f 7487 d5be
00000220: a66e 01c0 2316 21bf f103 6740 8582 133f
00000230: 8403 5c3f e6b3 f53f 06b1 6840 fd2f c0be
00000240: 687e 0abf 246b 0bbe d211 c1be 13d0 683f
00000250: 7ed7 373f 0baf 0cbf c02c aebf 0f30 0940
00000260: 1163 c4bf c7da 1640 3d56 45bf a3db 42c0
00000270: 8cb2 79bf d93f 8b3f a14b 00c0 6d61 6a3f
00000280: 1cae 0cbf d82b b93f f296 3bbf 1e1d c43f
00000290: 94cc 9e40 623a 8c40 decd 33bf 7315 19be
000002a0: 550b 4ebf 8676 07bf 41d8 84bf 7b10 b2bf
000002b0: 0503 b33e 3cfe bbbe 0146 c63f 0bbb a5bc
000002c0: 88fe a1bf 9cb7 c8c0 670b 48be a98c 51c0
000002d0: dea0 06be 0d05 9bbf 1785 e3bf 7171 e0be
000002e0: 81d1 7d3e b83c 2240 c4f0 cfbe c7f7 6fbd
000002f0: f27c c5bd 615e 8fbf c4f2 8c3f 4544 1c3c
00000300: 4e62 04bf 153a 96bf b2cf a1bf 5566 433f
00000310: c68b b13f 2365 183e 429c 1940 7860 50bf
00000320: 64b7 69c0 c81a 5140 874c 3d40 9a15 493f
00000330: a6f2 0a3f dc43 5a40 8d34 3440 3ce4 9f3d
00000340: 3125 b33e 4683 c63a a370 1640 c9ea e73f
00000350: 46d3 80bf b2ef 1cbe 0db5 653f 65e9 1140
00000360: 5f5d 9fbf fa14 2240 db74 94bf 8a07 81c0
00000370: f680 0dc0 591e 913f 19dc b6bf d91a 4c3f
00000380: 4560 4c3e 397f 083d f826 ac3e 87fc 9c3f
00000390: 2627 9740 865a a5bf bcec b5bf dbdd 5d3e
000003a0: 2737 19bf 718e b1be 3c28 1cc0 b6c7 7ebe
000003b0: a106 2f3f 1a5d 843f 0618 de3f d647 9a3f
000003c0: 75e2 72bf 4903 bcc0 aa4a 8bbc 7379 cbbf
000003d0: dc42 e0be 3998 8cbf 70d9 2ec0 470a 053e
000003e0: 8745 ad3d a224 3640 150a 2abf 554b ab3f
000003f0: 4881 b8be e980 5bbf d7b8 693f 30c2 07be

fc.bias f4 [70]
-0.67551655 -0.06731962 0.08927703 -0.26272267 -0.79468906 -0.014251531 -0.0024683424 -0.21465948
-0.14355367 0.20976324 0.13992977 0.029927047 -0.20936812 -0.019503944 -0.24714266 -0.16768725
0.18772973 0.0154706845 -0.37193185 0.48768318 0.8036974 0.29865563 0.20063464 0.110199906
0.100037925 0.17998065 0.048511297 0.10367597 0.50617445 0.023398716 0.21393907 -0.43696558
-0.37464145 0.07414082 -0.046182454 -0.54993105 -0.19564028 -0.3289345 -0.6810791 -0.24005581
-0.008450485 -0.22659494 -0.44792742 -0.18774998 -0.15560713 -0.52320856 0.13591714 -0.28187624
0.023215555 -0.092595644 0.36925 0.06495751 -0.022520969 0.43201706 0.19722764 -0.38875255
-0.4915199 -0.46606842 0.031970996 -0.31266326 -0.0022674946 -0.1537822 -0.1436394 -0.0312742
0.23715179 -0.082806244 -0.45827088 -0.0032078768 0.2687865 -0.22297901
00000000: a7ee 2cbf dede 89bd e0d6 b63d 9683 86be
00000010: be70 4bbf 417f 69bc eac3 21bb b2cf 5bbe
00000020: bcff 12be 2dcc 563e c049 0f3e 9129 f53c
00000030: 9964 56be bcc6 9fbc f712 7dbe 35b6 2bbe
00000040: 393c 403e c178 7d3c da6d bebe 9cb1 f93e
00000050: 1dbf 4d3f 64e9 983e 2b73 4d3e 7db0 e13d
00000060: afe0 cc3d d94c 383e c8b3 463d 1154 d43d
00000070: a694 013f aaae bf3c d812 5b3e f4b9 dfbe
00000080: 01d1 bfbe 24d7 973d d029 3dbd 48c8 0cbf
00000090: ed55 48be 1a6a a8be 335b 2ebf 31d1 75be
000000a0: e773 0abc 8108 68be be56 e5be 8841 40be
000000b0: 7a57 1fbe fff0 05bf dd2d 0b3e 1552 90be
000000c0: 8c2e be3c c9a2 bdbd 560e bd3e 7108 853d
000000d0: e57d b8bc 5731 dd3e 0bf6 493e 930a c7be
000000e0: 7fa8 fbbe 85a0 eebe 05f4 023d 6615 a0be
000000f0: 3f9a 14bb 1579 1dbe 3516 13be 6019 00bd
00000100: ebd7 723e 5296 a9bd 7ba2 eabe 3e3b 52bb
00000110: 629e 893e 9c54 64be
