models/sparsity_granularity/mlp_gru2.pt (torch, 64969 bytes, 9 tensors)

gamma_x_l.weight f4 [1, 256]
-0.049768366 -0.3308098 -0.051869873 -0.17139328 0.008164626 -0.2086268 -0.072703175 -0.4561983
0.030403199 -0.13568321 -0.07588503 -0.035513524 0.038134716 -0.030194206 -0.19078854 -0.42148235
-0.0006252868 0.06483778 -0.2169726 -0.45094103 -0.16727315 -0.43581086 -0.5116129 -0.03139754
-0.049942397 -0.037435517 -0.17305788 0.00390913 -0.21053332 -0.013278118 -0.18095337 -0.03532541
-0.38214305 -0.41253752 -0.043704968 -0.44710344 -0.0138675645 -0.41249922 -0.053575486 -0.0029776245
-0.16166236 0.04415475 -0.4074022 -0.30248344 -0.07815367 -0.36509433 0.017735675 -0.31711337
-0.28991622 -0.0411279 -0.045553442 -0.32324317 -0.41844222 -0.40592602 -0.27349082 0.06146566
-0.05633674 0.01691164 0.018439116 -0.06018541 -0.3677278 -0.009007035 -0.04875663 -0.11622019
-0.13614798 -0.059410088 -0.41846758 -0.11275765 -0.3310483 -0.2106871 -0.2699237 -0.031045675
-0.35826087 -0.04239404 -0.1127526 -0.3260293 0.018012358 -0.04114433 -0.12964274 0.058798555
-0.073778264 -0.061821617 -0.18073818 0.041733883 -0.0562532 0.07601861 -0.052823223 -0.18154813
-0.11193179 -0.0030653998 -0.33393466 -0.3144977 -0.16777144 -0.11546147 0.029657114 -0.30811796
-0.14229293 -0.23616621 0.017117478 0.058609262 -0.21045479 -0.28554797 0.009995975 -0.3073151
-0.24588084 0.06669065 -0.08504234 -0.29350218 -0.09774978 -0.02121418 0.017570175 -0.2714783
-0.04602483 -0.38180998 -0.33080986 0.04524149 -0.015428248 -0.33860934 -0.1897083 -0.107891455
-0.168447 -0.045203365 -0.022059612 0.037083566 -0.19926016 -0.20468284 0.078713365 0.05075062
-0.026696743 -0.09846849 -0.1184485 -0.09302757 -0.031716324 -0.021792471 0.0184711 -0.20087421
-0.28377223 -0.10490835 -0.019260764 -0.30524027 0.04904878 -0.18231197 -0.293523 -0.14153409
-0.16791336 -0.04977291 -0.6056811 0.083340526 -0.112167865 -0.11605369 -0.4969828 -0.062655136
-0.07947035 -0.004154845 -0.43114188 -0.02065508 -0.12091306 -0.086635105 -0.1096661 -0.36111766
0.012889355 -0.10896265 -0.0021078514 0.019120906 -0.38495344 -0.17877704 -0.32055607 -0.025628302
0.030301873 -0.21983886 -0.34541798 -0.3245822 -0.53851074 -0.33537415 -0.23062287 -0.001582861
0.29705495 0.018299218 -0.06245669 -0.43884552 -0.17838493 -0.6345354 -0.3951746 -0.13213447
-0.034796696 -0.03360562 -0.0007072287 -0.09558794 -0.042244412 -0.013970181 -0.16044638 0.058125645
-0.04370842 -0.04599579 -0.22484133 -0.3805815 -0.19961302 -0.04837798 -0.25670516 -0.20626533
-0.029963758 -0.23574692 -0.20988993 -0.17179184 0.038446784 -0.014408767 0.02843073 -0.0899734
-0.26831764 0.03186208 -0.054334555 -0.52692163 -0.023834264 -0.53864956 -0.22654282 -0.31092468
-0.052684337 -0.0058863256 0.05670914 0.011121437 -0.19525535 -0.08909557 -0.17603923 0.44863245
-0.044334948 -0.07133304 -0.17678905 -0.19950934 -0.070378646 -0.18983915 0.010731176 -0.3160955
0.023473062 0.026770674 -0.03747344 -0.33442706 -0.081606805 -0.21973416 -0.36404312 0.049595572
-0.05919817 -0.09519969 0.018887738 -0.23902905 -0.0017674932 -0.15140858 -0.47435713 -0.17447445
-0.27781072 -0.287705 -0.006025322 -0.15107894 -0.38467255 0.05958122 -0.06369358 -0.10163705
00000000: ead9 4bbd e75f a9be 8175 54bd b881 2fbe
00000010: ecc4 053c 44a2 55be 67e5 94bd d392 e9be
00000020: 2110 f93c 8af0 0abe 9c69 9bbd a176 11bd
00000030: 2633 1c3d d759 f7bc 125e 43be 89cc d7be
00000040: 49ea 23ba acc9 843d 112e 5ebe bee1 e6be
00000050: a749 2bbe 9a22 dfbe 10f9 02bf b59a 00bd
00000060: 6690 4cbd fc55 19bd 1636 31be 2918 803b
00000070: 0c96 57be 778c 59bc d74b 39be 61b1 10bd
00000080: 41a8 c3be 1e38 d3be fb03 33bd beea e4be
00000090: c834 63bc 1933 d3be f871 5bbd 4024 43bb
000000a0: d18a 25be 9cdb 343d 0597 d0be 1cdf 9abe
000000b0: 080f a0bd a5ed babe 684a 913c af5c a2be
000000c0: e66f 94be bb75 28bd 3f96 3abd 2180 a5be
000000d0: 0f3e d6be 89d5 cfbe fd06 8cbe 6ac3 7b3d
000000e0: 5ac1 66bd 488a 8a3c a10d 973c fa84 76bd
000000f0: d146 bcbe 3e92 13bc 08b5 47bd da04 eebd
00000100: 606a 0bbe fe57 73bd 6241 d6be 7ced e6bd
00000110: 2a7f a9be 5cbe 57be 7033 8abe 8053 febc
00000120: f86d b7be 5fa5 2dbd d6ea e6bd 50ed a6be
00000130: a78e 933c f586 28bd 11c1 04be c1d6 703d
00000140: 0f19 97bd aa38 7dbd 6e13 39be 26f1 2a3d
00000150: c169 66bd a5af 9b3d 2a5d 58bd c1e7 39be
00000160: 7f3c e5bd e0e4 48bb 7cf9 aabe d805 a1be
00000170: 47cc 2bbe 1077 ecbd 7af3 f23c a3c1 9dbe
00000180: 3db5 11be 8ed5 71be f439 8c3c 4410 703d
00000190: 7681 57be 5833 92be 28c6 233c 6858 9dbe
000001a0: 30c8 7bbe 1c95 883d ae2a aebd eb45 96be
000001b0: 0931 c8bd 5cc9 adbc 54ef 8f3c 34ff 8abe
000001c0: 8884 3cbd 997c c3be e95f a9be 244f 393d
000001d0: c3c6 7cbc 345e adbe e542 42be 32f6 dcbd
000001e0: 5f7d 2cbe 2a27 39bd 5cb6 b4bc f0e4 173d
000001f0: db0a 4cbe 6198 51be 7934 a13d e2df 4f3d
00000200: 21b3 dabc d9a9 c9bd 2195 f2bd 3d85 bebd
00000210: fae8 01bd 2086 b2bc b450 973c f8b1 4dbe
00000220: 984a 91be 30da d6bd c0c8 9dbc 7448 9cbe
00000230: 60e7 483d fdaf 3abe a648 96be 50ee 10be
00000240: 7bf1 2bbe aede 4bbd eb0d 1bbf 70ae aa3d
00000250: 44b8 e5bd 8fad edbd 8874 febe 5651 80bd
00000260: 5ac1 a2bd 5e25 88bb a1be dcbe d834 a9bc
00000270: 44a1 f7bd bf6d b1bd 9f98 e0bd 6ae4 b8be
00000280: e02d 533c cf27 dfbd e123 0abb 72a3 9c3c
00000290: 9e18 c5be 5411 37be ed1f a4be 72f2 d1bc
000002a0: a23b f83c 701d 61be a0da b0be a32f a6be
000002b0: d7db 09bf 29b6 abbe 6728 6cbe 0078 cfba
000002c0: 9617 983e 3ee8 953c 96d2 7fbd 5cb0 e0be
000002d0: 8aaa 36be e970 22bf 5354 cabe 424e 07be
000002e0: fb86 0ebd 0ca6 09bd 5165 39ba 9cc3 c3bd
000002f0: 7a08 2dbd 30e3 64bc 0e4c 24be 2815 6e3d
00000300: 9a07 33bd 1566 3cbd ce3c 66be 94db c2be
00000310: 5b67 4cbe fd27 46bd dc6e 83be 3837 53be
00000320: 8e76 f5bc a467 71be 63ed 56be 33ea 2fbe
00000330: 607a 1d3d c012 6cbc 90e7 e83c f943 b8bd
00000340: ee60 89be d081 023d e98d 5ebd 56e4 06bf
00000350: 1340 c3bc f0e4 09bf d7fa 67be 8531 9fbe
00000360: 88cb 57bd 14e2 c0bb d847 683d b036 363c
00000370: 05f1 47be bd77 b6bd a143 34be 27b3 e53e
00000380: 9098 35bd 0f17 92bd 3008 35be 2d4c 4cbe
00000390: ae22 90bd 3265 42be d0d1 2f3c 45d7 a1be
000003a0: 944a c03c 2c4e db3c c07d 19bd 063a abbe
000003b0: 7821 a7bd fe01 61be dc63 babe ba24 4b3d
000003c0: c879 72bd 0ef8 c2bd 75ba 9a3c 08c4 74be
000003d0: 3bab e7ba da0a 1bbe f0de f2be 6ea9 32be
000003e0: 353d 8ebe 124e 93be 1070 c5bb 70b4 1abe
000003f0: cdf3 c4be 700b 743d c871 82bd 1627 d0bd

gru_cell.weight_ih f4 [192, 2]
1.3286331 -0.6216594 -1.3246325 -0.3449163 0.13996173 0.13015729 0.15650955 -0.18799698
0.0964128 -0.04308664 -0.6034404 -0.1722761 -0.48698515 0.5782854 0.95380217 -0.063839644
0.63230914 -0.07831343 3.5675585 0.92099005 0.14805226 -1.1492527 -0.17699926 0.61824757
0.19915865 0.10955016 -0.3862124 -5.092648 -0.17334074 -0.03480847 0.47416884 0.2726691
-0.8161653 0.40096793 -0.37258622 0.24713513 -0.8279058 0.13129488 -0.04242393 -0.3626533
0.7752654 -0.11216724 -0.82907325 -0.10073923 0.93516684 0.5006323 -0.12421276 1.232002
-1.0427423 0.03489085 0.9061873 -0.10982161 0.69091713 -0.040983424 -1.1025946 -0.8794107
-1.7694108 0.14461459 -0.48451313 -0.9577091 -0.9834999 0.08761502 -2.3294535 -0.3725325
-0.7771333 0.16082266 0.55700535 0.34433702 -0.4610517 -0.06703862 0.2050748 -0.37860507
-1.0817691 0.097796485 0.21046503 0.37887233 -1.3977597 -0.4716737 1.5625873 0.451791
-0.028363755 0.101313695 -2.0046036 -0.09391449 -4.3862185 -1.6189332 0.10793882 0.1656733
-2.3925498 0.27172697 -0.78752416 -0.035789818 -1.1294404 0.00958942 0.3577407 0.85259485
1.2029183 -0.21462671 -2.9751575 -0.047315523 -0.31077632 0.030281337 -1.2459043 -0.016899284
-0.26373193 -0.20665881 -0.9281532 -0.10776435 -2.018447 0.33298522 1.5274141 0.72157335
0.50294864 -0.13228044 1.4316705 -0.7071355 -0.009490504 -0.31559333 -0.5521443 0.41745958
-0.85006416 -0.3628282 -0.6891236 0.0104662785 0.24672385 0.041771326 -1.396979 -0.46769357
0.13125686 0.42148876 -0.44337398 -0.3621961 0.7267166 0.5812463 -1.9244503 -0.30850473
0.8421915 -0.028857904 2.0227847 0.018708557 0.8679791 0.38474765 0.34412453 0.12135954
0.3765996 -1.1056105 0.20391099 0.081113935 1.1138426 0.26067606 0.15365364 0.031619765
-0.008741337 0.087800115 -0.75121665 -4.8144097 -0.11530451 -0.059338845 -0.057012483 0.06744711
-0.37358445 0.3274587 0.03790028 -0.14240825 -0.24961303 -0.118072264 0.6099416 -0.27032152
-2.466531 -0.018230913 0.19554886 0.07132407 -0.49480662 0.2211135 0.75487524 -1.2646849
1.1275611 0.200472 -0.6716137 -1.2834982 0.19534343 0.15527715 -1.1261588 -7.14487
1.0108691 0.049086846 2.3973563 -0.09301059 0.30126932 -0.2339074 -0.20986226 -0.52998096
0.88300776 0.36487928 0.27132055 0.017260732 -0.66226244 0.5703774 0.4533695 -0.18622011
0.3779713 -0.4798227 0.23391452 0.11409095 1.7683548 -2.1432898 2.619062 0.2798818
-0.17591009 0.010951481 0.9522959 0.22124006 0.32749465 2.9929821 0.77563465 0.04766769
2.031042 -1.059617 -0.061474692 -0.08073482 -0.0017782722 -0.02436863 -0.005119116 0.17062856
0.6995495 0.15944555 -0.54335904 0.80441684 2.5126703 0.24478042 -1.028534 -0.50975364
0.7840667 0.2747875 -0.32399398 -0.6919728 -0.51110643 -0.21275511 0.35467952 0.1272553
0.32670045 0.086565636 -0.07529771 -0.38532624 -0.031078342 0.14662845 0.26154923 0.15949069
0.99608743 0.16920257 1.2829 0.14084987 -0.3631216 -0.1999702 -1.3456467 -0.28418013
00000000: a610 aa3f 1225 1fbf 8f8d a9bf df98 b0be
00000010: 2152 0f3e f447 053e 0a44 203e 4882 40be
00000020: 1374 c53d 9e7b 30bd 127b 1abf 2569 30be
00000030: 1e56 f9be 830a 143f 612c 743f 5cbe 82bd
00000040: 03df 213f cb62 a0bd e152 6440 01c6 6b3f
00000050: 039b 173e b61a 93bf 4b3f 35be 7945 1e3f
00000060: 3ff0 4b3e d65b e03d a2bd c5be f9f6 a2c0
00000070: 3c80 31be 5493 0ebd 42c6 f23e 499b 8b3e
00000080: 36f0 50bf ab4b cd3e 9fc3 bebe fe10 7d3e
00000090: a2f1 53bf 2a72 063e b7c4 2dbd b1ad b9be
000000a0: cb77 463f f0b7 e5bd 253e 54bf 5f50 cebd
000000b0: 1867 6f3f 7029 003f 4263 febd 3eb2 9d3f
000000c0: 9478 85bf b5e9 0e3d e4fb 673f 27ea e0bd
000000d0: f2df 303f 3cde 27bd d221 8dbf 0f21 61bf
000000e0: 0e7c e2bf d915 143e 1b12 f8be 6c2c 75bf
000000f0: a6c6 7bbf 816f b33d c415 15c0 94bc bebe
00000100: 35f2 46bf b2ae 243e e797 0e3f f14c b03e
00000110: f80e ecbe 8b4b 89bd 21ff 513e 86d8 c1be
00000120: 6977 8abf 8649 c83d 2584 573e 8efb c13e
00000130: cae9 b2bf 377f f1be dc02 c83f 2651 e73e
00000140: 1b5b e8bc 8e7d cf3d 6d4b 00c0 3d56 c0bd
00000150: e75b 8cc0 3439 cfbf 070f dd3d 43a6 293e
00000160: 891f 19c0 cc1f 8b3e 2f9b 49bf 5898 12bd
00000170: 8191 90bf f11c 1d3c ca29 b73e a843 5a3f
00000180: 3af9 993f 1bc7 5bbe fb68 3ec0 eccd 41bd
00000190: 131e 9fbe 9110 f83c cb79 9fbf 5e70 8abc
000001a0: df07 87be 5e9e 53be 739b 6dbf 8eb3 dcbd
000001b0: 3c2e 01c0 0a7d aa3e 4e82 c33f 08b9 383f
000001c0: 3ec1 003f 8674 07be fb40 b73f d506 35bf
000001d0: 0f7e 1bbc 7395 a1be 5459 0dbf 43bd d53e
000001e0: ce9d 59bf 9ec4 b9be 676a 30bf c17a 2b3c
000001f0: 2da5 7c3e 6918 2b3d 35d0 b2bf 8875 efbe
00000200: 3368 063e 60cd d73e ea01 e3be c471 b9be
00000210: 190a 3a3f 8fcc 143f 6354 f6bf 55f4 9dbe
00000220: dd99 573f 6967 ecbc 4e75 0140 b042 993c
00000230: e133 5e3f a5fd c43e 1731 b03e 5a8b f83d
00000240: aad1 c03e a584 8dbf 0bce 503e 101f a63d
00000250: 6592 8e3f 5577 853e 6157 1d3e ba83 013d
00000260: d337 0fbc 8cd0 b33d bc4f 40bf a50f 9ac0
00000270: c524 ecbd 4a0d 73bd ec85 69bd b621 8a3d
00000280: 7646 bfbe aba8 a73e 533d 1b3d 78d3 11be
00000290: 8f9a 7fbe dfcf f1bd 2225 1c3f 9567 8abe
000002a0: a5db 1dc0 ff58 95bc f63d 483e 5b12 923d
000002b0: 4b57 fdbe 946b 623e 813f 413f 32e1 a1bf
000002c0: ec53 903f 8848 4d3e e0ee 2bbf ab49 a4bf
000002d0: 1c08 483e f900 1f3e f925 90bf c6a2 e4c0
000002e0: 2964 813f 4a0f 493d 496e 1940 567c bebd
000002f0: f93f 9a3e 6c85 6fbe 22e6 56be d5ac 07bf
00000300: cc0c 623f 75d1 ba3e 87ea 8a3e 6166 8d3c
00000310: 088a 29bf 4104 123f 0c20 e83e 7cb0 3ebe
00000320: 7485 c13e 52ab f5be 4a87 6f3e 84a8 e93d
00000330: 7359 e23f a92b 09c0 b69e 2740 ab4c 8f3e
00000340: c621 34be d76d 333c aac9 733f c18c 623e
00000350: 61ad a73e 058d 3f40 fe8f 463f 323f 433d
00000360: 98fc 0140 88a1 87bf e3cc 7bbd 4c58 a5bd
00000370: ea14 e9ba b9a0 c7bc 42be a7bb 41b9 2e3e
00000380: ad15 333f b245 233e 9419 0bbf 43ee 4d3f
00000390: 97cf 2040 b8a7 7a3e 01a7 83bf 377f 02bf
000003a0: 98b8 483f f2b0 8c3e 8ae2 a5be 2125 31bf
000003b0: dfd7 02bf 7adc 59be 8e98 b53e 374f 023e
000003c0: 4845 a73e 5349 b13d b035 9abd 7b49 c5be
000003d0: 0298 febc c525 163e c8e9 853e 8751 233e
000003e0: 96ff 7e3f 7043 2d3e 1136 a43f f33a 103e
000003f0: 13eb b9be fdc4 4cbe 273e acbf 0f80 91be

gru_cell.weight_hh f4 [192, 64]
-0.60209125 -0.708264 -0.76523346 0.354101 1.2691894 0.53678477 2.0162604 -0.8050952
-1.4925096 0.20717408 -0.8777637 0.45570165 -2.2575667 1.1988184 0.5910717 -0.21254943
-0.8532938 1.8196943 0.6581932 -0.98574054 -1.5967664 1.8121327 0.52842426 -1.0809414
-0.57706904 0.39453298 1.7048211 0.6338222 0.0035502468 -0.083431885 -0.84105504 0.941275
-0.14152253 -1.6658444 1.6821532 0.5144794 0.5011579 0.6188518 -1.5560114 -0.19607544
-0.93849283 1.4653842 0.30227607 0.092159726 0.9168292 1.1188706 0.77784175 1.1022242
-1.628427 0.14464842 -0.6921458 1.1882755 0.5206652 -0.17317536 -1.251601 1.1023414
0.12681551 -1.4653938 0.6845446 -1.1821971 -1.0619092 -0.31596708 -0.2794551 0.40152824
0.8808608 1.5444338 0.6434179 -0.6772285 -0.25616163 -0.5473641 -0.36553645 -0.09275821
0.3824441 0.4100487 0.17445104 0.48338768 0.35428464 -0.8028323 0.4994503 0.2491203
1.8236177 -0.49719688 0.29535675 -0.3109046 -0.9322218 -0.29171017 -0.63128704 -0.19806859
0.8140137 0.57725704 -0.5872817 -1.8377377 -0.18887983 -1.3492723 -0.37831527 -1.6156933
-0.9693788 1.2463282 -0.38184693 -0.07218728 0.009827632 -1.170324 0.671623 0.506152
0.44287217 0.07610613 -0.716117 -0.34140068 0.013300873 0.38296536 -0.5744046 -0.58797693
0.035918705 0.24072823 0.6817591 0.350323 -0.8427976 0.025724273 -0.2836489 0.60951823
0.69592136 -0.20410979 0.1660001 0.07258456 0.75016946 -0.5737458 0.27982706 0.22036478
-0.54734224 0.09506557 -0.48778585 0.59344083 -0.75204116 0.51475674 1.55292 -0.088081345
-0.7633054 -2.676851 1.8849686 -0.24317464 -1.90011 -0.10695427 1.9602542 2.5737917
-0.9101341 0.16991915 -0.29813635 -0.14369048 -0.4397554 0.9759728 0.43635595 -0.16061108
-0.2947937 -0.75916094 1.2758725 0.25022608 -0.04243476 -0.51676744 0.23751923 0.44032177
-0.8558592 -0.15813306 0.2998622 -0.1673874 -0.39905936 0.084874354 -0.68986726 -0.4441143
0.770685 0.55874586 0.019846743 0.6122816 0.40664104 -1.2184383 0.59104776 -0.44785947
0.35355863 0.44761175 -0.34948683 0.8027347 0.41723278 -0.14704427 -1.2926141 1.9481019
-0.21184275 -1.0746583 -0.18602067 0.55854315 -0.7580293 -0.04416726 0.3293733 0.6694624
-0.22412361 -0.12838311 -0.64145166 -0.3537932 0.52681667 1.887275 1.284194 -0.19182143
-0.9395237 -0.14785503 -0.8934417 -0.26704586 -1.6342987 0.9383142 0.13554291 0.18716627
-0.902474 1.1506877 -0.21962063 -0.5681826 -1.2506714 0.85872763 0.8433111 -0.67926806
-0.22228731 0.9979678 1.5931066 -0.4677934 -0.5158466 1.3467646 -1.3457296 0.5930374
0.115796454 -1.0125299 0.83941424 -0.08316876 0.2789389 0.18328856 -0.47549316 -0.7220259
-0.3790367 1.8069139 -0.05517965 -0.28695562 0.651917 -1.0090754 0.5932085 0.1411673
-1.0948462 0.36409506 -2.3582227 1.8095149 0.8547474 -0.30097145 -1.3821925 1.2138473
-0.23350982 -1.9594522 0.18833886 -1.1771554 0.110600844 -0.5677346 0.6298435 -0.16297917
00000000: a722 1abf ca50 35bf 57e6 43bf ba4c b53e
00000010: cc74 a23f ba6a 093f 690a 0140 b81a 4ebf
00000020: 8e0a bfbf 7125 543e 1fb5 60bf ba51 e93e
00000030: f97b 10c0 e272 993f 7a50 173f 8fa6 59be
00000040: 7671 5abf beeb e83f 597f 283f 7e59 7cbf
00000050: d762 ccbf f7f3 e73f d046 073f 4a5c 8abf
00000060: ccba 13bf 3a00 ca3e 9437 da3f 2c42 223f
00000070: 42ab 683b 56de aabd 624f 57bf 66f7 703f
00000080: 48eb 10be 643a d5bf cc50 d73f ecb4 033f
00000090: e24b 003f 126d 1e3f 622b c7bf 00c8 48be
000000a0: 1141 70bf b691 bb3f eec3 9a3e 3dbe bc3d
000000b0: 52b5 6a3f 2737 8f3f a320 473f af15 8d3f
000000c0: 4c70 d0bf b71e 143e 7830 31bf 6919 983f
000000d0: 514a 053f e254 31be 7634 a0bf 8619 8d3f
000000e0: eddb 013e 0692 bbbf 513e 2f3f 3c52 97bf
000000f0: a4ec 87bf 70c6 a1be bd14 8fbe 1c95 cd3e
00000100: 1880 613f 02b0 c53f 09b7 243f d95e 2dbf
00000110: 9e27 83be 0e20 0cbf 9827 bbbe 04f8 bdbd
00000120: b7cf c33e e7f1 d13e 4ba3 323e 977e f73e
00000130: cc64 b53e 6b86 4dbf f3b7 ff3e 6419 7f3e
00000140: 4e6c e93f 9790 febe 0039 973e e32e 9fbe
00000150: 16a6 6ebf 095b 95be 079c 21bf 7ed2 4abe
00000160: 3463 503f 1ec7 133f 1858 16bf fd3a ebbf
00000170: b769 41be f4b4 acbf 8ab2 c1be 0acf cebf
00000180: 3629 78bf af87 9f3f 7181 c3be edd6 93bd
00000190: 1404 213c 2dcd 95bf 7cef 2b3f 2d93 013f
000001a0: 24c0 e23e 88dd 9b3d 7253 37bf 12cc aebe
000001b0: e8eb 593c 0914 c43e 2e0c 13bf a885 16bf
000001c0: 7e1f 133d 7681 763e c487 2e3f 895d b33e
000001d0: 95c1 57bf b6bb d23c 6e3a 91be 6309 1c3f
000001e0: e727 323f 2802 51be eefb 293e 37a7 943d
000001f0: 1b0b 403f 01e1 12bf 7e45 8f3e 4ea7 613e
00000200: 9f1e 0cbf bdb1 c23d 11bf f9be bdeb 173f
00000210: c585 40bf 19c7 033f 15c6 c63f fe63 b4bd
00000220: fc67 43bf 8751 2bc0 a746 f13f c602 79be
00000230: ce36 f3bf d70a dbbd 9ce9 fa3f 01b9 2440
00000240: 8cfe 68bf 49ff 2d3e 54a5 98be 9923 13be
00000250: 9f27 e1be 5ad9 793f 0c6a df3e 3b77 24be
00000260: 33ef 96be 5f58 42bf ca4f a33f a21d 803e
00000270: 12d0 2dbd df4a 04bf 3e38 733e db71 e13e
00000280: 9719 5bbf a2ed 21be 8a87 993e 9a67 2bbe
00000290: 8251 ccbe 9bd2 ad3d 249b 30bf f362 e3be
000002a0: 9d4b 453f f809 0f3f a395 a23c 7dbe 1c3f
000002b0: 4133 d03e c9f5 9bbf e84e 173f d64d e5be
000002c0: a305 b53e 5e2d e53e f0ef b2be 0580 4d3f
000002d0: 899f d53e c692 16be 6174 a5bf 675b f93f
000002e0: 4eed 58be 678e 89bf 347c 3ebe affc 0e3f
000002f0: 350e 42bf bbe8 34bd 9ea3 a83e e361 2b3f
00000300: a980 65be dd76 03be 2d36 24bf 6224 b5be
00000310: 75dd 063f 3a92 f13f 7860 a43f d66c 44be
00000320: a084 70bf 4f67 17be 98b8 64bf 3cba 88be
00000330: b330 d1bf 5c35 703f c3cb 0a3e 84a8 3f3e
00000340: 8908 67bf bc49 933f 3be4 60be 6a74 11bf
00000350: 0016 a0bf 93d5 5b3f 3ce3 573f 83e4 2dbf
00000360: 499f 63be d17a 7f3f ebea cb3f 9e82 efbe
00000370: 860e 04bf c862 ac3f de40 acbf 4dd1 173f
00000380: b126 ed3d 949a 81bf dae3 563f 6254 aabd
00000390: 14d1 8e3e ffaf 3b3e d773 f3be b0d6 38bf
000003a0: 1911 c2be f448 e73f 0f04 62bd d9eb 92be
000003b0: 08e4 263f 6229 81bf 83dc 173f 298e 103e
000003c0: ec23 8cbf ab6a ba3e 1fed 16c0 2f9e e73f
000003d0: bad0 5a3f ee18 9abe afeb b0bf 595f 9b3f
000003e0: 331d 6fbe 54cf fabf e7db 403e 07ad 96bf
000003f0: b282 e23d 0e57 11bf 6c3d 213f 03e4 26be

gru_cell.bias_ih f4 [192]
-0.7308673 0.06614539 -0.7463042 -0.27700454 0.93927604 -0.081054576 0.1698026 0.1168067
0.12099922 0.76451474 -0.83973926 0.3706992 -0.2822897 0.089995645 -0.4092077 -0.07186914
-0.046383295 -0.7606868 0.3470564 -0.29902965 0.16564292 0.38417244 -0.47928858 1.0565442
-0.22476694 0.038207766 -0.46238726 -0.038335737 -0.07191449 -1.2146984 0.16958703 -0.55525726
-0.08390423 -0.2770884 -0.057133514 -0.33757037 -0.5863696 -0.50830835 -0.6343869 0.9087218
-0.19245286 -0.3865978 -0.826784 0.05901708 0.49897712 -0.23265052 -0.14774935 -0.39274663
0.32585502 0.1590352 -0.5668008 -0.36953944 -0.055083066 0.20398843 -0.06080068 -0.17389113
-0.5213544 -0.48828942 0.08779241 0.010745734 -0.3755522 -0.37209964 -0.21820869 -0.507371
0.5997176 0.4067522 0.9795591 0.16576642 0.38044116 0.681868 -0.6930072 0.16193955
0.1286458 0.34688857 0.84964806 0.20788805 0.39537755 0.92354196 0.10531477 0.39336142
0.1265171 0.27165067 0.37410158 0.15626109 0.010290707 0.22327639 0.88103074 -0.87151295
0.2761152 0.43495312 0.5328327 0.32852015 0.017528357 0.5318853 -0.13729353 0.51739275
0.80513406 0.59841096 0.23664862 0.45966256 0.8372844 0.576085 -0.4487575 0.6167013
0.5040985 0.11061592 1.8358464 0.3145281 -0.37447843 0.34533367 0.33047238 0.33743882
0.60241145 -0.12495531 0.7292391 0.12943985 0.76256675 0.18972926 0.40945983 0.6343537
0.4196921 0.028825834 0.4563144 0.61257356 0.11452794 0.615909 0.3928262 0.39125398
-0.23546632 0.39648253 -0.31348774 0.53529274 -0.06839115 0.18560697 -0.15751944 0.2292562
0.2237283 -0.13260207 0.45031533 -0.025654601 0.073804416 -0.9303018 -0.21306986 -0.18749528
0.3546843 -0.24565741 -0.1539643 0.51439595 -0.2808607 -0.26143467 0.24340214 1.2273481
0.21514992 0.089373514 0.09020589 0.2937948 -0.44223225 -0.23200913 0.55454886 -0.43110386
0.017529285 0.55822635 -0.19804728 -0.3343636 -0.006192402 -0.010377972 0.27642038 -0.4699752
0.19109856 -0.40143198 0.14791939 -0.19357358 0.4295173 -0.24249329 -0.69453555 -0.20476614
0.2605268 0.35623392 -0.0924764 -0.36331168 0.417339 -0.33759096 -0.10076738 -0.051672768
0.28795072 0.112252295 -0.40732926 -0.07395228 0.06146449 -0.21914034 0.07215927 0.027498275
00000000: 1f1a 3bbf 3c77 873d cb0d 3fbf 8ad3 8dbe
00000010: 6574 703f f1ff a5bd bce0 2d3e 5a38 ef3d
00000020: 70ce f73d 3db7 433f 27f9 56bf 49cc bd3e
00000030: 4788 90be a34f b83d ac83 d1be 2130 93bd
00000040: 69fc 3dbd 5fbc 42bf 60b1 b13e 6a1a 99be
00000050: 4c9e 293e 40b2 c43e 5065 f5be d73c 873f
00000060: 4e29 66be bf7f 1c3d 06be ecbe ef05 1dbd
00000070: e747 93bd 3d7b 9bbf 39a8 2d3e 5725 0ebf
00000080: fbd5 abbd 88de 8dbe d504 6abd 06d6 acbe
00000090: 511c 16bf 7f20 02bf 2e67 22bf fea1 683f
000000a0: 5d12 45be 26f0 c5be 1ea8 53bf e5bb 713d
000000b0: ee79 ff3e f03b 6ebe 9b4b 17be 1616 c9be
000000c0: 78d6 a63e 20da 223e db19 11bf 4634 bdbe
000000d0: c89e 61bd 58e2 503e 220a 79bd 8410 32be
000000e0: 7b77 05bf 1201 fabe 82cc b33d e00e 303c
000000f0: 6148 c0be d883 bebe 1972 5fbe 11e3 01bf
00000100: 1887 193f d341 d03e 63c4 7a3f acbe 293e
00000110: 2fc9 c23e e78e 2e3f eb68 31bf 7bd3 253e
00000120: b9bb 033e 619b b13e 8982 593f 9be0 543e
00000130: ed6e ca3e 3f6d 6c3f 45af d73d ab66 c93e
00000140: b38d 013e cc15 8b3e 3e8a bf3e e802 203e
00000150: 5b9a 283c 91a2 643e 3b8b 613f 791b 5fbf
00000160: f95e 8d3e 2db2 de3e b967 083f cb33 a83e
00000170: a197 8f3c a329 083f ad96 0cbe da73 043f
00000180: 441d 4e3f 7631 193f 0454 723e e458 eb3e
00000190: 4558 563f 4e7a 133f 8bc3 e5be 23e0 1d3f
000001a0: 990c 013f 998a e23d 04fd ea3f d409 a13e
000001b0: a3bb bfbe 93cf b03e ad33 a93e c8c4 ac3e
000001c0: a337 1a3f 92e8 ffbd 6aaf 3a3f e18b 043e
000001d0: 9337 433f 6348 423e b8a4 d13e 0165 223f
000001e0: e2e1 d63e 2824 ec3c 0ba2 e93e 9fd1 1c3f
000001f0: a08d ea3d 36ac 1d3f 8420 c93e 7152 c83e
00000200: 151e 71be c2ff ca3e 7781 a0be f208 093f
00000210: a910 8cbd c10f 3e3e c74c 21be 23c2 6a3e
00000220: 0819 653e d6c8 07be bb8f e63e 9929 d2bc
00000230: c526 973d 4228 6ebf fc2e 5abe c3fe 3fbe
00000240: 2e99 b53e 9e8d 7bbe d1a8 1dbe 74af 033f
00000250: f9cc 8fbe c4da 85be 693e 793e be19 9d3f
00000260: 4350 5c3e 7609 b73d debd b83d 466c 963e
00000270: 446c e2be cd93 6dbe eaf6 0d3f a5b9 dcbe
00000280: 9399 8f3c ece7 0e3f e8cc 4abe b531 abbe
00000290: a2e9 cabb 5f08 2abc f986 8d3e 97a0 f0be
000002a0: 57af 433e 7e88 cdbe 2e78 173e 2738 46be
000002b0: b1e9 db3e 2950 78be 15cd 31bf 37ae 51be
000002c0: c563 853e 4b64 b63e 4464 bdbd fd03 babe
000002d0: 75ad d53e b9d8 acbe 215f cebd d3a6 53bd
000002e0: 476e 933e 88e4 e53d 768d d0be 4b74 97bd
000002f0: 30c2 7b3d 5366 60be 3dc8 933d 1044 e13c

gru_cell.bias_hh f4 [192]
-0.76134634 0.08739806 -0.67543584 -0.3901702 0.7585352 -0.08764681 0.25437966 -0.040191244
-0.037666097 0.6234996 -0.7811983 0.36513153 -0.2560813 -0.0992774 -0.48906747 -0.18610863
-0.15719546 -0.81087995 0.40245613 -0.40731195 0.027166242 0.26294556 -0.473905 1.0362605
-0.24445906 -0.10934038 -0.5294357 -0.053603508 -0.09921141 -1.1989549 0.10691324 -0.61146945
-0.032700837 -0.20158935 0.008223288 -0.36880323 -0.43411654 -0.55817795 -0.6045961 0.75659645
-0.14173526 -0.3643348 -0.7586147 0.08093616 0.46577948 -0.24942705 -0.07410344 -0.4210615
0.28090987 0.081145994 -0.4236919 -0.25994116 -0.07915919 0.10193309 -0.08619242 -0.2667897
-0.38188148 -0.53622943 -0.0015132366 0.059475563 -0.47943982 -0.4747773 -0.35364485 -0.50716794
0.5517935 0.43415624 0.8877377 0.023118734 0.29628032 0.593089 -0.5545826 0.26551
0.051343996 0.42703697 0.6864412 0.31705108 0.35497922 0.7552889 -0.071022674 0.18735369
0.14400294 0.36779234 0.4261621 0.29170594 0.0904922 0.052991632 0.8765951 -0.73212135
0.2960399 0.42822772 0.5478114 0.24975514 0.11339553 0.46565384 -0.06555349 0.57040334
0.87930775 0.6643493 0.32364348 0.448313 0.85877043 0.41325054 -0.45683452 0.61882323
0.39223397 0.13710746 2.0024633 0.24900295 -0.3789841 0.2883765 0.4221608 0.39028347
0.55701774 -0.050764594 0.7310856 0.25803033 0.78004766 0.08156262 0.33073792 0.62909806
0.48610622 0.15114509 0.36388525 0.6755958 0.0068496643 0.55973876 0.44500038 0.49647835
-0.386524 -0.5678084 -0.13945526 0.68197584 -0.32815525 0.34715942 -0.8500758 -0.0032096233
1.3527758 -0.21748711 0.24850251 0.33291927 0.63771373 -1.0944676 0.3596035 -0.20271905
0.5603508 0.025641866 -0.094758354 -0.10058445 0.80494744 -1.9245508 0.4567162 1.061899
-0.18592001 -0.5336528 -0.458949 -0.003474806 0.27601862 -0.26520106 0.54841226 0.16508605
-0.03982829 -0.50688684 -0.29577821 -0.070073046 -0.2679749 -0.27583587 0.0020568494 -0.63934875
-0.12506591 0.1329607 1.0184373 0.11939205 -0.8167384 -0.10326127 -0.00872732 0.18524617
0.4356856 -0.572174 -0.1245968 -0.080380425 0.81741476 0.55157423 0.45957753 0.013248324
0.071711734 0.48595577 0.079287104 0.2098245 0.033098478 -0.13631684 -0.8612675 -0.044755846
00000000: 98e7 42bf c1fd b23d 5de9 2cbf 63c4 c7be
00000010: 5d2f 423f 2c80 b3bd 0d3e 823e 939f 24bd
00000020: c447 1abd ab9d 1f3f 9dfc 47bf 85f2 ba3e
00000030: 171d 83be f351 cbbd 0d67 fabe 4393 3ebe
00000040: d9f7 20be d495 4fbf bb0e ce3e 318b d0be
00000050: bd8b de3c cda0 863e ada3 f2be 2fa4 843f
00000060: 7a53 7abe d9ed dfbd 1989 07bf 5a8f 5bbd
00000070: 5a2f cbbd 5b77 99bf 54f5 da3d 4389 1cbf
00000080: 50f1 05bd 706d 4ebe f8ba 063c c7d3 bcbe
00000090: 8644 debe c0e4 0ebf cfc6 1abf 4eb0 413f
000000a0: 0c23 11be 178a babe 9334 42bf dcc1 a53d
000000b0: a67a ee3e ce69 7fbe 8bc3 97bd 5f95 d7be
000000c0: 6bd3 8f3e df2f a63d 25ee d8be 0217 85be
000000d0: 371e a2bd 4cc2 d03d a785 b0bd a998 88be
000000e0: f885 c3be 5546 09bf cb57 c6ba a69c 733d
000000f0: 2379 f5be 0316 f3be f010 b5be c2d5 01bf
00000100: 5742 0d3f ba49 de3e c742 633f 8063 bd3c
00000110: 0eb2 973e aed4 173f 20f9 0dbf edf0 873e
00000120: 154e 523d 97a4 da3e 9cba 2f3f 8554 a23e
00000130: d6bf b53e 9d5a 413f 5674 91bd a5d9 3f3e
00000140: 8275 133e 474f bc3e eb31 da3e 7b5a 953e
00000150: f953 b93d c10d 593d 8968 603f 4e6c 3bbf
00000160: 8b92 973e aa40 db3e 5e3d 0c3f d0bf 7f3e
00000170: ea3b e83d 2e6a ee3e e840 86bd f405 123f
00000180: 501a 613f cc12 2a3f 99b4 a53e 4889 e53e
00000190: 61d8 5b3f 9395 d33e 37e6 e9be 336b 1e3f
000001a0: e4d2 c83e e665 0c3e 5c28 0040 a1fa 7e3e
000001b0: 340a c2be 16a6 933e 7625 d83e 3cd3 c73e
000001c0: b798 0e3f 89ee 4fbd 6d28 3b3f 8d1c 843e
000001d0: 34b1 473f 4e0a a73d 7b56 a93e 920c 213f
000001e0: eae2 f83e c7c5 1a3e 2b4f ba3e d9f3 2c3f
000001f0: 2673 e03b 0a4b 0f3f 17d7 e33e 6932 fe3e
00000200: 79e6 c5be e45b 11bf 5ccd 0ebe f895 2e3f
00000210: f703 a8be e1be b13e 919e 59bf 8b58 52bb
00000220: c227 ad3f f1b4 5ebe 7177 7e3e 6574 aa3e
00000230: 3541 233f 8417 8cbf f31d b83e 9595 4fbe
00000240: 2673 0f3f e40e d23c ab10 c2bd 38ff cdbd
00000250: 0911 4e3f ae57 f6bf b5d6 e93e 4eec 873f
00000260: d161 3ebe 789d 08bf 5dfb eabe 92b9 63bb
00000270: 5052 8d3e 6fc8 87be bf64 0c3f 510c 293e
00000280: fd22 23bd 56c3 01bf 3e70 97be 7582 8fbd
00000290: 0234 89be 5c3a 8dbe 35cc 063b 5cac 23bf
000002a0: 4711 00be da26 083e 275c 823f d283 f43d
000002b0: c515 51bf a57a d3bd 08fd 0ebc 2cb1 3d3e
000002c0: 2f12 df3e ff79 12bf 9b2c ffbd 7e9e a4bd
000002d0: 1842 513f f833 0d3f bf4d eb3e 800f 593c
000002e0: 9add 923d 32cf f83e 4761 a23d 3cdc 563e
000002f0: 4592 073d a496 0bbe 077c 5cbf e851 37bd

mlp_model.0.weight f4 [256, 3]
-0.23207475 0.08518968 -0.51792115 -0.11056159 0.14590974 0.62970674 -0.40371647 0.36341408
-0.37448022 -0.50541395 -0.014981904 0.37209472 -0.57642126 0.17533754 -0.35353217 0.06383551
-0.5445273 0.7053769 -0.051199995 -0.6099954 -0.0068040537 0.42500207 0.60057163 0.67599875
0.31326604 0.16843584 -0.08557685 -0.10146514 -0.38842735 0.27740437 -0.32007822 -0.6090195
0.18802162 -0.499851 0.12930334 -0.14716646 -0.54414195 0.121935345 -0.3166902 0.28173506
-0.46281546 -0.38983288 -0.09339809 0.2062887 0.46589127 0.15344723 0.70404917 0.45371848
-0.57790726 0.46290174 -0.0043981066 0.6141463 -0.06104084 -0.5430532 -0.083157316 -0.007968694
0.28363144 0.4731943 -0.06087379 0.9255093 0.58013934 0.27039838 0.20453496 0.122626856
0.6717876 0.5011199 0.56493455 0.17316861 0.7203797 0.07502788 -0.04687337 -0.16539288
-0.29277864 0.24156235 -0.34951475 -0.38314384 0.26995015 -0.61423236 -0.27138484 0.33615744
0.5231388 -0.19157189 -0.40215334 0.022527082 -0.27331713 0.24738397 0.41915798 -0.35833666
-0.44120073 -0.18157205 -0.36708087 -0.21238011 0.63795924 -0.31551757 0.07610696 -0.19092108
0.5570387 -0.41664127 0.8278295 0.6330734 0.4886423 0.40093198 0.30429462 0.19022413
0.050125714 0.23857285 0.6563427 0.74003816 -0.15318826 -0.5679055 -0.13155971 0.72544223
0.6166396 0.9133109 -0.30845916 0.06009892 -0.3760545 -0.5743797 0.019576523 -0.40314296
0.1217016 -0.44858277 0.5003905 -0.20816483 -0.1020723 -0.31127068 0.005793177 0.8951475
0.464474 0.40273088 0.31590563 0.8955787 0.19872609 -0.48734382 -0.3075568 0.6804783
0.41675904 0.92324907 -0.41063616 -0.4860051 -0.19809407 -0.102657445 0.17256089 0.82922256
0.55975306 0.101017214 0.90217215 0.101723455 -0.30649877 -0.043467384 -0.38424456 0.4084834
-0.34930003 0.14314385 -0.051605277 0.83597213 0.5482284 0.60892653 0.86460155 0.31320128
0.3741909 0.87942404 0.29335767 0.8872343 -0.061509345 -0.54023755 0.46764392 -0.35508013
-0.15339859 -0.25206175 -0.4931262 -0.04593862 0.038821176 -0.31910563 -0.43257672 0.23158482
-0.3884615 -0.07339918 -0.17541924 -0.52190036 0.19308461 0.380415 0.5361119 -0.3454185
0.29377818 -0.15015543 -0.063251615 -0.396054 -0.3946512 0.47677773 -0.44757187 0.012274722
-0.14505537 -0.4783971 0.14611904 -0.44416416 0.31302002 -0.19558924 0.699892 0.7237956
0.95442474 -0.23228161 0.2335202 -0.5926688 0.39466316 -0.5286259 0.76328593 0.019607466
0.059792355 0.28781608 -0.44573432 -0.6542449 0.78073996 -0.18284386 -0.30017835 -0.11029674
0.5523976 0.29667985 -0.29228938 0.5198325 0.011311773 -0.012818305 0.2714676 -0.4035098
-0.18261842 0.07005858 -0.1555495 0.647023 0.036559213 -0.12120942 -0.51811355 0.48441723
-0.018105116 -0.5512742 0.201558 0.3128945 -0.2424031 0.6995948 0.09721028 -0.5482906
-0.63976383 0.2802863 -0.0046710554 -0.14096339 -0.4348785 -0.5319672 -0.26306388 0.13053356
0.373081 -0.013464977 -0.029000891 0.0014074673 0.4105686 0.16230519 -0.17249486 -0.56527835
00000000: 01a5 6dbe ed77 ae3d 7b96 04bf 1d6e e2bd
00000010: 5d69 153e 7634 213f edb3 cebe 6911 ba3e
00000020: dfbb bfbe cf62 01bf a976 75bc 3383 be3e
00000030: 5890 13bf af8b 333e 2b02 b5be 31bc 823d
00000040: 2466 0bbf 9593 343f 16b7 51bd a928 1cbf
00000050: 8af4 debb df99 d93e 10bf 193f 410e 2d3f
00000060: 6864 a03e 727a 2c3e ea42 afbd f5cc cfbd
00000070: f3df c6be f207 8e3e 4be1 a3be b4e8 1bbf
00000080: bd88 403e 78ec ffbe 1868 043e ceb2 16be
00000090: e34c 0bbf 3db9 f93d 3825 a2be 943f 903e
000000a0: 26f6 ecbe 2d98 c7be 7f47 bfbd 583d 533e
000000b0: 4d89 ee3e 4521 1d3e 913c 343f ca4d e83e
000000c0: bbf1 13bf 7501 ed3e fe1d 90bb b138 1d3f
000000d0: f605 7abd 8905 0bbf 624e aabd 208f 02bc
000000e0: 2438 913e 8646 f23e cc56 79bd 2dee 6c3f
000000f0: 0384 143f a871 8a3e 9d71 513e ca23 fb3d
00000100: 46fa 2b3f 6549 003f 8d9f 103f 1d53 313e
00000110: ce6a 383f 38a8 993d 4afe 3fbd c05c 29be
00000120: 15e7 95be 1f5c 773e 99f3 b2be 6e2b c4be
00000130: e836 8a3e 553e 1dbf f4f2 8abe d41c ac3e
00000140: 6dec 053f 6c2b 44be 0be7 cdbe b78a b83c
00000150: 39f0 8bbe 3952 7d3e e09b d63e e777 b7be
00000160: 10e5 e1be 06ee 39be 06f2 bbbe 2c7a 59be
00000170: 4c51 233f 858b a1be f7dd 9b3d d180 43be
00000180: 179a 0e3f 0152 d5be a2ec 533f 1911 223f
00000190: 532f fa3e f546 cd3e 81cc 9b3e 1dca 423e
000001a0: 9f50 4d3d 714c 743e 1306 283f 2473 3d3f
000001b0: 62dd 1cbe 4162 11bf 97b7 06be 95b6 393f
000001c0: 18dc 1d3f bece 693f 5cee 9dbe 492a 763d
000001d0: 378a c0be 8c0a 13bf f25e a03c c168 cebe
000001e0: b03e f93d a4ac e5be 9819 003f 2929 55be
000001f0: 480b d1bd df5e 9fbe b1d4 bd3b 6328 653f
00000200: 89cf ed3e be32 ce3e 62be a13e a544 653f
00000210: da7e 4b3e 2185 f9be 1678 9dbe d333 2e3f
00000220: 7161 d53e 0d5a 6c3f e73e d2be a9d5 f8be
00000230: 2cd9 4abe 113e d2bd cdb3 303e ee47 543f
00000240: fa4b 0f3f 1de2 ce3d c1f4 663f 6354 d03d
00000250: 68ed 9cbe db0a 32bd b4bb c4be bc24 d13e
00000260: 74d7 b2be 4d94 123e 0e60 53bd 4502 563f
00000270: b258 0c3f 9ce2 1b3f 8756 5d3f eb5b a03e
00000280: f395 bf3e ef21 613f fa32 963e c921 633f
00000290: 39f1 7bbd 024d 0abf 066f ef3e 10cd b5be
000002a0: 8514 1dbe 3d0e 81be 0a7b fcbe 222a 3cbd
000002b0: f402 1f3d d061 a3be b27a ddbe 9224 6d3e
000002c0: 6de4 c6be 4f52 96bd 1aa1 33be 439b 05bf
000002d0: f9b7 453e c1c5 c23e a13e 093f b2da b0be
000002e0: 186a 963e 58c2 19be 108a 81bd 97c7 cabe
000002f0: b90f cabe 361c f43e 2428 e5be ea1b 493c
00000300: 6589 14be 77f0 f4be 3ba0 153e 7c69 e3be
00000310: 2944 a03e 8c48 48be 1f2c 333f ab4a 393f
00000320: 2e55 743f 3bdb 6dbe eb1f 6f3e 24b9 17bf
00000330: 4a11 ca3e 0754 07bf b566 433f d69f a03c
00000340: d4e8 743d a15c 933e 4a37 e4be 987c 27bf
00000350: 93de 473f 6c3b 3bbe fab0 99be 42e3 e1bd
00000360: ee69 0d3f 6ce6 973e f4a6 95be be13 053f
00000370: 0455 393c de03 52bc cdfd 8a3e d698 cebe
00000380: 5300 3bbe df7a 8f3d 5e48 1fbe 4da3 253f
00000390: 1dbf 153d a53c f8bd 17a3 04bf 8905 f83e
000003a0: 2e51 94bc 4e20 0dbf 3865 4e3e b533 a03e
000003b0: 8538 78be a518 333f 2f16 c73d c65c 0cbf
000003c0: 90c7 23bf b081 8f3e a70f 99bb b558 10be
000003d0: 65a8 debe 012f 08bf 4fb0 86be 97aa 053e
000003e0: 7904 bf3e 359c 5cbc 4793 edbc c47a b83a
000003f0: 0c36 d23e 5533 263e 7ea2 30be 15b6 10bf

mlp_model.0.bias f4 [256]
0.059758786 -0.12858829 -0.45909673 0.02446771 0.29853615 -0.19119069 0.19888139 -0.14327987
0.50916684 0.038560316 -0.38328874 0.4825828 0.25013793 0.27290165 0.068764396 0.12037601
-0.08812267 0.54013544 -0.6836286 -0.3087403 -0.4459082 -0.07202038 -0.07746374 -0.13589986
0.13097447 0.036458176 -1.107428 -0.4528944 -0.83940995 0.16311419 -0.1549204 0.4300493
-0.29426074 0.38251615 -0.55924994 -0.19884594 0.1934986 -0.3686079 -0.360238 0.32730922
-0.6005351 -0.22675522 -0.033308715 -0.34318292 -0.5037924 -0.45394 -0.4349442 -0.29852688
-0.347409 -0.011531597 -0.583543 -0.2397586 -0.30146247 0.099131495 0.038938936 0.14458382
-0.5273103 0.19937402 0.2522499 -0.016416606 -0.11168391 -0.5495161 0.054714218 -0.5243342
0.4482934 -0.20666203 -0.38826555 -0.53340834 -0.23949459 -0.68589646 -0.20290497 -0.10558474
0.2617601 0.007182887 0.011601145 -0.15693401 -0.3618805 0.048530076 -0.31665057 0.33356678
-0.03702254 0.24907492 -0.72132 -0.48855057 -0.44475 0.2658508 -0.15279374 -0.6296222
-0.5848339 -0.49761054 0.008243899 -0.23990048 -0.60564226 -0.5973598 0.26304662 -0.15735857
-0.6964504 -0.65127903 -0.20877345 -0.028234359 -0.35800776 0.2718267 -0.4311447 -0.4512947
-0.1284987 0.24799357 0.4184718 -0.24287978 0.048601337 0.49181062 0.39535344 -0.60082704
0.19593847 -0.34642312 0.17683375 -0.09570243 -0.04553092 0.4489872 -0.49020335 -0.1964395
-0.5964629 -0.2466394 -0.13844343 0.09521259 -0.3566603 0.5275244 0.33902836 0.102234006
-0.41303968 -0.26629806 -0.214124 0.41416088 -0.43301195 -0.37299293 -0.44177762 -0.14487489
-0.2412918 -0.11455562 -0.31206232 -0.25636092 -0.14149748 -0.70554143 -0.32905415 0.24580126
-0.4297021 0.47867322 0.6534878 0.45028514 0.17980497 -0.6956291 0.89799845 -0.21938659
-0.13972469 0.5682205 0.0047418643 0.16146362 -0.5974889 0.13849753 0.19336323 -0.32521048
-0.36706388 -0.08748913 0.22560877 0.10597822 -0.09991917 0.058228336 0.26759338 0.14117777
0.651849 -0.46275097 -0.48383492 -0.28431514 0.11494499 0.18800274 -0.2889868 -0.52799326
0.65076053 0.21020584 -0.20515971 -0.012007267 -0.9033831 0.25967634 -0.07420137 -0.8607205
-0.08033438 0.088632464 0.029724741 0.04700503 0.35130298 -0.42802134 -0.6524742 0.5072614
0.0058833426 -0.49436033 -0.21743782 -0.09307507 -0.20457368 -0.002273301 0.38657278 -0.3713292
-0.3828996 -0.020029265 -0.85457945 -0.4694489 -0.2369001 0.15513168 -0.014091749 0.2643892
-0.20776857 -0.19896695 0.10538452 0.4918374 -0.4298405 0.005349138 -0.726359 -0.25267702
0.15138206 -0.036840018 0.45147 0.032198273 -0.7101386 -0.11090053 -0.16867633 0.9740212
-0.577076 -0.1202471 -0.32405674 -0.80659693 0.43893895 -0.6271816 -0.43422726 -0.12220391
0.45232767 0.26485184 0.30259433 -0.34326777 -0.48826542 -0.5060443 -0.290932 0.006462578
0.052902937 0.030013619 0.09129909 -0.1270103 0.011045625 -0.4485114 0.048037186 -0.12038946
-0.52259177 -0.014066868 -0.025975024 -0.5248629 -0.09594554 -0.49469888 -0.26882133 -0.031825457
00000000: a1c5 743d a6ac 03be ba0e ebbe 8270 c83c
00000010: bbd9 983e 7ec7 43be 90a7 4b3e f5b7 12be
00000020: c258 023f 6cf1 1d3d 6c3e c4be 1815 f73e
00000030: 1412 803e c4b9 8b3e 59d4 8c3d b387 f63d
00000040: a979 b4bd 5146 0a3f 4902 2fbf 3513 9ebe
00000050: 144e e4be 6c7f 93bd 4fa5 9ebd 5529 0bbe
00000060: 2c1e 063e 2b55 153d 33c0 8dbf c6e1 e7be
00000070: 92e3 56bf 6807 273e 74a3 1ebe 6c2f dc3e
00000080: 58a9 96be 28d9 c33e 012b 0fbf 459e 4bbe
00000090: 7f24 463e 2dba bcbe 1d71 b8be 1395 a73e
000000a0: abbc 19bf 8532 68be b86e 08bd acb5 afbe
000000b0: 8af8 00bf d36a e8be 02b1 debe 84d8 98be
000000c0: 98df b1be 06ef 3cbc 1363 15bf 4783 75be
000000d0: 4a59 9abe 7405 cb3d 6f7e 1f3d c80d 143e
000000e0: cffd 06bf b428 4c3e e626 813e 1e7c 86bc
000000f0: 89ba e4bd 16ad 0cbf 041c 603d c43a 06bf
00000100: b686 e53e 369f 53be beca c6be 738d 08bf
00000110: 123e 75be e996 2fbf 52c6 4fbe d03c d8bd
00000120: 6b05 863e 6c5e eb3b bb12 3e3c 4fb3 20be
00000130: 6748 b9be 79c7 463d 0620 a2be 44c9 aa3e
00000140: f2a4 17bd 7f0d 7f3e 6da8 38bf 4d23 fabe
00000150: 46b6 e3be 991d 883e f675 1cbe ec2e 21bf
00000160: adb7 15bf cfc6 febe 6b11 073c 79a8 75be
00000170: 5f0b 1bbf 92ec 18bf 0cae 863e 9b22 21be
00000180: 934a 32bf 39ba 26bf b5c8 55be be4b e7bc
00000190: cb4c b7be df2c 8b3e 00bf dcbe 1910 e7be
000001a0: 2a95 03be 07f2 7d3e f041 d63e 7ab5 78be
000001b0: 3212 473d 9ace fb3e c46b ca3e cdcf 19bf
000001c0: 18a4 483e 5f5e b1be e813 353e a3ff c3bd
000001d0: a17e 3abd a6e1 e53e effb fabe 7027 49be
000001e0: cbb1 18bf 0a8f 7cbe 1dc4 0dbe d2fe c23d
000001f0: 2e9c b6be d70b 073f 2095 ad3e 1060 d13d
00000200: f079 d3be 3858 88be 5243 5bbe e50c d43e
00000210: beb3 ddbe eef8 bebe ad30 e2be 155a 14be
00000220: 3315 77be 239c eabd a2c6 9fbe bd41 83be
00000230: b7e4 10be 5d9e 34bf c979 a8be 53b3 7b3e
00000240: ea01 dcbe a814 f53e fa4a 273f c68b e63e
00000250: cb1e 383e c014 32bf 3ae3 653f e1a6 60be
00000260: fd13 0fbe e676 113f a461 9b3b b856 253e
00000270: 08f5 18bf 4cd2 0d3e 0301 463e fd81 a6be
00000280: ccef bbbe 802d b3bd fc05 673e 1c0b d93d
00000290: 6ca2 ccbd d680 6e3d 0002 893e e890 103e
000002a0: 93df 263f b2ed ecbe 36b9 f7be c191 91be
000002b0: 4768 eb3d ca83 403e 14f6 93be 912a 07bf
000002c0: 3e98 263f 3340 573e 6315 52be 21ba 44bc
000002d0: 1d44 67bf 4cf4 843e e3f6 97bd 2e58 5cbf
000002e0: 5a86 a4bd f084 b53d 4d81 f33c 5988 403d
000002f0: fcdd b33e 9d25 dbbe 8d08 27bf e2db 013f
00000300: 0ec9 c03b cc1c fdbe 05a8 5ebe 249e bebd
00000310: c37b 51be a9fb 14bb deec c53e dc1e bebe
00000320: 6b0b c4be 6a14 a4bc b8c5 5abf 9b5b f0be
00000330: f195 72be d7da 1e3e 14e1 66bc 055e 873e
00000340: 49c1 54be febd 4bbe d7d3 d73d 1dd2 fb3e
00000350: 0e14 dcbe d247 af3b aaf2 39bf e25e 81be
00000360: e603 1b3e 8fe5 16bd 1327 e73e 56e2 033d
00000370: a5cb 35bf d11f e3bd 7db9 2cbe 7459 793f
00000380: 41bb 13bf 1d44 f6bd c4ea a5be 237d 4ebf
00000390: 9bbc e03e f98e 20bf 0953 debe 0b46 fabd
000003a0: 7e97 e73e a99a 873e a5ed 9a3e cbc0 afbe
000003b0: edfd f9be 1f8c 01bf 0af5 94be 09c4 d33b
000003c0: c0b0 583d 1fdf f53c 04fb ba3d fd0e 02be
000003d0: b6f8 343c 49a3 e5be a4c2 443d c08e f6bd
000003e0: 93c8 05bf b978 66bc 93c9 d4bc 6a5d 06bf
000003f0: 187f c4bd 2c49 fdbe f3a2 89be 695b 02bd

fc.weight f4 [15, 64]
-0.1673276 0.3783936 -0.12621811 0.035091765 4.023602 -0.119553104 -1.6771084 0.055113442
1.9310557 -1.9275852 -3.3678422 -3.2322931 0.4951496 0.71234643 1.6824206 -0.7279636
-1.6582159 -0.68884337 -1.5200632 2.1802728 0.6080455 -3.675535 -0.17643577 0.26826844
0.5563826 -1.5533738 -0.8277206 -0.8392833 0.15813445 1.546653 0.3888646 -1.5447551
3.6023426 1.3037798 -2.9700584 0.76743007 0.7288346 -1.0940479 -0.023059808 0.3392497
1.7878491 -0.8801574 1.6389115 -1.8173817 0.08076175 -0.411813 1.720148 -1.1218306
-1.8038089 -0.10155098 0.5347608 -0.5887033 -0.10424354 -0.5766791 0.6185608 -1.1087497
-1.0752286 2.2520773 -5.06377 -1.0165793 -0.17953591 4.5154233 7.2358785 0.8715005
-0.50845206 -0.8244926 -0.51427865 0.32739973 0.6548781 -0.09806958 1.0093439 4.465753
0.035910916 -0.73507243 -3.100433 -2.2357585 0.9182701 0.8537341 2.559443 -1.2828093
2.1027637 -0.49369544 -4.470869 -0.75698686 1.2818699 0.30564177 -0.008391519 0.103559084
0.91810995 -0.32889223 -0.870904 0.7051949 0.71289045 1.4760075 0.7663007 -0.54563457
1.9913048 -2.3047345 0.85145026 3.2805438 1.5887818 -3.3298876 -0.70728093 0.026312195
2.6049874 -0.13489725 0.8944123 1.4372525 -0.6535216 -0.9708865 2.3670871 -4.7311163
-1.494637 -0.4308118 0.2548726 0.26667467 0.30881307 -0.052797876 0.61581916 -2.401607
-0.9437505 -0.16253176 -1.2693444 2.67121 -0.47859427 0.96817195 3.4566784 -1.1569455
-0.100855514 -0.5265993 -0.14120795 0.17019907 0.09316941 -0.324021 0.39500934 -2.4040174
-0.43782017 1.8002647 -3.5157902 -0.63145983 0.8083656 -0.14628492 2.9737108 -1.1591349
1.8359607 -1.5785851 0.33483464 -0.048440672 0.5332765 0.19541228 -0.30945674 -0.45306095
-0.8983214 -0.048634913 -0.86077696 -0.18582007 0.48403457 1.1003748 0.39721102 0.73296857
3.001637 -0.35779366 -0.27777544 1.0558561 2.1375675 -0.49598444 -0.46306235 0.34016407
2.6769779 0.30957228 -0.2606815 -0.8432361 0.06846402 -3.0733426 1.562727 -3.027113
-1.0885785 -0.18891051 0.56224906 -0.028873764 0.0045531075 0.15386519 0.26306707 -1.812734
-3.4017947 -0.14716187 0.89055544 2.9093626 -0.5149669 0.07134725 3.7897608 -0.38333228
-0.5780131 -0.78181547 -0.65031564 0.31523374 -1.1591319 -0.041427433 -0.57120943 3.5371575
1.0567507 -0.5557324 0.58378196 0.59750247 1.8102382 -0.12657236 -3.9043157 -1.25762
0.57703996 1.1464442 -1.3101283 1.7082707 1.1398047 0.035481557 -0.17613754 -0.05830038
0.85336316 -1.8648643 0.06414418 -0.19171748 0.58396596 1.7085242 0.69077665 -0.016721431
-2.0827336 -1.6616942 2.0070686 2.2879808 1.0852817 -6.764919 -0.6910634 0.13723318
2.0033643 0.24918354 -1.1054509 0.35556328 -0.5250779 -2.4403906 3.1585314 -2.0065641
-2.1942155 -0.7171496 0.18122582 0.35112384 0.2900745 0.09408925 0.98292106 -3.96802
-0.41645864 -0.84530747 0.049416658 2.843207 -0.85745704 0.53210497 2.372348 -0.9774187
00000000: ed57 2bbe cebc c13e 523f 01be 62bc 0f3d
00000010: 59c1 8040 42d8 f4bd 7dab d6bf a2be 613d
00000020: d52c f73f 1dbb f6bf ba8a 57c0 e4dd 4ec0
00000030: 4084 fd3e 565c 363f 8f59 d73f d35b 3abf
00000040: 6b40 d4bf 0a58 30bf 6e91 c2bf 9789 0b40
00000050: dfa8 1b3f f73b 6bc0 94ab 34be 7b5a 893e
00000060: 176f 0e3f f4d4 c6bf 7fe5 53bf 45db 56bf
00000070: ffed 213e baf8 c53f 4319 c73e 89ba c5bf
00000080: c88c 6640 42e2 a63f 7015 3ec0 4c76 443f
00000090: e894 3a3f c309 8cbf ece7 bcbc 23b2 ad3e
000000a0: 3dd8 e43f ff51 61bf dac7 d13f f79f e8bf
000000b0: 6b66 a53d 27d9 d2be cf2d dc3f 2598 8fbf
000000c0: 36e3 e6bf f6f9 cfbd 15e6 083f 42b5 16bf
000000d0: a37d d5bd 3ea1 13bf 005a 1e3f 83eb 8dbf
000000e0: 17a1 89bf 0922 1040 670a a2c0 451f 82bf
000000f0: 43d8 37be 597e 9040 518c e740 a81a 5f3f
00000100: ea29 02bf f211 53bf c4a7 03bf f0a0 a73e
00000110: 17a6 273f b4d8 c8bd 2e32 813f 73e7 8e40
00000120: 5317 133d b52d 3cbf 7f6d 46c0 ab16 0fc0
00000130: c013 6b3f 518e 5a3f eacd 2340 1833 a4bf
00000140: ae93 0640 a6c5 fcbe 5c11 8fc0 e4c9 41bf
00000150: 5014 a43f 147d 9c3e 957c 09bc c916 d43d
00000160: 4109 6b3f 9064 a8be 91f3 5ebf a787 343f
00000170: fd7f 363f d0ed bc3f 482c 443f b5ae 0bbf
00000180: 13e3 fe3f c580 13c0 a5f8 593f 6ef4 5140
00000190: 345d cb3f e11c 55c0 5d10 35bf ac8c d73c
000001a0: 1db8 2640 8122 0abe 34f8 643f e4f7 b73f
000001b0: 314d 27bf 058c 78bf 5b7e 1740 4e65 97c0
000001c0: 4450 bfbf 5d93 dcbe a97e 823e 9589 883e
000001d0: bf1c 9e3e 9642 58bd 53a6 1d3f eeb3 19c0
000001e0: a299 71bf ba6e 26be e179 a2bf 1bf5 2a40
000001f0: 4f0a f5be 1eda 773f 383a 5d40 ca16 94bf
00000200: 568d cebd 36cf 06bf d198 10be aa48 2e3e
00000210: 9bcf be3d 15e6 a5be aa3e ca3e 6cdb 19c0
00000220: f729 e0be 136f e63f b502 61c0 5aa7 21bf
00000230: 0cf1 4e3f b7cb 15be 4751 3e40 885e 94bf
00000240: c300 eb3f 140f cabf 726f ab3e ba69 46bd
00000250: cf84 083f 281a 483e 1d71 9ebe 9bf7 e7be
00000260: 64f8 65bf 6735 47bd e15b 5cbf 9e47 3ebe
00000270: 61d3 f73e 15d9 8c3f 3e5f cb3e d4a3 3b3f
00000280: d21a 4040 bb30 b7be 9538 8ebe 4b26 873f
00000290: e8cd 0840 acf1 fdbe 8216 edbe fc29 ae3e
000002a0: 9b53 2b40 4280 9e3e 0c78 85be 52de 57bf
000002b0: dd36 8c3d a5b1 44c0 7007 c83f 38bc 41c0
000002c0: 8a56 8bbf c271 41be 8eef 0f3f ac88 ecbc
000002d0: 3c32 953b d68e 1d3e bab0 863e ab07 e8bf
000002e0: 01b7 59c0 9ab1 16be 71fb 633f ff32 3a40
000002f0: dfd4 03bf 821e 923d 718b 7240 2144 c4be
00000300: abf8 13bf 0f25 48bf 167b 26bf 5166 a13e
00000310: 6f5e 94bf d0af 29bd c83a 12bf ca60 6240
00000320: 9b43 873f 7b44 0ebf bc72 153f ecf5 183f
00000330: e3b5 e73f 2f9c 01be 4fe0 79c0 b1f9 a0bf
00000340: e4b8 133f afbe 923f 49b2 a7bf 9da8 da3f
00000350: 1fe5 913f 1c55 113d 665d 34be 61cc 6ebd
00000360: 0276 5a3f e0b3 eebf 065e 833d 9651 44be
00000370: cb7e 153f ecb0 da3f bdd6 303f 62fb 88bc
00000380: 824b 05c0 65b2 d4bf d073 0040 476e 1240
00000390: 83ea 8a3f 377a d8c0 88e9 30bf db86 0c3e
000003a0: 1f37 0040 f829 7f3e 6a7f 8dbf 640c b63e
000003b0: 816b 06bf 5c2f 1cc0 6125 4a40 8c6b 00c0
000003c0: 076e 0cc0 1e97 37bf 4393 393e 81c6 b33e
000003d0: a584 943e ddb1 c03d b7a0 7b3f 0af4 7dc0
000003e0: 113a d5be 1266 58bf 1f69 4a3d 1af7 3540
000003f0: 4e82 5bbf 0838 083f 8dd4 1740 1d38 7abf

fc.bias f4 [15]
0.018019674 0.30784568 0.09913639 0.40865573 0.32511598 -0.35090014 0.12156157 0.17688377
-0.14468946 -0.33675295 0.10029624 -0.123768374 -0.14344504 -0.06519379 -0.37003776
00000000: ff9d 933c f39d 9d3e 0508 cb3d 533b d13e
00000010: 9a75 a63e 2fa9 b3be 46f5 f83d 0521 353e
00000020: 7929 14be e26a acbe 1d68 cd3d 467a fdbd
00000030: 42e3 12be 5284 85bd 9775 bdbe
