models/GRU/result_GRU.pt (torch, 72279 bytes, 6 tensors)

gru_cell.weight_ih f4 [192, 2]
-0.047335703 -0.44637766 0.30098596 -0.010598686 0.9472977 -0.47861254 0.90995824 -0.098997466
0.17339607 -0.6326951 0.65694535 -0.22731142 -0.252836 -0.01812793 0.28189513 -0.14012383
0.1838241 0.37221774 0.13723384 0.9240148 0.3850535 0.0025222483 0.57010365 0.45414308
0.19521505 0.24109751 0.18350405 -0.45403877 0.19983093 0.023302058 -0.052943427 0.46606687
0.08682594 0.31498665 0.32526413 -0.11858337 0.13469978 -0.007629843 0.18420298 0.4081166
-0.067800775 0.1009742 0.2584121 -0.50732344 -0.22867611 -0.045078803 0.16180947 -0.8637186
2.077117 -0.6026335 0.5123104 0.47804174 0.12572004 0.34188715 0.4823943 -0.2475626
0.7236556 0.17267676 0.13067396 -0.030251248 -0.122027546 0.015971286 0.37445804 -0.47035724
-0.33462957 0.06729857 1.1746482 -0.5681295 0.12695685 -0.10392162 1.7011327 0.57016677
0.072040014 -0.6362571 0.039326414 0.050371185 0.07182026 0.2535875 0.17169514 -0.11941364
-0.111058585 -0.059558574 0.107974105 -0.16494988 -0.025332911 0.18213876 0.1878389 2.0835972
-0.24435341 0.14584157 0.22340982 -0.13013746 -0.0015935182 0.31084585 -0.30516577 -2.1174672
-0.078152426 0.373475 0.47395617 2.0267096 0.17674592 0.4303309 -0.40073577 -0.22547732
0.07931996 0.27752414 0.3638202 -0.47275162 0.7677351 0.5683888 1.2852318 0.6118461
0.59350353 0.07575308 0.06120101 -0.35125828 -0.40765285 0.39258417 0.2433168 -0.062878534
0.024362478 0.0522339 0.40958798 -0.47080576 -0.29629016 0.27744672 0.41326955 -0.27349213
-0.23601471 0.3763797 -0.26315087 -0.3080568 -2.615571 -1.1620203 -1.1559054 -0.86856544
0.2951047 0.92535317 -0.5858473 -0.46761096 -0.345412 -1.2247308 -0.17396393 0.4209101
-0.7269102 -1.4566573 -0.2689715 -0.15029906 -0.30655986 0.2144903 -0.2886412 -0.47571254
-0.52737594 0.22264966 -0.16559054 -0.05201277 -0.18041012 0.08615051 -0.040949713 -1.6377082
-0.17897119 0.42127046 0.1455511 0.43866986 -0.4919437 -0.30931038 -0.299031 -0.028313976
-0.5548818 -0.7220906 -0.08317959 0.39645126 -0.04397695 -0.6555061 -0.94397163 -1.6918882
-2.4399004 -2.6756442 -0.089186475 -0.1272414 -0.16633935 0.06906188 -0.17980103 -0.5291481
-0.27575868 -0.08377479 -0.22118114 -1.0243623 -0.45104882 0.10443519 -0.32176232 -0.013225197
-0.48938715 0.4890059 -1.2219689 -1.1186701 0.07495778 -0.5655635 -0.7654496 -1.1287079
-0.3994948 -0.5182856 -0.1718656 -0.49955574 -0.14978497 0.18064004 0.0097670825 0.37978783
-0.8507444 -1.5623283 -0.058853656 0.11653282 -0.27792454 0.60036844 -0.33814985 -0.5189559
-0.20444793 -0.17343122 -0.40492052 0.35875306 0.1026828 -0.17679055 -0.94421047 -1.1114626
-0.21772854 0.2458054 -0.40298486 -0.9763167 -0.29408887 -0.20539626 -0.2510209 0.22848369
-0.30973688 0.0121985 -0.27512378 -0.17553876 -0.24922149 -0.9685359 -0.3746988 -0.6697964
-0.98756146 -1.5046653 -0.19160514 0.093814455 -0.71274346 -2.348859 -0.070764065 -0.032190494
0.03177215 0.29034948 -0.23232438 -0.26431635 -0.55106187 -0.2660919 -0.53035504 -0.30522957
00000000: 15e3 41bd 9d8b e4be d51a 9a3e 1ca6 2dbc
00000010: 1a82 723f b40c f5be 06f3 683f 2fbf cabd
00000020: bd8e 313e 4ef8 21bf 922d 283f 53c4 68be
00000030: b873 81be 0681 94bc 8f54 903e 9f7c 0fbe
00000040: 633c 3c3e 5393 be3e 0787 0c3e 3c8c 6c3f
00000050: bb25 c53e 4e4c 253b 50f2 113f 7185 e83e
00000060: 74e6 473e 44e2 763e 7ce8 3b3e c577 e8be
00000070: 7ba0 4c3e f5e3 be3c 35db 58bd 51a0 ee3e
00000080: ccd1 b13d ee45 a13e 0589 a63e d6db f2bd
00000090: bdee 093e c303 fabb b59f 3c3e a9f4 d03e
000000a0: 22db 8abd 90cb ce3d 974e 843e f3df 01bf
000000b0: 122a 6abe 8da4 38bd 62b1 253e aa1c 5dbf
000000c0: 7cef 0440 3046 1abf c626 033f e3c1 f43e
000000d0: c1bc 003e d50b af3e 63fc f63e 0d81 7dbe
000000e0: 7e41 393f 2dd2 303e 65cf 053e 77d1 f7bc
000000f0: 94e9 f9bd 37d6 823c f7b8 bf3e aad2 f0be
00000100: 9154 abbe d5d3 893d df5a 963f ef70 11bf
00000110: fa00 023e dcd4 d4bd b7be d93f 73f6 113f
00000120: b789 933d bfe1 22bf bc14 213d 0452 4e3d
00000130: 8016 933d 39d6 813e dad0 2f3e 238f f4bd
00000140: af72 e3bd b1f3 73bd 8721 dd3d 9fe8 28be
00000150: f786 cfbc 9582 3a3e d758 403e a859 0540
00000160: c837 7abe 7e57 153e 8bc5 643e c142 05be
00000170: 99dd d0ba 3027 9f3e b03e 9cbe 9584 07c0
00000180: 610e a0bd 1d38 bf3e 62aa f23e 9cb5 0140
00000190: e2fc 343e 5554 dc3e 3d2d cdbe 87e3 66be
000001a0: 8172 a23d a517 8e3e a446 ba3e 800c f2be
000001b0: 4a8a 443f ee81 113f 7a82 a43f f2a1 1c3f
000001c0: d9ef 173f 6e24 9b3d e9ad 7a3d 20d8 b3be
000001d0: e0b7 d0be cb00 c93e 0a28 793e 76c6 80bd
000001e0: d293 c73c 37f3 553d 84b5 d13e 740d f1be
000001f0: 58b3 97be 7f0d 8e3e 1198 d33e 2907 8cbe
00000200: d7ad 71be d7b4 c03e b6bb 86be 9fb9 9dbe
00000210: 8465 27c0 15bd 94bf b5f4 93bf 4e5a 5ebf
00000220: f717 973e f2e3 6c3f 17fa 15bf b46a efbe
00000230: d7d9 b0be fbc3 9cbf 9a23 32be 8781 d73e
00000240: c916 3abf bf73 babf a2b6 89be ffe7 19be
00000250: 6af5 9cbe 58a3 5b3e c8c8 93be 9890 f3be
00000260: 1c02 07bf 46fe 633e 9190 29be 580b 55bd
00000270: 6ebd 38be ae6f b03d e3ba 27bd 6ca0 d1bf
00000280: 3944 37be c3b0 d73e 590b 153e 5699 e03e
00000290: 0be0 fbbe ee5d 9ebe 971a 99be b6f2 e7bc
000002a0: bc0c 0ebf eeda 38bf 105a aabd a9fb ca3e
000002b0: 2d21 34bd 3fcf 27bf 20a8 71bf cb8f d8bf
000002c0: 5427 1cc0 c13d 2bc0 66a7 b6bd 924b 02be
000002d0: dd54 2abe 5170 8d3d c31d 38be 4076 07bf
000002e0: 3e30 8dbe 1e92 abbd 4f7d 62be 4e1e 83bf
000002f0: dfef e6be 1ee2 d53d 08be a4be 7fae 58bc
00000300: f490 fabe fb5e fa3e 7a69 9cbf 9530 8fbf
00000310: 7783 993d c5c8 10bf 81f4 43bf 8079 90bf
00000320: 958a ccbe 5dae 04bf 89fd 2fbe c5c5 ffbe
00000330: 3b61 19be b4f9 383e 1d06 203c 8d73 c23e
00000340: 63ca 59bf 60fa c7bf 8810 71bd c2a8 ee3d
00000350: 204c 8ebe bfb1 193f fa21 adbe 4bda 04bf
00000360: cc5a 51be f497 31be be51 cfbe 7bae b73e
00000370: 5c4b d23d 9508 35be c7b7 71bf 6844 8ebf
00000380: 3bf4 5ebe 69b4 7b3e 0854 cebe e4ef 79bf
00000390: d192 96be 6653 52be d085 80be a1f7 693e
000003a0: d595 9ebe 38dc 473c 06dd 8cbe 6fc0 33be
000003b0: eb33 7fbe f8f1 77bf 85d8 bfbe c777 2bbf
000003c0: d4d0 7cbf df98 c0bf 2334 44be cb21 c03d
000003d0: 5b76 36bf b553 16c0 c0ec 90bd 2eda 03bd
000003e0: 8423 023d b0a8 943e 71e6 6dbe 7954 87be
000003f0: 6412 0dbf 333d 88be 59c5 07bf 0d47 9cbe

gru_cell.weight_hh f4 [192, 64]
0.85487485 -0.5972627 0.41109288 0.785858 0.44021508 -0.0149064455 -0.11859505 -0.30573547
-0.16898511 -0.06867248 0.017200166 -0.21132082 0.9728319 -0.6050294 0.5448124 0.15956648
0.29315254 0.7774382 -0.13022529 -0.10896088 0.06308851 1.1124167 -0.021628851 -0.40633714
0.36338586 0.69851977 0.63431066 0.8882966 -0.6642889 -0.029128883 0.41804737 -0.6731165
-0.54253554 -0.4567062 0.026575485 1.4360873 -0.6941705 0.33659193 0.014014376 -0.16946723
0.059353285 0.3366008 -0.026896268 0.5098635 0.19810183 0.13616702 -0.39184564 0.59973985
1.1359154 -1.7288896 -0.128991 -0.12296396 0.035254546 0.44597784 0.59358394 -0.72742677
0.23757009 -0.79235536 0.3715648 -0.43814436 0.5547914 0.45031035 1.0963742 -0.17297919
1.0969099 0.44201332 -0.05600774 -0.2870322 -0.12131333 0.9844808 0.051779795 -0.88770694
-0.19818254 0.36023015 0.25341758 3.282276 -0.115574956 0.17047903 0.43980113 0.6839621
1.1713579 0.400749 0.69155115 -0.78239703 0.3426317 0.31746963 0.08685608 0.38596755
-0.8211324 -0.9697557 -0.007210536 0.22974478 0.59501284 0.6291511 -0.3835576 0.7912423
0.63201034 0.30720457 -0.20508601 -0.053481273 0.15458736 -1.2111702 0.4384444 -0.1620838
0.114628434 -0.20081529 0.1472867 0.19008648 -0.30320683 -0.47360554 0.55919385 0.26180848
0.20641048 -0.12662457 0.03326925 -0.99267584 0.4714656 0.5627042 0.025163699 -0.042862076
0.19528936 -0.21384655 0.17559615 -0.44767493 -0.50194615 -0.0009551264 0.21898162 -0.5584933
0.1625473 0.035416357 -2.6789978 0.3042345 0.090094686 -0.04658999 -0.11706125 0.19025992
0.08588263 0.8926732 -0.25791678 -0.20731176 0.18304577 -0.24279241 -0.0706707 0.4444047
-0.091033265 -0.056749843 0.12622713 -0.39797184 -0.12692715 -0.15446535 -0.009797547 0.073927045
0.45330235 -0.02693561 0.5008557 0.15219815 0.057780918 -0.11494153 -0.20667668 -0.2528752
-0.012156538 -0.13867308 -0.21520816 0.37229514 -0.3919466 -0.15922992 0.21376425 0.1265676
0.062151905 0.33618262 -0.14393292 0.25189802 -0.18563731 0.07325019 0.6977211 -0.18726337
0.91907537 0.0494149 -0.38858128 -0.9434453 -0.46315292 0.13306653 0.1840658 -0.24920337
-0.27837202 0.088682935 0.16884083 -0.35683006 -0.4252868 0.395925 -0.054830797 -0.11426829
0.88552326 0.13527319 -0.29303473 -0.010246259 0.7320595 0.9885016 -0.08999349 -0.830052
-0.05015462 -0.09215965 0.119782515 -0.09804974 0.06246061 0.15743907 -0.015539472 0.52288324
-0.23810424 -0.50020367 0.42427984 -0.038764335 0.16831915 -0.7824878 0.18440709 -0.04133189
0.33050504 0.36086375 0.1779047 0.24734563 0.56690675 0.34935385 -0.39125115 0.16927218
0.71336395 -0.57283366 0.1987246 -1.3988422 -1.7067177 0.22101207 0.3625407 0.6639056
0.16235705 -0.7148425 0.24388538 -0.034240067 -0.24754073 0.2195749 1.3290693 -0.023556156
0.21821806 -0.1466613 -0.49241942 -0.33098158 -0.6144033 0.49237543 0.545967 1.0830086
0.13258885 0.57396173 0.37716407 -0.3818507 0.30048674 0.121206075 0.019961415 -0.08886191
00000000: 14d9 5a3f 35e6 18bf c47a d23e fd2d 493f
00000010: df63 e13e 2a3a 74bc f6e1 f2bd 5c89 9cbe
00000020: 6f0a 2dbe 28a4 8cbd 5de7 8c3c 7c64 58be
00000030: 830b 793f 35e3 1abf d378 0b3f 6565 233e
00000040: 1718 963e 3106 473f c759 05be e226 dfbd
00000050: 8c34 813d ac63 8e3f fd2e b1bc 6c0b d0be
00000060: b60d ba3e 31d2 323f 2f62 223f 6867 633f
00000070: d60e 2abf b29f eebc 4e0a d63e 5d51 2cbf
00000080: 9ce3 0abf 65d5 e9be d5b4 d93c b5d1 b73f
00000090: 28b5 31bf c755 ac3e 8e9c 653c d188 2dbe
000000a0: 6e1c 733d f156 ac3e 9055 dcbc 6a86 023f
000000b0: 35db 4a3e 5e6f 0b3e fe9f c8be 8d88 193f
000000c0: ad65 913f 414c ddbf 3716 04be 87d4 fbbd
000000d0: 1267 103d 3557 e43e 1ef5 173f a438 3abf
000000e0: 9345 733e cdd7 4abf be3d be3e 7554 e0be
000000f0: cf06 0e3f 148f e63e fd55 8c3f 7521 31be
00000100: 8b67 8c3f 924f e23e 5f68 65bd e2f5 92be
00000110: 2073 f8bd ef06 7c3f 0d17 543d c340 63bf
00000120: 5df0 4abe 1670 b83e f3bf 813e cf10 5240
00000130: 90b2 ecbd 0e92 2e3e 9d2d e13e 2418 2f3f
00000140: 0eef 953f f92e cd3e 7f09 313f 2c4b 48bf
00000150: 6c6d af3e 618b a23e 9ae1 b13d 8a9d c53e
00000160: bc35 52bf e941 78bf 5c46 ecbb 3742 6b3e
00000170: c352 183f 0c10 213f a961 c4be db8e 4a3f
00000180: 6ecb 213f eb49 9d3e 1102 52be 2e0f 5bbd
00000190: 264c 1e3e a007 9bbf c97b e03e 4cf9 25be
000001a0: 50c2 ea3d 86a2 4dbe 53d2 163e 08a6 423e
000001b0: ed3d 9bbe 6d7c f2be 5427 0f3f c30b 863e
000001c0: 455d 533e dfa9 01be 5645 083d 0120 7ebf
000001d0: f063 f13e 620d 103f 1a24 ce3c 2590 2fbd
000001e0: eff9 473e 97fa 5abe 7acf 333e a635 e5be
000001f0: 8b7f 00bf 7361 7aba b83c 603e 6bf9 0ebf
00000200: cd72 263e be10 113d b374 2bc0 a0c4 9b3e
00000210: 9083 b83d 25d5 3ebd cfbd efbd 7fd3 423e
00000220: 3be3 af3d 3b86 643f ab0d 84be 8949 54be
00000230: 5a70 3b3e 939e 78be cdbb 90bd 0389 e33e
00000240: a66f babd 8672 68bd af41 013e f7c2 cbbe
00000250: 31f9 01be 2a2c 1ebe e485 20bc 1067 973d
00000260: 3f17 e83e 12a8 dcbc 1438 003f d5d9 1b3e
00000270: afab 6c3d 7766 ebbd 0da3 53be dc78 81be
00000280: 372c 47bc 5100 0ebe 875f 5cbe 789d be3e
00000290: 3aad c8be 2b0d 23be 04e5 5a3e f09a 013e
000002a0: ff92 7e3d 2120 ac3e 2763 13be c7f8 803e
000002b0: b517 3ebe 3204 963d da9d 323f f8c1 3fbe
000002c0: 8648 6b3f 4767 4a3d 20f4 c6be a285 71bf
000002d0: 6122 edbe 9842 083e bf7b 3c3e 2b2f 7fbe
000002e0: c786 8ebe 669f b53d 9ce4 2c3e 6eb2 b6be
000002f0: 31bf d9be aeb6 ca3e 4296 60bd 7e05 eabd
00000300: a7b1 623f 0e85 0a3e a608 96be eddf 27bc
00000310: 4068 3b3f 710e 7d3f 824e b8bd 4a7e 54bf
00000320: ee6e 4dbd 33be bcbd 8950 f53d 4dce c8bd
00000330: b2d6 7f3d b537 213e 4599 7ebc addb 053f
00000340: 99d1 73be 590d 00bf 353b d93e 5ac7 1ebd
00000350: db5b 2c3e 1f51 48bf 36d5 3c3e a14b 29bd
00000360: f537 a93e 22c3 b83e a62c 363e 2c48 7d3e
00000370: cd20 113f 82de b23e 1252 c8be b055 2d3e
00000380: 059f 363f 3aa5 12bf 767e 4b3e 430d b3bf
00000390: ba75 dabf fd50 623e ef9e b93e b8f5 293f
000003a0: ed40 263e ebff 36bf 17bd 793e 503f 0cbd
000003b0: 517b 7dbe 3ed8 603e f11e aa3f d7f8 c0bc
000003c0: 8e74 5f3e 612e 16be 661e fcbe 6b76 a9be
000003d0: 8949 1dbf a218 fc3e 7ec4 0b3f 07a0 8a3f
000003e0: 5fc5 073e 28ef 123f a61b c13e ef81 c3be
000003f0: 66d9 993e e43a f83d 1f86 a33c 3cfd b5bd

gru_cell.bias_ih f4 [192]
-0.41171414 -0.71149313 -0.7183213 -0.5979422 -0.630036 0.046488 -0.088086955 -0.11827312
-0.1651747 0.06338357 -0.5412558 0.13911617 -0.22357334 -0.02310315 -0.1693275 0.46632817
-0.33240926 -0.53924626 -0.02376985 0.047126077 0.242572 -0.42672196 -0.3106852 -0.36860624
-0.1380549 -0.120953925 0.08310727 -0.31892565 0.0030828107 -0.16490498 -0.20352909 -0.18533903
0.107513726 0.09323258 -0.18637107 -0.1557889 -0.48863882 -0.07601278 -0.20748949 -0.023791479
-0.12970993 -0.12381688 -0.11131565 0.18472484 0.27384612 -0.47414532 0.024612062 -0.32290792
0.26197925 -0.020754324 0.34978738 0.11104171 0.16805777 -0.7753996 -0.51838 -0.002878915
-0.44210246 -0.11239706 0.19476898 0.12999643 -0.21332899 -0.6012649 0.221175 -0.67118615
0.3991139 -0.28138095 0.23927705 0.3557037 0.39655071 0.289111 0.48286438 0.578727
0.31355825 0.8109832 0.49589872 0.81358993 0.8805811 0.39367667 0.4186348 0.009664791
0.44633824 0.5233934 0.6139746 0.8650171 0.39960915 0.5250175 0.16089961 -0.031678308
0.74401397 0.5986831 0.53562194 0.1944848 0.18613577 0.29521504 0.4385128 0.66739255
0.7566644 0.7894036 0.06504532 0.36940137 1.0017794 0.42806688 0.54117024 0.7000622
0.6394304 0.18302721 0.72493714 0.48003164 0.577869 0.48170736 0.13902323 0.4735398
0.7526409 0.7127523 0.8046636 0.60674846 0.77627325 0.70055985 -0.07168085 0.23730984
0.38623583 0.7809192 0.1746066 0.46266314 0.46057075 0.01418733 0.6076639 0.7187222
0.12246043 0.34126553 0.32965037 -0.11379491 0.0007566174 0.035872158 0.26526615 -0.050082773
0.24965848 0.11578843 0.0692272 -0.8479631 -0.17447673 0.024869999 -0.048852533 -0.47494683
0.023421379 0.020619513 -0.04893091 -0.6180841 -0.4248935 -0.11050733 -0.21838112 -0.2618705
0.02724061 0.2851561 -0.11674423 0.040739488 -0.06735902 -0.055149585 -0.07391813 -0.07642152
0.3258256 -0.16089973 -0.10854737 -0.1496571 -0.0054688533 0.048052058 0.27797547 -0.013565701
-0.22159617 -0.10567982 -0.35739782 0.21918695 0.5344599 0.2897955 -0.14758745 0.09484536
-0.45865396 -0.041961946 0.29732704 0.04826954 0.123377934 0.09208764 0.059483428 0.17714608
-0.088822514 -0.29536626 -0.62058824 0.071249485 -0.0708368 -0.1487153 0.1704225 0.8274454
00000000: 32cc d2be 6a24 36bf e8e3 37bf bd12 19bf
00000010: 0a4a 21bf 336a 3e3d ef66 b4bd 2d39 f2bd
00000020: 8e23 29be 3fcf 813d bd8f 0abf 7874 0e3e
00000030: 69f0 64be d142 bdbc 3064 2dbe 91c2 ee3e
00000040: 8c31 aabe 0b0c 0abf fdb8 c2bc 4607 413d
00000050: cb64 783e 4d7b dabe 2112 9fbe f5b9 bcbe
00000060: 445e 0dbe b1b6 f7bd 2534 aa3d 394a a3be
00000070: fb08 4a3b dadc 28be ee69 50be 84c9 3dbe
00000080: 2830 dc3d b9f0 be3d 0fd8 3ebe 2087 1fbe
00000090: de2e fabe 97ac 9bbd 2078 54be 59e6 c2bc
000000a0: aed2 04be b493 fdbd 76f9 e3bd 8228 3d3e
000000b0: 8f35 8c3e 2dc3 f2be 3c9f c93c 3054 a5be
000000c0: 2522 863e f904 aabc 5517 b33e d669 e33d
000000d0: 5617 2c3e 9780 46bf 8db4 04bf 2eac 3cbb
000000e0: 415b e2be 6e30 e6bd 8571 473e c91d 053e
000000f0: ea72 5abe 7fec 19bf b37b 623e dbd2 2bbf
00000100: a858 cc3e 2a11 90be 0b05 753e cc1e b63e
00000110: b208 cb3e 5b06 943e 003a f73e 7427 143f
00000120: b58a a03e 989c 4f3f 70e6 fd3e 6e47 503f
00000130: c36d 613f fd8f c93e 4d57 d63e 1259 1e3c
00000140: 7286 e43e 1cfd 053f 702d 1d3f c371 5d3f
00000150: 9299 cc3e 8c67 063f dec2 243e 1dc1 01bd
00000160: b377 3e3f 4c43 193f 851e 093f 0627 473e
00000170: 609a 3e3e 6d26 973e c084 e03e 3dda 2a3f
00000180: c2b4 413f 5b16 4a3f 7b36 853d 2d22 bd3e
00000190: 4f3a 803f 952b db3e 228a 0a3f 4737 333f
000001a0: b6b1 233f 7c6b 3b3e 7b95 393f b5c6 f53e
000001b0: 39ef 133f 59a2 f63e 1b5c 0e3e cf73 f23e
000001c0: 13ad 403f ef76 363f 6ffe 4d3f de53 1b3f
000001d0: d8b9 463f e457 333f 69cd 92bd 5a01 733e
000001e0: b4c0 c53e 52ea 473f 13cc 323e 2fe2 ec3e
000001f0: eecf eb3e fa71 683c dd8f 1b3f 2efe 373f
00000200: 89cc fa3d 5bba ae3e efc7 a83e 4e0d e9bd
00000210: bc57 463a afee 123d f7d0 873e 9823 4dbd
00000220: 79a6 7f3e 7c22 ed3d fdc6 8d3d 1c14 59bf
00000230: 07aa 32be 2bbc cb3c 9819 48bd 3b2c f3be
00000240: 31de bf3c 41ea a83c c76b 48bd c23a 1ebf
00000250: a48b d9be ab51 e2bd 4d9f 5fbe e413 86be
00000260: b327 df3c fbff 913e 9917 efbd 73de 263d
00000270: 87f3 89bd 88e4 61bd 6362 97bd e382 9cbd
00000280: 9dd2 a63e e6c2 24be 154e debd b63f 19be
00000290: 1134 b3bb 3cd2 443d cd52 8e3e ad42 5ebc
000002a0: 1bea 62be a96e d8bd d9fc b6be 8b72 603e
000002b0: 5dd2 083f 1360 943e 2a21 17be 493e c23d
000002c0: b1d4 eabe 4ae0 2bbd 403b 983e 48b6 453d
000002d0: 92ad fc3d 7298 bc3d e5a4 733d c865 353e
000002e0: 94e8 b5bd 3f3a 97be dfde 1ebf 40eb 913d
000002f0: e212 91bd d348 18be 3c83 2e3e 76d3 533f

gru_cell.bias_hh f4 [192]
-0.27027205 -0.7695271 -0.60821265 -0.51170397 -0.5769805 -0.06924021 0.055052564 -0.23312742
0.07538527 -0.041666746 -0.54233634 0.10093644 -0.24852318 -0.021706127 -0.2561436 0.530462
-0.28302988 -0.5558039 -0.18203542 -0.074050754 0.28045684 -0.33227667 -0.16315873 -0.5730593
-0.10577748 -0.26136225 0.041121732 -0.37991863 0.09247037 -0.08563751 -0.22577345 -0.15553318
0.31859365 0.0027844426 -0.14976707 -0.089000046 -0.39549273 -0.2069055 -0.06103002 0.15279251
-0.27737316 -0.15963554 -0.13616915 0.25452456 0.27712324 -0.3745284 0.0821255 -0.30435964
0.18406662 0.11757068 0.24858002 0.10698568 0.055240896 -0.6297524 -0.5586881 -0.12549041
-0.37042865 -0.102560766 -0.0144882165 0.31673738 -0.2462549 -0.6062609 0.3381213 -0.5887045
0.34123936 -0.2524913 0.26372114 0.34292656 0.45868042 0.36452648 0.40683323 0.686631
0.49454984 0.7827113 0.52554953 0.65114784 0.8718504 0.60949045 0.38588914 -0.10740507
0.4930378 0.5688389 0.7417534 0.71963626 0.40456802 0.571702 0.016419189 -0.038332395
0.8215895 0.5116555 0.65884525 0.004677423 0.22728723 0.45096 0.554294 0.6229521
0.68536735 0.7015655 0.09674601 0.36725682 0.8761171 0.3081579 0.4307787 0.67078686
0.5296071 0.30431065 0.6021516 0.42827582 0.5653108 0.59350187 0.2700069 0.4561513
0.6976009 0.59151393 0.81612664 0.7438102 1.023865 0.61909986 0.065648444 0.113720044
0.44871145 0.8173879 0.24648581 0.3445582 0.28486508 -0.09526647 0.4857375 0.75329775
0.18883142 -0.51278466 0.04694109 0.034376457 -0.093218975 -0.2479753 0.44936663 0.3255072
0.36180627 0.19905506 -0.041399974 -0.4260679 0.017338863 0.7249148 0.15778813 -0.75599456
-0.28110805 -0.08534814 -0.15275325 -0.21956988 -0.47593442 0.2923813 -0.4144829 -0.03197079
0.4214321 0.2743391 -0.12047291 0.6298411 -0.69683087 0.08530748 0.15708745 -0.113794304
0.45894775 0.011520749 0.16458727 -0.098070934 -0.39358738 0.06886586 0.10052939 -0.8100969
-0.25088772 0.2004004 -0.5442877 0.039975483 0.52751446 0.29232523 -0.9673197 -0.16363566
-0.33164567 -0.028643174 0.2279526 -0.02285278 -0.13726325 0.2675787 -0.24992907 -0.6852573
-0.6282869 0.08057841 -0.7527894 0.5476502 0.37100992 -0.72047937 -0.27744412 0.061772134
00000000: 1961 8abe baff 44bf d3b3 1bbf 08ff 02bf
00000010: feb4 13bf d0cd 8dbd cc7e 613d f4b8 6ebe
00000020: 9863 9a3d c0aa 2abd 8ed6 0abf c4b7 ce3d
00000030: dc7c 7ebe 0cd1 b1bc 4125 83be 5ccc 073f
00000040: 4be9 90be 2a49 0ebf 7e67 3abe eca7 97bd
00000050: 0a98 8f3e 2b20 aabe 1513 27be 04b4 12bf
00000060: dda1 d8bd 46d1 85be 436f 283d b284 c2be
00000070: 1b61 bd3d b862 afbd 2831 67be 1744 1fbe
00000080: b51e a33e 327b 363b 8a5c 19be a845 b6bd
00000090: 067e cabe 09df 53be 9dfa 79bd a475 1c3e
000000a0: db03 8ebe 8077 23be ed6f 0bbe 0b51 823e
000000b0: 19e3 8d3e 30c2 bfbe 6a31 a83d 07d5 9bbe
000000c0: f67b 3c3e e6c8 f03d c38b 7e3e 4f1b db3d
000000d0: 4744 623d 7437 21bf 2f06 0fbf 8f80 00be
000000e0: d3a8 bdbe 610b d2bd fc5f 6dbc 672b a23e
000000f0: 3f2a 7cbe ea33 1bbf 3c1e ad3e 57b5 16bf
00000100: edb6 ae3e 8a46 81be 7506 873e 1294 af3e
00000110: 29d8 ea3e 37a3 ba3e 724c d03e 0dc7 2f3f
00000120: a335 fd3e c55f 483f 6a8a 063f a0b1 263f
00000130: 9631 5f3f 9107 1c3f 4393 c53e 30f7 dbbd
00000140: 736f fc3e 6d9f 113f 8de3 3d3f 153a 383f
00000150: 8a23 cf3e 105b 123f 8981 863c 6e02 1dbd
00000160: b153 523f dbfb 023f 15aa 283f 1145 993b
00000170: fcbd 683e 3be4 e63e 36e6 0d3f ca79 1f3f
00000180: 3c74 2f3f cc99 333f c622 c63d 1609 bc3e
00000190: 3649 603f dfc6 9d3e 078f dc3e b0b8 2b3f
000001a0: 5594 073f 9bce 9b3e 9b26 1a3f f846 db3e
000001b0: 35b8 103f bdef 173f 583e 8a3e aa8c e93e
000001c0: f995 323f 756d 173f aded 503f 586a 3e3f
000001d0: 020e 833f 547d 1e3f b172 863d 0ee6 e83d
000001e0: 82bd e53e 5540 513f c766 7c3e ef69 b03e
000001f0: d6d9 913e 111b c3bd 96b2 f83e 1fd8 403f
00000200: 065d 413e db45 03bf 4d45 403d 54ce 0c3d
00000210: 97e9 bebd 3ded 7dbe 6213 e63e e1a8 a63e
00000220: ac3e b93e 17d5 4b3e 0593 29bd 9225 dabe
00000230: 3b0a 8e3c 0494 393f 3693 213e dc88 41bf
00000240: 65ed 8fbe 01cb aebd 596b 1cbe edd6 60be
00000250: adad f3be 00b3 953e 1a37 d4be cef3 02bd
00000260: f3c5 d73e 2d76 8c3e 80ba f6bd 443d 213f
00000270: 8263 32bf b0b5 ae3d 88db 203e fd0c e9bd
00000280: 33fb ea3e 86c1 3c3c 9189 283e 6ad9 c8bd
00000290: 4984 c9be 8b09 8d3d 5ae2 cd3d 8362 4fbf
000002a0: 5b74 80be c335 4d3e 7056 0bbf 55bd 233d
000002b0: 300b 073f a7ab 953e 44a2 77bf 1b90 27be
000002c0: 76cd a9be 17a5 eabc 686c 693e c135 bbbc
000002d0: bd8e 0cbe 1300 893e 68ed 7fbe 066d 2fbf
000002e0: 69d7 20bf 4b06 a53d ceb6 40bf ce32 0c3f
000002f0: 03f5 bd3e 5671 38bf 280d 8ebe c704 7d3d

fc.weight f4 [70, 64]
-0.28885603 4.6777096 2.8017426 1.2763914 -1.6063703 -2.3232985 -0.19447614 -1.2995557
1.1904266 -2.1543021 1.6688834 1.469786 -0.50298494 0.66508657 -2.315263 1.6456037
1.3031138 -0.24149403 -0.92228997 -1.8386818 -0.3420101 1.2118219 -1.0939162 0.996224
0.14475572 -1.1225157 -1.3390571 1.232127 0.56806076 1.795434 -5.2921414 -0.6501636
-0.3668822 1.9157227 0.47511148 1.1955042 1.2072166 0.38318107 -4.2042685 -0.49564758
-1.77915 -0.09114876 1.0206333 -1.6841077 -4.2524686 0.40567037 -0.8668974 -0.6910029
-1.0318645 1.5125982 0.73800176 3.2413657 1.0593565 1.7794547 -1.8093388 -2.1666312
-1.1383178 -0.76947117 1.5559859 -0.36542043 0.35251972 -0.8527112 2.219646 -3.8373091
2.2930613 3.5041747 2.6813912 1.2398981 0.11615081 0.2682141 -1.1691256 -1.2463475
0.4859763 -2.4082897 1.100115 1.9096277 -2.799882 1.1027819 -1.7790066 -0.43796238
-0.25931114 -0.533705 -2.3300383 -1.9479233 -0.33491087 1.9557016 -2.0008678 -0.11990364
-0.093782715 -1.205386 -1.4899261 0.29520285 0.7897315 -0.3210658 -1.2696421 0.71740836
-0.67896503 1.633109 -0.37940684 1.4952881 0.33503416 -1.0945721 -4.6703496 -1.10515
-0.99519575 -1.0122393 1.6387017 -0.7392516 -1.9833945 2.4113803 -0.8168902 -0.73769015
-0.8714383 1.3688792 0.73428947 3.4357142 1.313511 7.345025 -0.60880524 -0.14860003
-0.59454304 -1.6216167 3.460683 0.35202658 0.1064556 -0.43525267 0.5078531 -2.4925408
0.9036618 3.3860152 1.9965063 -0.35943654 1.5528507 -0.56173694 -2.2375393 -1.5554366
-1.7300653 -2.1856303 1.1354381 1.3525809 -1.060093 1.614763 -0.47506922 -0.24114697
-0.798989 -0.5942171 0.2260674 -2.1305933 -0.31984136 0.18652426 -2.5091815 -0.06838937
-1.0397676 -1.1830168 -1.2057971 0.22654437 -0.932905 -0.030060252 1.6739011 0.31029707
-0.02972724 1.0928019 0.64721197 0.2003651 0.11737383 -0.8979068 -2.3511662 -0.85745174
-1.0863035 -1.0163224 1.774542 -0.14487968 0.27631518 1.5476061 -0.13110374 -0.009861877
-0.6863982 1.1453998 0.5623626 0.82742125 0.7918894 4.5417957 -0.37454215 -0.60399824
-0.018315818 -0.47371623 2.6430256 0.044826444 -0.0005064681 -0.06633764 0.49829432 -3.7618923
0.095743045 2.4673207 1.2188283 -0.02024325 -0.52947074 -0.66728264 -2.4676564 -1.8065405
-1.8108994 -2.060354 2.2818732 0.92866564 -2.008365 1.1155547 0.5050367 0.13210173
0.04910905 -0.6804018 0.5514808 -2.4816666 0.065609135 -0.045477558 -1.0470846 -0.0051429924
-1.4159594 -0.571789 -1.3402127 -1.1495429 -0.69981825 0.4338257 1.3861864 -0.78331804
-0.7689219 1.1396945 -0.3925079 -0.2566158 0.36414504 -1.0956671 0.5140502 -0.76228344
-1.7872809 -0.7485655 0.956741 -0.35361642 0.2837789 -0.39291084 -0.10587914 0.1252077
-0.6684544 0.81983685 0.4250554 -0.01325528 0.7210081 -1.1074827 -0.19041635 0.5639981
-0.17939873 0.7475537 0.3031621 0.049762197 -0.3377552 0.16926694 1.4767077 -3.1836429
00000000: f0e4 93be ccaf 9540 c04f 3340 cb60 a33f
00000010: 8b9d cdbf ecb0 14c0 c124 47be d757 a6bf
00000020: e65f 983f 16e0 09c0 f99d d53f f321 bc3f
00000030: 9fc3 00bf 1d43 2a3f 452d 14c0 24a3 d23f
00000040: 6fcc a63f 364a 77be 321b 6cbf ed59 ebbf
00000050: f31b afbe fb1c 9b3f 7205 8cbf 8908 7f3f
00000060: d83a 143e 98ae 8fbf 3966 abbf 56b6 9d3f
00000070: 6e6c 113f c8d0 e53f 3959 a9c0 1f71 26bf
00000080: fcd7 bbbe 6736 f53f d041 f33e 4806 993f
00000090: 1386 9a3f 4f30 c43e 5e89 86c0 85c5 fdbe
000000a0: 30bb e3bf 33ac babd 1da4 823f d790 d7bf
000000b0: 3914 88c0 07b4 cf3e fdec 5dbf 91e5 30bf
000000c0: 2314 84bf d19c c13f afed 3c3f 8972 4f40
000000d0: fe98 873f 2cc5 e33f 6a98 e7bf 16aa 0ac0
000000e0: 66b4 91bf 10fc 44bf 8c2a c73f 6318 bbbe
000000f0: 777d b43e 484b 5abf ae0e 0e40 7996 75c0
00000100: 84c1 1240 6644 6040 ea9b 2b40 fbb4 9e3f
00000110: 7ae0 ed3d 5c53 893e e8a5 95bf 5188 9fbf
00000120: e3d1 f83e 6b21 1ac0 91d0 8c3f ae6e f43f
00000130: 4431 33c0 f527 8d3f 7db6 e3bf 9b3c e0be
00000140: 6ec4 84be e4a0 08bf 591f 15c0 8d55 f9bf
00000150: 7079 abbe 6e54 fa3f 380e 00c0 0a90 f5bd
00000160: 2711 c0bd 174a 9abf e6b5 bebf d424 973e
00000170: d82b 4a3f bd62 a4be a283 a2bf 13a8 373f
00000180: a7d0 2dbf b709 d13f 9d41 c2be 9a65 bf3f
00000190: 9989 ab3e f01a 8cbf 8173 95c0 8e75 8dbf
000001a0: 26c5 7ebf 0f91 81bf fac0 d13f 983f 3dbf
000001b0: dfdf fdbf 0e54 1a40 b71f 51bf 43d9 3cbf
000001c0: 9516 5fbf 6f37 af3f 65fa 3b3f bee2 5b40
000001d0: 2121 a83f 720a eb40 a9da 1bbf 9b2a 18be
000001e0: f933 18bf 2391 cfbf d57b 5d40 d43c b43e
000001f0: 6505 da3d 70d9 debe a902 023f ca85 1fc0
00000200: 6156 673f 79b4 5840 858d ff3f 1108 b8be
00000210: d0c3 c63f fecd 0fbf d833 0fc0 8c18 c7bf
00000220: c872 ddbf 5ee1 0bc0 0956 913f 5f21 ad3f
00000230: 21b1 87bf 8eb0 ce3f 463c f3be 3bef 76be
00000240: 8b8a 4cbf 9d1e 18bf 367e 673e a45b 08c0
00000250: 3fc2 a3be 3700 3f3e 6e96 20c0 ba0f 8cbd
00000260: 1b17 85bf 186d 97bf 8f57 9abf 3ffb 673e
00000270: ddd2 6ebf eb40 f6bc 6442 d63f 42df 9e3e
00000280: 8a86 f3bc efe0 8b3f afaf 253f 822c 4d3e
00000290: b161 f03d 38dd 65bf 8279 16c0 f581 5bbf
000002a0: fe0b 8bbf da16 82bf 3124 e33f 575b 14be
000002b0: 2f79 8d3e f517 c63f 0f40 06be b693 21bc
000002c0: cbb7 2fbf 769c 923f fff6 0f3f e1d1 533f
000002d0: 44b9 4a3f 6456 9140 fdc3 bfbe a19f 1abf
000002e0: 0e0b 96bc ef8a f2be 5527 2940 ef9b 373d
000002f0: 80c4 04ba 07dc 87bd 6f20 ff3e d8c2 70c0
00000300: ee14 c43d 95e8 1d40 9102 9c3f 2cd5 a5bc
00000310: 658b 07bf 09d3 2abf 15ee 1dc0 b83c e7bf
00000320: 8dcb e7bf d7dc 03c0 360a 1240 08bd 6d3f
00000330: 0d89 00c0 7fca 8e3f 164a 013f ad45 073e
00000340: 9226 493d d02e 2ebf d92d 0d3f a0d3 1ec0
00000350: 155e 863d ad46 3abd de06 86bf 8c86 a8bb
00000360: 283e b5bf c460 12bf 178c abbf 3924 93bf
00000370: 4a27 33bf 671e de3e 8e6e b13f 8887 48bf
00000380: 11d8 44bf 82e1 913f ccf6 c8be 2563 83be
00000390: 3871 ba3e d23e 8cbf cb98 033f 0225 43bf
000003a0: 9fc5 e4bf fda1 3fbf faec 743f 360d b5be
000003b0: 784b 913e 9c2b c9be 2ad7 d8bd 7336 003e
000003c0: d41f 2bbf d4e0 513f dda0 d93e ad2c 59bc
000003d0: fd93 383f fec1 8dbf 81fc 42be 2e62 103f
000003e0: 4db4 37be ae5f 3f3f 1038 9b3e 72d3 4b3d
000003f0: 40ee acbe 5054 2d3e c204 bd3f cec0 4bc0

fc.bias f4 [70]
0.3163846 0.39061284 0.12244682 0.0043318025 -0.47520897 0.46219096 0.26036277 0.22184992
-0.23967399 0.1965377 0.00075934397 -0.33684245 -0.07023476 -0.53059006 -0.651066 0.2509572
0.5009132 0.11216612 -0.20639193 0.36732763 0.07501411 0.07738803 0.023981314 -0.043298647
-0.13895157 0.22334157 -0.15382169 -0.23976219 -0.30422485 0.08207995 -0.086406104 -0.26535347
-0.23675045 -0.28965157 -0.24951842 -1.1915699 0.5425812 0.50743884 -0.058319468 0.38491145
-0.04888499 -0.06709612 -0.14739566 0.088863485 -0.21490099 0.28217295 -0.117833145 -0.03369946
0.25943816 0.13695678 -0.111927524 0.015323058 -0.19985981 0.07613052 0.012772666 -1.1422197
-0.22277203 -0.50433254 0.07276142 -0.012713063 -0.09098505 -0.1827257 -0.08299927 0.13364391
0.2716311 -0.060863037 -0.15423673 0.029926883 0.20620543 0.08711403
00000000: 2afd a13e 68fe c73e 66c5 fa3d cbf1 8d3b
00000010: 974e f3be 4ba4 ec3e 454e 853e a02c 633e
00000020: 196d 75be 2e41 493e b60e 473a 9d76 acbe
00000030: 3ed7 8fbd c0d4 07bf 43ac 26bf 767d 803e
00000040: d93b 003f 5ab7 e53d 6858 53be 5e12 bc3e
00000050: ffa0 993d 9e7d 9e3d 7674 c43c ec59 31bd
00000060: 5249 0ebe a7b3 643e 6f83 1dbe 3884 75be
00000070: 5cc3 9bbe 8819 a83d aff5 b0bd 69dc 87be
00000080: b66e 72be 364d 94be c281 7fbe 5d85 98bf
00000090: 9ae6 0a3f 83e7 013f 65e0 6ebd 1d13 c53e
000000a0: a13b 48bd b169 89bd e3ee 16be 0ffe b53d
000000b0: 010f 5cbe f978 903e 8152 f1bd 7208 0abd
000000c0: 14d5 843e 663e 0c3e 423a e5bd 900d 7b3c
000000d0: 0da8 4cbe 51ea 9b3d 7244 513c 4134 92bf
000000e0: 5a1e 64be f01b 01bf f003 953d 734a 50bc
000000f0: 5f56 babd 721c 3bbe 85fb a9bd f3d9 083e
00000100: 3b13 8b3e 854b 79bd 3cf0 1dbe 3929 f53c
00000110: 8427 533e d768 b23d
